직선으로이동_장애물도_센서값만입력력.pth (torch, 405248 bytes, 8 tensors)

fc.0.weight f4 [256, 5]
0.051290315 0.17583197 0.08008132 -0.3905188 0.4563816 0.2387773 -0.44462916 -0.4774315
-0.6275417 -0.009772231 -0.044234827 0.44298387 -0.09513999 0.19079092 -0.70955795 -0.4080589
0.14846048 -0.036590703 0.124167725 -0.28360647 0.13261263 0.2529598 -0.556366 -0.47284856
-0.20880213 0.54563135 -0.10059332 0.07869588 -0.10896324 0.2969628 -0.55736554 -0.1766335
0.11774623 0.08025147 0.0963916 -0.59296095 0.14691482 0.116755486 0.21428268 0.18259248
-0.25867334 -0.41760612 -0.34418496 0.21394002 0.14125852 -0.5209305 -0.11473925 0.24747093
0.2202403 0.3762967 -0.24061489 -0.4181777 0.14944537 0.07790289 0.027625421 0.4438131
-0.2267771 -0.13102743 0.07485104 0.31333822 -0.4039345 0.108068675 -0.1300342 -0.17094615
0.42264253 -0.3152404 0.2434231 0.13298438 -0.4313227 -0.06392118 -0.52523965 -0.47698122
0.384309 0.2383178 -0.19854532 -0.059699714 0.26085576 0.26699886 -0.118975915 0.18946809
0.42620948 0.083276756 0.41023603 -0.20114143 -0.28042775 -0.14309864 0.32525986 -0.19715858
0.33888072 0.51974267 -0.4105358 0.13695267 0.036250226 0.3593937 0.4168117 0.29692134
-0.044561982 0.34063265 -0.28055727 -0.22562286 0.12651455 -0.51542044 -0.6722694 0.2839704
0.31197712 0.45587105 0.29824528 0.384352 -0.14043896 -0.018099373 -0.38580534 0.3252778
-0.39923146 -0.095503375 -0.47948405 0.5656255 -0.16489685 0.0625035 -0.5316293 -0.6948616
0.27227417 -0.24231245 -0.08175548 -0.47339532 -0.5164918 -0.53601605 0.14882667 -0.00039583174
-0.097947486 0.5380729 0.23502892 -0.30460042 -0.09071126 -0.4309428 -0.56572616 0.045150895
0.28921688 0.3521017 0.1704868 -0.05787903 0.4645843 0.23920557 0.038158804 -0.30894065
-0.19150463 0.0018509316 0.045763116 0.11510004 -0.45591843 -0.41152075 0.32996395 0.36522132
-0.0268034 -0.27214453 0.08422507 -0.5810699 -0.5276358 0.35423446 -0.062117428 0.005578489
0.010908469 0.18106642 -0.16207355 -0.34187356 -0.5572957 -0.5896961 0.32566452 0.36347428
0.14531834 -0.4011495 -0.010415882 -0.34056365 -0.13160321 -0.15297914 -0.14644763 -0.30949795
-0.4146095 0.38099205 0.17318289 -0.335751 0.41252208 -0.4759206 0.33564886 0.1250714
-0.38157547 -0.47411388 -0.30104458 0.29084083 -0.097283214 0.46118823 -0.0974062 -0.6299595
0.33705702 0.32307738 0.09052496 -0.2871946 -0.1536006 -0.19507587 -0.07825872 -0.31856924
0.102539755 0.022280948 -0.5715539 -0.025619918 0.2871233 0.0153205395 0.14274167 -0.24214137
0.18106414 0.42437798 -0.34316778 -0.3272402 0.31550816 -0.14881043 -0.13430235 0.04727524
-0.35783118 0.38786948 -0.0026628952 -0.0071528973 0.1510676 0.24798635 -0.6602651 -0.075764515
-0.6086121 0.056826867 -0.4517474 0.17967811 0.02654748 0.46763927 -0.15536325 0.0019609155
0.24619265 0.03783489 0.506008 0.18381831 -0.5976117 0.12229653 -0.025477352 0.38865146
-0.31263813 -0.21449788 0.11551933 -0.07304345 0.5063777 0.308168 -0.3975703 -0.5876343
-0.18799846 -0.59706527 -0.46628243 0.15778802 -0.16191074 0.15056668 0.006270705 -0.36903313
00000000: cb15 523d 4c0d 343e ad01 a43d 15f2 c7be
00000010: d9aa e93e 0982 743e 6fa6 e3be e771 f4be
00000020: 93a6 20bf b51b 20bc 942f 35bd c8ce e23e
00000030: c1d8 c2bd b25e 433e 97a5 35bf 19ed d0be
00000040: 0606 183e 22e0 15bd a64b fe3d de34 91be
00000050: 9bcb 073e f283 813e 016e 0ebf 3519 f2be
00000060: 3ad0 55be 7fae 0b3f df03 cebd 4e2b a13d
00000070: 1f28 dfbd 820b 983e 82af 0ebf 6adf 34be
00000080: ef24 f13d e25a a43d f668 c53d 4acc 17bf
00000090: d770 163e 801d ef3d eb6c 5b3e 86f9 3a3e
000000a0: d570 84be 78d0 d5be 0339 b0be 1813 5b3e
000000b0: 13a6 103e b45b 05bf 69fc eabd 0569 7d3e
000000c0: ac86 613e f6a9 c03e c063 76be 631b d6be
000000d0: 3508 193e 8d8b 9f3d b54e e23c 783b e33e
000000e0: 4238 68be 0e2c 06be 814b 993d de6d a03e
000000f0: 81d0 cebe 1c53 dd3d af27 05be 820c 2fbe
00000100: 9a64 d83e 3167 a1be e843 793e 0f2d 083e
00000110: 54d6 dcbe 1ce9 82bd 1b76 06bf e236 f4be
00000120: 26c4 c43e 9509 743e 774f 4bbe b087 74bd
00000130: e38e 853e 13b4 883e a5a9 f3bd ec03 423e
00000140: 2138 da3e 018d aa3d 750a d23e 05f8 4dbe
00000150: 3a94 8fbe 7388 12be 7688 a63e f0e3 49be
00000160: c681 ad3e db0d 053f c031 d2be 523d 0c3e
00000170: 1e7b 143d 7302 b83e 5868 d53e 1306 983e
00000180: a086 36bd 6767 ae3e 34a5 8fbe ae09 67be
00000190: 088d 013e 98f2 03bf d919 2cbf 9164 913e
000001a0: 77bb 9f3e ee67 e93e 9bb3 983e c9c9 c43e
000001b0: 3bcf 0fbe 2345 94bc 4788 c5be d08a a63e
000001c0: 1168 ccbe 4697 c3bd ef7e f5be d5cc 103f
000001d0: b8da 28be d601 803d dc18 08bf 73e2 31bf
000001e0: 8567 8b3e c120 78be 6b6f a7bd df60 f2be
000001f0: ce38 04bf 5938 09bf 0566 183e a387 cfb9
00000200: b198 c8bd 25bf 093f 6cab 703e 96f4 9bbe
00000210: d3c6 b9bd 89a4 dcbe 6ed3 10bf 25f0 383d
00000220: 3c14 943e ad46 b43e 1794 2e3e 9012 6dbd
00000230: fedd ed3e 4ef2 743e 684c 1c3d 782d 9ebe
00000240: ca19 44be f59a f23a 1b72 3b3d 92b9 eb3d
00000250: 246e e9be d9b2 d2be 09f1 a83e 4afe ba3e
00000260: ce92 dbbc 8756 8bbe 327e ac3d ffc0 14bf
00000270: 2413 07bf 385e b53e d86e 7ebd c2cb b63b
00000280: 6fb9 323c 7a69 393e 9cf6 25be 0d0a afbe
00000290: eeaa 0ebf 53f6 16bf 80bd a63e 4d19 ba3e
000002a0: 55ce 143e 7863 cdbe 60a7 2abc 5c5e aebe
000002b0: fec2 06be 90a6 1cbe 5ef6 15be 8476 9ebe
000002c0: b247 d4be 6411 c33e db56 313e 8ee7 abbe
000002d0: 1836 d33e ddab f3be 2bda ab3e b812 003e
000002e0: dc5d c3be 0ebf f2be 8422 9abe 17e9 943e
000002f0: 6c3c c7bd dd20 ec3e e77c c7bd 0745 21bf
00000300: bd92 ac3e 666a a53e 2665 b93d 2c0b 93be
00000310: 7a49 1dbe f8c1 47be 1c46 a0bd 821b a3be
00000320: 5d00 d23d 8986 b63c 5b51 12bf dde0 d1bc
00000330: d301 933e 0003 7b3c df2a 123e e8f3 77be
00000340: e168 393e 1248 d93e b0b3 afbe 078c a7be
00000350: 498a a13e c361 18be 8e86 09be afa3 413d
00000360: a635 b7be d496 c63e f883 2ebb da62 eabb
00000370: 77b1 1a3e 22f0 7d3e 2207 29bf 6d2a 9bbd
00000380: 01ce 1bbf 4ac3 683d 6f4b e7be 8afd 373e
00000390: 1a7a d93c 6a6e ef3e 8b17 1fbe b482 003b
000003a0: ed19 7c3e c2f8 1a3d be89 013f de3a 3c3e
000003b0: 15fd 18bf 9a76 fa3d e1b5 d0bc 53fd c63e
000003c0: 1b12 a0be 55a5 5bbe 6695 ec3d ce97 95bd
000003d0: f8a1 013f 32c8 9d3e 568e cbbe 346f 16bf
000003e0: ab82 40be 45d9 18bf 92bc eebe 2f93 213e
000003f0: eecb 25be 272e 1a3e 7c7a cd3b e9f1 bcbe

fc.0.bias f4 [256]
0.513333 0.054692157 -0.43199658 -0.1440678 -0.27316785 0.39664668 9.370164e-05 0.08927847
-0.3822008 0.29732257 0.27023324 0.22446936 0.15666717 -0.6007583 -0.12993439 0.50917333
0.20588759 0.28687176 0.40910417 0.043904148 -0.089339584 0.047695186 -0.075916335 0.14190441
0.14575897 -0.1450735 -0.059706964 -0.08261542 0.07034261 -0.004562228 -0.32736564 0.3120576
-0.07788808 -0.4296917 0.24662262 -0.3184412 0.040976346 -0.25326076 -0.48448882 0.36823648
0.30488095 0.19712223 0.34560212 0.02511866 -0.37425774 -0.21776086 0.38190562 -0.052890316
-0.26886764 -0.10169368 0.48727974 -0.34091866 0.68617237 -0.25193137 0.43688786 0.325676
-0.07896912 -0.1276425 0.20477508 0.0108849015 -0.27816868 0.13313851 0.00213869 0.1953446
0.23024324 -0.13460077 -0.047099143 -0.007839321 0.28317258 0.44307476 -0.4106742 0.13532569
-0.34996966 0.49903655 0.46354905 -0.049263213 -0.5889637 -0.31641293 0.24161285 -0.4221226
0.17249066 -0.48827934 -0.06534757 -0.23255888 0.23637888 0.4973241 0.30225858 0.17621835
-0.082280904 -0.019963853 0.069557674 -0.3186121 -0.4357316 0.1873713 0.33983022 -0.107507356
-0.40629944 0.0774543 -0.32689464 -0.4166708 0.19883266 0.27134255 0.07556392 -0.13221447
-0.15022902 -0.23239782 -0.59953237 -0.3834227 -0.44238317 -0.16867033 -0.039067104 -0.45618635
-0.26992 -0.10795669 -0.26679778 -0.3388785 0.2151485 0.27264816 -0.24055712 -0.46490943
0.12644432 -0.14663544 0.13267487 -0.6271552 0.17981727 0.33501744 -0.19538182 -0.45341587
-0.24839902 0.304122 -0.10834812 -0.37907195 -0.17979044 0.0064421664 0.30918023 0.3627613
-0.073957786 -0.030638281 0.25463882 0.097710066 0.37010822 0.16718882 -0.026651043 0.09976107
-0.07176084 -0.38654456 0.3744028 -0.07395756 0.04012544 0.38556314 0.59457225 -0.35986027
-0.10603765 0.422941 -0.5215579 -0.01566372 0.5989099 -0.1232662 -0.14936681 0.40131998
0.035526644 -0.04603718 -0.3692074 0.29313433 0.002855846 -0.026380321 0.2739073 0.2401452
-0.20966092 0.2548171 -0.029017303 0.25377476 -0.19746642 0.04561148 0.5231716 0.30886534
-0.2802317 -0.272023 -0.265253 -0.16370921 -0.4125306 0.27428588 0.060558215 0.12400543
-0.4770709 -0.5850424 -0.23050714 0.22233854 -0.28824154 -0.040278427 0.19969396 -0.38972512
-0.3264429 0.33308733 -0.3860358 0.029323772 -0.09601591 -0.42873648 0.096429035 0.30794722
-0.16750577 -0.043084316 0.3985157 -0.18377209 -0.434564 -0.09384474 0.21603587 0.045841858
-0.005613042 -0.12047934 0.513634 -0.60903615 -0.01847942 -0.007002407 0.45611486 -0.04440709
0.06533426 -0.026234008 0.25936797 -0.27697685 0.05524767 -0.3081058 0.15408896 0.37943986
-0.4621803 0.3650633 0.29508096 -0.056456253 -0.47567767 -0.35671657 -0.29873854 0.42240465
-0.36035696 0.47513017 -0.16469993 -0.07417093 0.4639196 -0.019282134 -0.42356578 -0.074477606
0.009256186 -0.14138739 -0.33834583 -0.20784438 -0.15112776 0.41614217 0.04691622 -0.38428205
0.12749323 -0.3986416 -0.03294392 0.10561979 -0.39899355 -0.42775714 -0.32559595 0.3932375
00000000: cb69 033f e204 603d a82e ddbe 8286 13be
00000010: a8dc 8bbe 4615 cb3e af81 c438 a1d7 b63d
00000020: d3af c3be aa3a 983e 035c 8a3e 4cdb 653e
00000030: 5c6d 203e 4ccb 19bf 850d 05be 2f59 023f
00000040: 32d4 523e dbe0 923e 1a76 d13e d6d4 333d
00000050: acf7 b6bd 075c 433d 067a 9bbd 644f 113e
00000060: d741 153e 268e 14be 4a8f 74bd 4632 a9bd
00000070: c90f 903d be7e 95bb 789c a7be 04c6 9f3e
00000080: c983 9fbd 8d00 dcbe a48a 7c3e ba0a a3be
00000090: d0d6 273d 65ab 81be eb0e f8be 7e89 bc3e
000000a0: 5b19 9c3e 69da 493e c3f2 b03e a6c5 cd3c
000000b0: b69e bfbe b4fc 5ebe 2289 c33e 84a3 58bd
000000c0: 05a9 89be c744 d0bd bb7c f93e e48c aebe
000000d0: fea8 2f3f 26fd 80be c4af df3e 01bf a63e
000000e0: 90ba a1bd b7b4 02be 8fb0 513e 9656 323c
000000f0: 206c 8ebe 7655 083e 4429 0c3b 6a08 483e
00000100: e2c4 6b3e c9d4 09be 08eb 40bd 7f70 00bc
00000110: fffb 903e b2da e23e e443 d2be d192 0a3e
00000120: 392f b3be b881 ff3e 4d56 ed3e 39c8 49bd
00000130: 53c6 16bf e000 a2be 5c69 773e 7420 d8be
00000140: 64a1 303e c0ff f9be f2d4 85bd ea23 6ebe
00000150: 4e0d 723e 44a1 fe3e a3c1 9a3e 9572 343e
00000160: e482 a8bd 3c8b a3bc 4174 8e3d 2021 a3be
00000170: 3618 dfbe 43de 3f3e 3afe ad3e d12c dcbd
00000180: 7b06 d0be 5ca0 9e3d bc5e a7be e055 d5be
00000190: ca9a 4b3e 69ed 8a3e 42c1 9a3d 3b63 07be
000001a0: a3d5 19be b2f9 6dbe f47a 19bf fb4f c4be
000001b0: 0c80 e2be eab7 2cbe d404 20bd 4291 e9be
000001c0: f432 8abe 6618 ddbd b899 88be 7c81 adbe
000001d0: e34f 5c3e 8a98 8b3e 9b54 76be 9c08 eebe
000001e0: 9f7a 013e 9a27 16be ecdb 073e 3e8d 20bf
000001f0: 0522 383e 6887 ab3e 2c12 48be 2026 e8be
00000200: 505c 7ebe e1b5 9b3e 9ee5 ddbd b815 c2be
00000210: fc1a 38be cf18 d33b df4c 9e3e d9bb b93e
00000220: 2e77 97bd 22fd fabc 0560 823e 371c c83d
00000230: d37e bd3e 8c33 2b3e 4a53 dabc 884f cc3d
00000240: 59f7 92bd 2be9 c5be b9b1 bf3e 1077 97bd
00000250: 935a 243d 8868 c53e e335 183f 9b3f b8be
00000260: 442a d9bd b98b d83e d284 05bf 3451 80bc
00000270: 2952 193f fd72 fcbd 9df3 18be d079 cd3e
00000280: 6384 113d 7b91 3cbd c108 bdbe b415 963e
00000290: 2529 3b3b 8b1b d8bc 943d 8c3e a0e8 753e
000002a0: 5ab1 56be 6377 823e b2b5 edbc c4ee 813e
000002b0: a334 4abe 1ad3 3a3d 93ee 053f 9923 9e3e
000002c0: 887a 8fbe 9946 8bbe 3ecf 87be 63a3 27be
000002d0: 3637 d3be 336f 8c3e e40b 783d 8ff6 fd3d
000002e0: a342 f4be 57c5 15bf 100a 6cbe b7ac 633e
000002f0: 6594 93be fefa 24bd 937c 4c3e 0d8a c7be
00000300: 8623 a7be 6c8a aa3e 7ca6 c5be 6838 f03c
00000310: fda3 c4bd 5983 dbbe 967c c53d 42ab 9d3e
00000320: a286 2bbe 2e79 30bd 400a cc3e c02e 3cbe
00000330: 2c7f debe ac31 c0bd 8238 5d3e acc4 3b3d
00000340: 9ced b7bb dfbd f6bd 857d 033f cbe9 1bbf
00000350: 2762 97bc 7374 e5bb e387 e93e 35e4 35bd
00000360: f8cd 853d b4e8 d6bc e1cb 843e e9cf 8dbe
00000370: 614b 623d 0bc0 9dbe 7fc9 1d3e f145 c23e
00000380: e5a2 ecbe 94e9 ba3e da14 973e ac3e 67bd
00000390: 068c f3be 8ea3 b6be 42f4 98be 6c45 d83e
000003a0: b580 b8be 4344 f33e 19a7 28be eee6 97bd
000003b0: df86 ed3e 91f5 9dbc 9ddd d8be b787 98bd
000003c0: 42a7 173c dbc7 10be aa3b adbe 28d5 54be
000003d0: 3cc1 1abe 9610 d53e 392b 403d 9ec0 c4be
000003e0: 968d 023e c01a ccbe 34f0 06bd 304f d83d
000003f0: e248 ccbe fc02 dbbe 83b4 a6be 6d56 c93e

fc.2.weight f4 [256, 256]
-0.013167217 0.062015705 -0.051817235 -0.035103384 -0.0026298836 0.034796268 0.031115916 0.039516326
-0.04273597 0.009106992 -0.015395057 -0.05138052 -0.040108092 -0.026839696 0.05631142 -0.027630217
-0.015895128 0.030035274 -0.029854717 0.04995407 -0.051667973 -0.028143734 0.04040181 0.00933712
0.050478898 0.014496744 0.05810845 -0.043105748 0.05691047 0.05580099 -0.016887002 -0.024694934
0.038362935 -0.014076757 0.021823592 0.047154084 -0.010461552 -0.0324544 0.004628815 0.01109048
0.028744806 -0.013190274 -0.053175256 -0.046889126 0.030905008 -0.0032503386 -0.042795114 0.02001205
0.035371177 0.012906887 -0.030277548 0.03293921 -0.000595741 0.02596858 -0.055901833 -0.014489792
0.047493927 0.012930959 -0.05062259 0.054796692 0.044961784 0.05549167 -0.053303197 0.03861013
-0.052480616 -0.041724324 -0.059398845 0.022533253 0.04365339 0.035484575 -0.031714544 -0.0242256
-0.03502359 -0.036537237 -0.0587195 -0.06283976 0.047854442 -0.04276704 -0.0054528792 0.03217508
-0.016538523 0.029736029 0.02643989 -0.040850386 -0.02660522 0.050373368 -0.009563051 0.028918678
-0.04793939 -0.051582567 -0.026631126 -0.0052836356 -0.038604897 -0.035833374 0.040031247 0.00796567
-0.038808215 0.060169607 -0.0049037337 0.037388638 0.023465969 -0.052127037 -0.029636286 -0.036666863
-0.0016274005 0.0040374217 0.022760406 0.05686581 0.04533536 -0.04591129 -0.02529817 -0.056058116
0.00090786815 -0.050795175 -0.008092061 -0.032035258 -0.03803755 0.030737892 -0.024406224 -0.0032543254
-0.038585 -0.06403638 0.049892716 0.00062878936 -0.0133609725 -0.0058994666 -0.02332192 -0.015185137
-0.03483303 0.04082494 0.035250552 -0.04822223 0.033704787 -0.011959095 -0.0020433143 -0.0338584
0.022204697 -0.055062316 0.004939346 -0.03275436 0.046699733 -0.026306488 0.041539278 -0.036985364
0.0036120713 0.035601728 -0.01285239 0.0038873106 -0.052246198 -0.0016505632 0.052401446 -0.0011950433
0.00925193 -0.062035672 -0.009522873 -0.042727813 -0.05128628 0.014105804 0.022605464 0.008670092
-0.039594963 0.027330644 -0.016342022 -0.043583862 0.013738565 0.042620335 0.047495216 0.035384692
0.05209833 -0.041472852 -0.02980464 -0.041763633 0.04452097 0.05015204 -0.022116546 0.021781458
0.025432492 -0.062172443 0.030189555 -0.029736094 -0.0048136488 0.028218623 0.034047812 -0.030331237
-0.049903136 -0.06593326 -0.04183817 0.054442972 -0.002434887 0.045178197 -0.04015919 -0.030664973
-0.007447584 -0.017238043 0.00494425 -0.06329507 0.045363713 0.029121144 -0.06160284 -0.030616648
-0.059951063 -0.0037988573 0.043819435 0.05993919 0.058322012 0.027711555 0.029959135 0.03384549
-0.047573272 -0.020769283 -0.058658376 0.056202006 -0.010462351 -0.052151255 -0.02463929 -0.007699847
0.032970343 -0.026257142 -0.026793322 0.030527383 0.06172479 0.0066554137 0.02523351 0.025415262
0.023769587 -0.008475788 -0.019808507 -0.04039826 0.014825597 0.049788505 0.011501222 0.008704084
0.013801351 -0.02234435 -0.0031942532 -0.05155109 0.0497232 -0.020980068 -0.025514118 -0.03346497
0.05819788 0.004772447 -0.030125258 -0.04779621 0.014688339 0.018234372 0.046025082 -0.0022587478
-0.030613592 0.04380901 0.005938001 0.052176915 0.019405741 0.018598294 -0.03421952 -0.04109259
00000000: 50bb 57bc 2e04 7e3d 4f3e 54bd 91c8 0fbd
00000010: 205a 2cbb 8886 0e3d cee6 fe3c dfdb 213d
00000020: ea0b 2fbd 7e35 153c 8d3b 7cbc 6174 52bd
00000030: 6248 24bd ecde dbbc cea6 663d c458 e2bc
00000040: 8036 82bc 890c f63c e191 f4bc a49c 4c3d
00000050: cca1 53bd b08d e6bc 5e7c 253d b8fa 183c
00000060: f6c2 4e3d c083 6d3c 2003 6e3d a78f 30bd
00000070: f41a 693d 948f 643d 9c56 8abc 084d cabc
00000080: 7422 1d3d 33a2 66bc 64c7 b23c a424 413d
00000090: ee66 2bbc e8ee 04bd 51ad 973b d8b4 353c
000000a0: 3a7a eb3c 051c 58bc 4cce 59bd d00e 40bd
000000b0: 802c fd3c a203 55bb ee49 2fbd 50f0 a33c
000000c0: 5ee1 103d 6877 533c 9f08 f8bc 44eb 063d
000000d0: 802b 1cba 0fbc d43c 52f9 64bd 9866 6dbc
000000e0: fe88 423d 60dc 533c a259 4fbd 7f72 603d
000000f0: d929 383d 3c4b 633d 7454 5abd a825 1e3d
00000100: eaf5 56bd 20e7 2abd 344c 73bd a897 b83c
00000110: e6cd 323d 4658 113d 1ce7 01bd c474 c6bc
00000120: e574 0fbd 12a8 15bd dc83 70bd 22b2 80bd
00000130: 0503 443d 7e2c 2fbd 11ae b2bb 04ca 033d
00000140: cc7b 87bc f998 f33c 7898 d83c bc52 27bd
00000150: 31f3 d9bc 4e54 4e3d 58ae 1cbc dde6 ec3c
00000160: 185c 44bd 3e48 53bd 8529 dabc 5922 adbb
00000170: 2b20 1ebd 04c6 12bd cef7 233d 7182 023c
00000180: 5df5 1ebd 6874 763d 80af a0bb d424 193d
00000190: b43b c03c 2983 55bd ccc7 f2bc fe2f 16bd
000001a0: 804e d5ba 594c 843b 0874 ba3c 20ec 683d
000001b0: 92b1 393d 7a0d 3cbd 1c3e cfbc 329d 65bd
000001c0: 00fe 6d3a 9a0e 50bd 9094 04bc 6737 03bd
000001d0: 43cd 1bbd 08ce fb3c 90ef c7bc 8546 55bb
000001e0: 4e0b 1ebd 8125 83bd 4e5c 4c3d 57d5 243a
000001f0: fbe7 5abc 5050 c1bb 9c0d bfbc 15cb 78bc
00000200: 14ad 0ebd 0d38 273d e262 103d ac84 45bd
00000210: 080e 0a3d 14f0 43bc 20e9 05bb 1baf 0abd
00000220: a0e6 b53c 0689 61bd 3dda a13b 7029 06bd
00000230: 3848 3f3d b480 d7bc 1725 2a3d f77d 17bd
00000240: 80b8 6c3b 1ed3 113d d592 52bc 40c2 7e3b
00000250: 1c00 56bd b657 d8ba e6a2 563d 00a3 9cba
00000260: 6895 173c 1e19 7ebd d305 1cbc 5c03 2fbd
00000270: 9011 52bd 081c 673c 182f b93c 000d 0e3c
00000280: 542e 22bd 84e4 df3c b4df 85bc fe84 32bd
00000290: b817 613c a992 2e3d 588a 423d 8aef 103d
000002a0: 0f65 553d 70df 29bd dc28 f4bc 5810 2bbd
000002b0: 9f5b 363d 3a6c 4d3d c22d b5bc 076f b23c
000002c0: cd57 d03c 88a8 7ebd 1650 f73c 1c99 f3bc
000002d0: d0bb 9dbb be2a e73c b875 0b3d 3779 f8bc
000002e0: 3b67 4cbd 0408 87bd 805e 2bbd 98ff 5e3d
000002f0: a092 1fbb c60c 393d f67d 24bd 1c35 fbbc
00000300: dd0a f4bb cc36 8dbc 6003 a23b d8a0 81bd
00000310: 4dcf 393d 778f ee3c 4253 7cbd c4cf fabc
00000320: 3f8f 75bd 40f6 78bb 027c 333d cc82 753d
00000330: 10e3 6e3d 5803 e33c dc6c f53c 92a1 0a3d
00000340: 31dc 42bd 5824 aabc c443 70bd 1334 663d
00000350: 486a 2bbc 8e9c 55bd 56d8 c9bc 004f fcbb
00000360: e90b 073d 3819 d7bc ab7d dbbc 9014 fa3c
00000370: 22d3 7c3d a815 da3b 82b6 ce3c ab33 d03c
00000380: 70b8 c23c 08de 0abc 7345 a2bc a578 25bd
00000390: 10e7 723c 08ef 4b3d 9f6f 3c3c 939b 0e3c
000003a0: 101f 623c 800b b7bc ad56 51bb 3c27 53bd
000003b0: 8eaa 4b3d 64de abbc fc02 d1bc 9012 09bd
000003c0: e660 6e3d 3062 9c3b 3fc9 f6bc f5c5 43bd
000003d0: 5ca7 703c 4060 953c cc84 3c3d 8007 14bb
000003e0: 5bc9 fabc 1471 333d 9093 c23b 76b7 553d
000003f0: caf8 9e3c 735b 983c c429 0cbd b450 28bd

fc.2.bias f4 [256]
-0.05773373 -0.08076097 -0.046630688 0.053388298 0.029335178 0.07562792 -0.09060573 0.16994335
0.035561666 -0.13493751 0.048350025 0.07018874 0.18946266 -0.03523901 -0.04270189 -0.01103475
0.15241855 0.13502248 0.061173428 0.013546576 -0.11820849 -0.0114368545 0.12026589 -0.010213217
0.08325564 -0.03467624 0.0004168661 -0.031608135 0.0076289987 0.08011401 -0.06409982 -0.02682392
0.15528263 0.048560932 0.07571217 -0.03852365 0.025988884 -0.11266603 0.03558464 -0.011738002
0.05088433 -0.09773276 0.005613922 0.010830845 -0.055048674 0.023106258 -0.07051383 -0.0005661107
0.05667782 0.048868015 0.009327181 0.025419682 0.036143515 0.04241752 -0.011324487 0.14042401
0.058194388 -0.051212654 0.1616838 0.045476068 -0.03974607 -0.01971868 0.019488752 0.028059311
0.042634007 0.02357576 -0.044191908 -0.036651514 0.07738155 -0.01609055 0.13463311 0.13958897
0.12541166 0.09690513 -0.016303597 -0.015275381 0.07059753 0.07896558 0.15506235 -0.024055548
-0.014188942 0.03389529 -0.047904633 0.09805925 0.065385826 0.015650177 0.077518255 -0.1479848
0.034026947 -0.02805267 -0.04605956 -0.018559597 0.022821613 -0.05609438 -0.07366219 -0.048439275
-0.012641265 0.004131214 0.038537163 0.020251496 -0.15070967 -0.0009084488 0.03860424 -0.055990838
-0.053616736 -0.018246152 -0.11853369 -0.019598715 -0.08971188 0.019678414 -0.13043717 0.009568319
0.027246151 0.0767018 -0.0012367513 0.02943806 0.0034810659 0.058376465 0.16717093 0.13040827
0.18093199 -0.053379297 0.05620666 0.039611697 0.021757055 0.011248551 -0.014571953 0.027538069
-0.026043747 -0.027030384 0.12150557 -0.02526513 0.05430214 -0.030556247 -0.03606086 -0.02994996
0.108933665 0.18809347 -0.015068743 -0.07941769 -0.0064007 0.053510837 0.067443535 -0.049809057
0.20051815 -0.032309327 0.03863033 0.16185962 -0.029582791 -0.10614852 -0.05803992 -0.05079749
-0.018189155 0.044886723 0.020943178 0.067299604 0.25542817 -0.07435704 -0.034198917 0.05059426
-0.029234914 0.08275816 0.04422371 -0.06737465 0.0033674343 -0.08349763 -0.056948222 0.09363249
0.14332378 -0.05646989 0.007977478 0.046659395 0.033961613 0.18030149 0.1400453 0.028216029
0.14704563 0.018490862 -0.13294637 -0.045932878 0.004421905 0.1254973 0.041558642 0.018641569
-0.06548242 0.005777036 0.0064775203 -0.095449194 0.01811674 0.101489134 0.14354187 0.040429026
-0.018736107 0.060113773 0.058899444 -0.03266457 -0.02724952 -0.0035345636 0.15456969 0.016555054
-0.06960297 0.056658182 0.13131234 0.066923834 0.021232245 0.015214507 0.08079556 0.10227386
0.06792067 -0.051843856 0.0839104 0.11775 0.01805582 -0.05708326 -0.0076964903 0.07621217
0.15260783 0.046451736 0.09817496 0.11014882 0.08114478 -0.06920117 -0.0072427904 0.14532058
-0.020131059 0.013069158 0.04283459 -0.13484088 -0.11435417 0.13526452 0.18035853 0.057563186
0.04032838 -0.076240115 0.058211416 -0.029391697 0.025111482 -0.04677449 0.112526424 0.15096727
-0.04427938 -0.003475063 -0.0016726702 0.04947606 0.055873774 -0.043089382 -0.03793504 0.061419018
-0.051785566 0.010772811 0.12860323 -0.059803337 -0.04210049 0.013423954 0.12492871 0.04713441
00000000: 347a 6cbd 0266 a5bd d2ff 3ebd b0ad 5a3d
00000010: 5450 f03c d0e2 9a3d 7f8f b9bd a105 2e3e
00000020: 1ca9 113d 0f2d 0abe ad0a 463d 1dbf 8f3d
00000030: 8002 423e c856 10bd 2de8 2ebd 19cb 34bc
00000040: 9c13 1c3e 5543 0a3e fd90 7a3d 75f2 5d3c
00000050: 4b17 f2bd a561 3bbc f74d f63d 5655 27bc
00000060: ef81 aa3d ac08 0ebd d28e da39 8877 01bd
00000070: aefc f93b d012 a43d c446 83bd d6bd dbbc
00000080: 6902 1f3e d4e7 463d fb0e 9b3d faca 1dbd
00000090: a4e6 d43c 73bd e6bd 33c1 113d c050 40bc
000000a0: 166c 503d 1d28 c8bd fef4 b73b db73 313c
000000b0: b87a 61bd 5649 bd3c 8e69 90bd 0c67 14ba
000000c0: 0027 683d d429 483d 08d1 183c f03c d03c
000000d0: 390b 143d febd 2d3d 578a 39bc 50cb 0f3e
000000e0: 3d5d 6e3d 5cc4 51bd 7090 253e 1d45 3a3d
000000f0: c6cc 22bd 1289 a1bc e0a6 9f3c a4dc e53c
00000100: ffa0 2e3d f421 c13c 9302 35bd e61f 16bd
00000110: 387a 9e3d 54d0 83bc 43dd 093e 69f0 0e3e
00000120: ea6b 003e 3276 c63d 1f8f 85bc 9745 7abc
00000130: 7095 903d b5b8 a13d aac8 1e3e 2410 c5bc
00000140: bc78 68bc cad5 0a3d a637 44bd 4ad3 c83d
00000150: 01e9 853d cd34 803c e4c1 9e3d 5489 17be
00000160: d75f 0b3d b7ce e5bc f3a8 3cbd 4c0a 98bc
00000170: 64f4 ba3c 38c3 65bd 34dc 96bd 4368 46bd
00000180: 4f1d 4fbc 235f 873b 25d9 1d3d 77e6 a53c
00000190: a353 1abe f824 6eba 7b1f 1e3d a656 65bd
000001a0: 399d 5bbd f478 95bc cbc1 f2bd 7c8d a0bc
000001b0: ddba b7bd a034 a13c 5291 05be 70c4 1c3c
000001c0: 5233 df3c d515 9d3d 7d1a a2ba 1628 f13c
000001d0: 9822 643b 291c 6f3d db2e 2b3e bf89 053e
000001e0: 3c46 393e 40a4 5abd f438 663d e03f 223d
000001f0: da3b b23c d84b 383c 33bf 6ebc 8497 e13c
00000200: b259 d5bc d36e ddbc ead7 f83d d1f8 cebc
00000210: ec6b 5e3d 1851 fabc 8db4 13bd 9e59 f5bc
00000220: 9d18 df3d 939b 403e e4e2 76bc bea5 a2bd
00000230: f7bc d1bb 2e2e 5b3d d61f 8a3d 9504 4cbd
00000240: a154 4d3e c956 04bd d63a 1e3d 87be 253e
00000250: 9c57 f2bc 6564 d9bd 44bb 6dbd 0711 50bd
00000260: 6c01 95bc 24db 373d 0791 ab3c 60d4 893d
00000270: 7bc7 823e 8148 98bd 2a14 0cbd ed3b 4f3d
00000280: 0f7e efbc 1c7d a93d ec23 353d b8fb 89bd
00000290: 2cb0 5c3b ce00 abbd 8a42 69bd 64c2 bf3d
000002a0: 78c3 123e f94c 67bd f8b3 023c ec1d 3f3d
000002b0: 551b 0b3d f4a0 383e 0968 0f3e 4d25 e73c
000002c0: 2193 163e 267a 973c 1823 08be 1d24 3cbd
000002d0: a1e5 903b 5d82 003e 6539 2a3d 34b6 983c
000002e0: a61b 86bd 4a4d bd3b 6141 d43b de7a c3bd
000002f0: 8f69 943c 89d9 cf3d a4fc 123e e898 253d
00000300: 777c 99bc dc39 763d 8b40 713d 49cb 05bd
00000310: 633a dfbc 23a4 67bb 8447 1e3e 779e 873c
00000320: 008c 8ebd 6912 683d be76 063e 5d0f 893d
00000330: 3fef ad3c 4446 793c 2478 a53d f574 d13d
00000340: fe19 8b3d 395a 54bd 37d9 ab3d e926 f13d
00000350: cde9 933c 23d0 69bd d732 fcbb 2015 9c3d
00000360: 3a45 1c3e 2d44 3e3d f40f c93d b495 e13d
00000370: 3c2f a63d 58b9 8dbd ee54 edbb ebce 143e
00000380: e4e9 a4bc 0620 563c 5373 2f3d ba13 0abe
00000390: 8532 eabd c882 0a3e e8af 383e 60c7 6b3d
000003a0: 5f2f 253d c723 9cbd 186f 6e3d dbc6 f0bc
000003b0: 98b6 cd3c 9c96 3fbd 4174 e63d 2a97 1a3e
000003c0: 4c5e 35bd e2bd 63bb 803d dbba 69a7 4a3d
000003d0: e6db 643d 7e7e 30bd c661 1bbd 8292 7b3d
000003e0: 1a1d 54bd 7280 303c 91b0 033e 58f4 74bd
000003f0: 9071 2cbd 25f0 5b3c a0da ff3d 0310 413d

fc.4.weight f4 [128, 256]
-0.042927057 0.083778314 -0.15815103 -0.010469286 -0.017203115 0.020503912 -0.21875013 0.062076896
-0.022133855 -0.09988611 0.016102418 0.16501515 -0.0019880023 0.041735686 0.07636085 0.01944215
0.04521845 0.22216041 0.047713492 -0.0022374233 0.07063746 0.07546819 0.025301684 -0.051154938
-0.009133792 -0.015857419 0.06698376 -0.011034546 -0.07257094 -0.03339294 -0.005737228 -0.07531225
0.057585984 0.07529749 0.09005429 0.022059504 0.05187834 0.015850121 0.030098706 0.0066805365
0.08723902 -0.047440078 0.04777079 0.042563256 -0.009137906 -0.0019880722 -0.006323585 0.011340809
0.004362575 0.07336952 -0.051816963 0.022920365 0.025765698 0.05932061 0.14131948 0.022475192
0.11873402 -0.04774449 -0.058962133 0.095125 -0.15379289 0.07619291 -0.06761913 -0.026803136
0.107646585 -0.0012197798 0.057360224 0.09924606 0.058823146 0.031836152 0.07961917 0.022735158
0.036926124 0.040272675 0.03888191 -0.027123198 0.08188308 0.07150275 0.042829882 -0.015899383
0.058480695 0.047764186 0.2128404 0.029212316 0.08549545 -0.2780077 0.065765694 0.057901923
0.06609881 -0.02699689 0.03722792 0.058839835 0.05263555 0.03342257 0.060115032 -0.02671372
0.08492468 0.002682355 -0.011385041 0.013855079 0.020902887 -0.008922819 0.003936047 -0.060779832
-0.10656751 0.060480528 0.044767827 -0.033592597 0.0076305303 -0.04463084 -0.009966215 0.032637108
0.0057219574 -0.0401119 -0.03775778 -0.04967496 0.072697714 0.026028754 0.007923963 0.07928857
0.05115269 0.08216915 -0.057865445 -0.012075932 -0.023646973 -0.012198122 0.04383311 0.0070880065
-0.02745385 0.090722 -0.017313182 0.15720667 0.07245341 -0.005127099 -0.006936483 0.056929078
-0.026358346 0.0020369615 -0.045412045 0.084758386 0.030991668 0.054447845 0.020355033 0.06701309
0.029946905 0.069142334 -0.010583403 0.08182818 -0.05459039 0.07468983 0.048048116 0.112855285
-0.01891953 0.023902742 0.08230452 0.062709175 -0.17085163 0.08968569 0.051467184 0.072153464
0.060823865 -0.039284546 -0.030082544 -0.05355826 -0.016839828 0.05337683 0.049117334 0.07169695
0.018558146 0.05427116 0.06931366 -0.0770822 -0.0067264307 -0.012019921 0.021604767 -0.01039184
0.06420347 -0.0014366525 -0.015370972 -0.091129 -0.029046757 0.11552819 0.002476184 -0.013329094
-0.010909827 0.056092516 -0.05858855 -0.014076288 -0.016546005 0.078278676 0.08166486 0.037103906
-0.013691851 0.03979914 0.08822622 0.029316243 0.09837842 -0.05117929 0.055447873 0.024073012
0.08529596 0.098061115 0.024190754 0.047145132 0.079897225 -0.05314215 0.012677489 0.031179387
0.104839504 0.06853053 0.07672822 0.032716334 -0.0430462 -0.3076064 0.032192998 0.06119902
0.075139344 0.075033054 0.033481188 0.028537655 0.047664743 0.015740333 0.2252871 0.051417194
-0.02629602 0.030697266 0.076417446 0.03144398 0.088401064 0.04478693 0.0764656 0.035452653
-0.04586507 0.096632145 0.038498405 -0.0065210136 0.04968187 0.079727575 0.004222634 0.0016021713
-0.004907339 -0.041041806 0.038404875 0.039107013 0.027043896 0.098827764 0.027428046 0.061789222
0.06625786 -0.035823677 0.081481576 0.024460837 0.04369446 -0.023224343 0.023139995 -0.059992034
00000000: 48d4 2fbd f793 ab3d 58f2 21be 5e87 2bbc
00000010: 8ced 8cbc d2f7 a73c 0900 60be 5844 7e3d
00000020: 0f52 b5bc 1791 ccbd 38e9 833c bbf9 283e
00000030: 2549 02bb 0af3 2a3d 1463 9c3d 2545 9f3c
00000040: fb36 393d 057e 633e 396f 433d bca1 12bb
00000050: 5faa 903d 118f 9a3d 7a45 cf3c d787 51bd
00000060: e6a5 15bc 6be7 81bc c82e 893d 3eca 34bc
00000070: 13a0 94bd 09c7 08bd 5bff bbbb 4f3d 9abd
00000080: 48df 6b3d 9235 9a3d 626e b83d 22b6 b43c
00000090: 627e 543d 1dd8 813c 9091 f63c 67e8 da3b
000000a0: 5faa b23d 8750 42bd 4eab 433d cf56 2e3d
000000b0: 28b7 15bc 514a 02bb 1336 cfbb cdce 393c
000000c0: eef3 8e3b c242 963d 063e 54bd 7dc3 bb3c
000000d0: 9612 d33c 2bfa 723d 0eb6 103e e51d b83c
000000e0: d22a f33d ba8f 43bd 4782 71bd e5d0 c23d
000000f0: e27b 1dbe 070b 9c3d e67b 8abd 4092 dbbc
00000100: d075 dc3d 05e1 9fba 8ef2 6a3d 8541 cb3d
00000110: 8af0 703d a066 023d 600f a33d 153f ba3c
00000120: d93f 173d f6f4 243d a342 1f3d 7831 debc
00000130: 51b2 a73d 0970 923d 636e 2f3d 6c3f 82bc
00000140: 7489 6f3d 61a4 433d d5f2 593e ab4e ef3c
00000150: 3d18 af3d 0657 8ebe 2ab0 863d 912a 6d3d
00000160: d05e 873d 9528 ddbc 4e7c 183d 0a02 713d
00000170: 6098 573d 1be6 083d 2e3b 763d bbd6 dabc
00000180: feec ad3d 73ca 2f3b 5388 3abc 6a00 633c
00000190: 883c ab3c 0431 12bc f5f9 803b 46f4 78bd
000001a0: 1140 dabd 6eba 773d 785e 373d 6498 09bd
000001b0: 8709 fa3b d4ce 36bd 5649 23bc 7dae 053d
000001c0: 427f bb3b 604c 24bd e7a7 1abd f977 4bbd
000001d0: 8ae2 943d 413a d53c 82d3 013c 0c62 a23d
000001e0: 7c85 513d 4d48 a83d 5104 6dbd 21da 45bc
000001f0: 4cb7 c1bc a2da 47bc 598a 333d 8242 e83b
00000200: e5e6 e0bc 75cc b93d 60d4 8dbc c9fa 203e
00000210: 7462 943d 3901 a8bb 704b e3bb 772e 693d
00000220: 75ed d7bc 8b7e 053b fb01 3abd ce95 ad3d
00000230: 3de2 fd3c b404 5f3d 99bf a63c 293e 893d
00000240: 3653 f53c 7f9a 8d3d 0266 2dbc 8895 a73d
00000250: 2c9a 5fbd fbf6 983d 1ace 443d ac20 e73d
00000260: 21fd 9abc afcf c33c 468f a83d ab6d 803d
00000270: bbf3 2ebe 22ad b73d 41cf 523d 32c5 933d
00000280: 7222 793d d5e8 20bd ab6f f6bc e85f 5bbd
00000290: aef3 89bc aaa1 5a3d 422f 493d dad5 923d
000002a0: 4107 983c 704b 5e3d 52f4 8d3d 46dd 9dbd
000002b0: 6469 dcbb 34ef 44bc 7bfc b03c 8942 2abc
000002c0: 1c7d 833d 0f4e bcba 88d6 7bbc d7a1 babd
000002d0: 77f3 edbc 0b9a ec3d 7947 223b 4662 5abc
000002e0: 22bf 32bc 44c1 653d 8cfa 6fbd 3ba0 66bc
000002f0: 7d8b 87bc 9250 a03d e83f a73d 44fa 173d
00000300: c953 60bc 6c04 233d f3af b43d 9e28 f03c
00000310: a07a c93d 60a1 51bd 4f1d 633d c434 c53c
00000320: a6af ae3d 44d4 c83d b02b c63c 411b 413d
00000330: 28a1 a33d 95ab 59bd 3eb5 4f3c ea6b ff3c
00000340: 18b6 d63d bc59 8c3d af23 9d3d 9001 063d
00000350: 3651 30bd 967e 9dbe cedc 033d d3ab 7a3d
00000360: a8e2 993d eeaa 993d 9223 093d cdc7 e93c
00000370: 1b3c 433d dff1 803c a9b1 663e d69a 523d
00000380: c06a d7bc d578 fb3c c080 9c3d 67cb 003d
00000390: 9e0b b53d 8072 373d ff99 9c3d cd36 113d
000003a0: 03dd 3bbd 13e7 c53d 81b0 1d3d 3aae d5bb
000003b0: 377f 4b3d 3648 a33d 055e 8a3b f3ff d13a
000003c0: becd a0bb 741b 28bd 6e4e 1d3d ad2e 203d
000003d0: 298b dd3c 3666 ca3d c8b0 e03c b216 7d3d
000003e0: 33b2 873d d9bb 12bd d0df a63d 1862 c83c
000003f0: f6f8 323d fa40 bebc 1690 bd3c 35ba 75bd

fc.4.bias f4 [128]
0.035788395 -0.040197857 0.026848946 0.0048795696 -0.087177366 0.024706211 0.015855687 -0.0011373241
0.0035324174 0.04681142 -0.051694483 -5.80656e-05 0.122630306 -0.060911417 0.10440773 0.07042618
0.11383073 0.09280823 -0.0010388278 0.037400663 0.0025246309 0.0039650886 -0.014206431 0.025639672
-0.07513252 0.07828088 0.042422827 -0.044784643 -0.0069848616 -0.0669242 -0.057503488 0.035964053
0.02362233 0.079278305 -0.060250975 0.03152978 0.12706129 -0.05396428 0.09819296 0.06074929
0.17015612 0.104944475 -0.011717929 -0.016474191 0.04291443 0.052815534 -0.0005628876 0.15235043
-0.006256367 0.06324733 -0.057676893 0.021615148 0.0012371745 0.059077602 0.15195471 0.028426517
0.071155734 0.07658402 0.073036015 0.045708153 0.04371872 -0.010369958 0.12618984 -0.039625656
0.009232921 0.07590553 0.06132509 0.015259561 -0.057675004 0.019472249 -0.15674624 -0.0074225096
-0.17203781 -0.0063049616 -0.052058652 0.1287636 0.04788968 0.05582959 3.285703e-05 0.050189033
0.0421486 0.07212029 0.03717186 -0.04216992 0.048454344 -0.052459404 -0.016158577 0.0025349597
-0.034915082 -0.019397812 0.083986856 -0.026638357 0.13788182 0.058823574 -0.03520002 0.055252403
0.07623778 -0.06505222 -0.06370515 0.050679214 0.04590407 0.083935864 0.126705 0.0017861935
-0.034441154 0.12321916 0.117059 0.07542536 -0.027106714 0.023925526 0.13994998 0.06140158
0.01394149 0.06394183 0.04192399 0.1643859 0.13639213 0.21666488 0.07718623 0.025160503
0.101927824 0.11650351 0.02413738 0.010811725 0.09874752 -0.030358372 -0.065036714 0.12504564
00000000: da96 123d 82a6 24bd 52f2 db3c cce4 9f3b
00000010: 0c8a b2bd ae64 ca3c c9e3 813c 4412 95ba
00000020: 2180 673b 55bd 3f3d 98bd 53bd 778b 73b8
00000030: 9925 fb3d 407e 79bd b8d3 d53d 9a3b 903d
00000040: 1620 e93d 3e12 be3d 4729 88ba 7031 193d
00000050: 4774 253b 93ed 813b 17c2 68bc 4a0a d23c
00000060: 14df 99bd ba51 a03d 8fc3 2d3d 1a70 37bd
00000070: 44e1 e4bb 8e0f 89bd c788 6bbd 0b4f 133d
00000080: 9e83 c13c aa5c a23d bac9 76bd 5f25 013d
00000090: 5b1c 023e a609 5dbd 6419 c93d 3fd4 783d
000000a0: 683d 2e3e 21ed d63d 8efc 3fbc e2f4 86bc
000000b0: 0bc7 2f3d 1a55 583d bf8e 13ba c001 1c3e
000000c0: 3602 cdbb d187 813d 9b3e 6cbd 4012 b13c
000000d0: b028 a23a 5bfb 713d 049a 1b3e bade e83c
000000e0: 19ba 913d 15d8 9c3d e893 953d 7938 3b3d
000000f0: 6712 333d c2e6 29bc e937 013e 834e 22bd
00000100: ad45 173c 5c74 9b3d 0430 7b3d 3d03 7a3c
00000110: a03c 6cbd 4484 9f3c 1682 20be 8638 f3bb
00000120: ae2a 30be da99 cebb 743b 55bd 9bda 033e
00000130: f827 443d 91ad 643d f8cf 0938 0493 4d3d
00000140: 03a4 2c3d cdb3 933d 8541 183d 5eba 2cbd
00000150: 1078 463d acdf 56bd fe5e 84bc 9121 263b
00000160: 1e03 0fbd 29e8 9ebc 4d01 ac3d af38 dabc
00000170: e430 0d3e fdf0 703d e52d 10bd 5850 623d
00000180: 8e22 9c3d 193a 85bd d877 82bd 0295 4f3d
00000190: e805 3c3d 91e6 ab3d f5be 013e b51e ea3a
000001a0: 2b12 0dbd 545a fc3d a1bc ef3d 9c78 9a3d
000001b0: e60e debc 77ff c33c 0c4f 0f3e 3980 7b3d
000001c0: d96a 643c eff3 823d 7db8 2b3d c754 283e
000001d0: 61aa 0b3e 66dd 5d3e d013 9e3d 661d ce3c
000001e0: 89bf d03d 6499 ee3d c1bb c53c a923 313c
000001f0: 243c ca3d 1fb2 f8bc f831 85bd f70b 003e

fc.6.weight f4 [3, 128]
-0.008776781 -0.017244691 0.027825339 -0.03443572 -0.04827559 -0.14771947 0.016722508 0.017334683
0.07657323 0.08267568 -0.26329687 0.1789047 0.07863009 -0.07962927 -0.044810623 0.16066307
-0.21674833 0.023870384 0.23275377 -0.1956851 0.19871828 0.10481082 -0.10497791 -0.010049209
-0.04248221 -0.018435791 0.15422095 0.12465601 -0.27985734 0.09504013 -0.065923005 -0.10859627
-0.062105056 -0.059236538 0.060636923 -0.03976514 0.049779832 0.2698776 0.0777574 0.07662914
0.057734873 0.0896822 0.041744392 0.28146863 0.14288592 -0.010038999 -0.20710714 0.19578128
0.23174678 0.21118253 -0.06439668 -0.09436439 -0.024009394 0.1234081 -0.03716033 -0.09127972
0.00226587 0.028627127 0.2915589 -0.041099444 -0.2029488 -0.050190598 0.19286719 0.05369592
0.08784879 0.25628456 -0.067108534 -0.17799358 -0.07888265 0.078251176 0.007550356 0.01794076
0.113609016 -0.24656864 0.010638461 -0.05739765 0.21258801 0.107751876 0.04568185 0.10796124
0.03499305 0.18510357 0.048138194 0.00968661 -0.19382562 0.032488182 -0.086359315 -0.2708795
0.31491944 0.065263875 0.01979481 -0.02742174 0.077685416 -0.13744515 0.034808457 -0.04372414
0.15409696 -0.20061024 0.25274047 -0.2554358 0.004245305 0.22023758 0.015565485 -0.06762195
-0.24075307 0.1489576 0.11394349 0.025369164 -0.4960279 0.16805932 -0.57281953 0.108302034
-0.011853488 0.05175536 -0.4732092 0.058520053 -0.033781342 -0.02883658 -0.12329396 0.11153676
-0.14802429 0.087476335 -0.1408226 -0.04166086 0.10592388 -0.27502075 0.058758907 -0.4890341
0.13329662 -0.10021807 -0.029042386 -0.011270112 -0.30330193 -0.070652686 -0.1157919 0.08139505
0.06934404 -0.1780232 -0.07749216 -0.08459379 -0.4551274 0.069705844 -0.30934262 0.16492847
0.43246582 0.43564364 0.01980868 0.11062168 -0.07842746 -0.4511946 0.022156311 0.07494723
-0.029672995 0.11343543 0.041889373 -0.026137931 0.12963893 0.3319246 -0.0013771048 -0.2442678
0.034461908 0.41619205 -0.0078074243 0.034953322 0.1250415 -0.0380298 0.0631474 0.15957686
0.11615761 0.11161611 -0.025275694 0.12330428 -0.21906185 -0.2305501 -0.19147901 0.2099862
0.06324864 -0.0435548 0.06670129 -0.0035072186 -0.045509186 0.0982303 -0.4562044 -0.19578186
0.08850859 0.13615076 -0.05067808 0.08109544 -0.60511494 -0.016494183 -0.05764177 -0.040349618
-0.041193344 0.043685004 -0.19045438 0.02038783 -0.05672896 -0.055531003 0.07806201 0.010179988
-0.42519128 -0.02757624 -0.030080767 0.13091782 -0.021459205 0.022285724 0.011281228 0.13601255
-0.074359484 -0.15430069 0.13334703 -0.006836247 -0.0877954 0.098268494 -0.021319715 -0.016152684
-0.14538217 -0.05150917 0.050741263 -0.0604617 0.0990446 0.095233984 0.01210693 0.07313758
0.10644418 -0.052839063 -0.03461524 0.030306447 0.035531253 -0.021832576 0.13785818 0.17400338
0.05472735 0.18848304 0.12686667 0.10984265 -0.06719972 -0.19561069 -0.25997835 -0.22898315
0.013863889 -0.00062263396 -0.27802274 0.1401002 0.41555303 -0.38018462 -0.21471708 -0.048757847
-0.30703962 0.10266818 0.049139492 -0.16832261 0.043006506 -0.038283717 0.4171809 0.2660444
00000000: 7dcc 0fbc bd44 8dbc f7f1 e33c 780c 0dbd
00000010: a0bc 45bd c643 17be a4fd 883c 7701 8e3c
00000020: 6dd2 9c3d de51 a93d d9ce 86be cb32 373e
00000030: d008 a13d ac14 a3bd 588b 37bd dc84 243e
00000040: 46f3 5dbe d38b c33c 0157 6e3e ad61 48be
00000050: ce7c 4b3e 0ea7 d63d a9fe d6bd 70a5 24bc
00000060: d301 2ebd a806 97bc 19ec 1d3e a64b ff3d
00000070: 7649 8fbe 66a4 c23d a402 87bd b967 debd
00000080: df61 7ebd 03a2 72bd 6c5e 783d c5e0 22bd
00000090: f0e5 4b3d 662d 8a3e 463f 9f3d bdef 9c3d
000000a0: 677b 6c3d 4dab b73d 2bfc 2a3d a81c 903e
000000b0: b050 123e 9d7a 24bc e513 54be e37a 483e
000000c0: 074f 6d3e 3c40 583e 68e2 83bd 1e42 c1bd
000000d0: 59af c4bc 63bd fc3d 6e35 18bd ddf0 babd
000000e0: fe7e 143b 7083 ea3c 3547 953e e457 28bd
000000f0: cfd1 4fbe a894 4dbd fa7e 453e 41f0 5b3d
00000100: 11ea b33d bb37 833e 3370 89bd f343 36be
00000110: 3a8d a1bd 2742 a03d fa68 f73b 80f8 923c
00000120: d8ab e83d 7d7c 7cbe f14c 2e3c cc19 6bbd
00000130: acb0 593e 04ad dc3d e41c 3b3d c81a dd3d
00000140: df54 0f3d ca8b 3d3e 8e2c 453d 96b4 1e3c
00000150: 397a 46be 5412 053d 27dd b0bd b8b0 8abe
00000160: 1f3d a13e 11a9 853d ba28 a23c 8fa3 e0bc
00000170: 8819 9f3d 6cbe 0cbe 5093 0e3d 1518 33bd
00000180: 98cb 1d3e c56c 4dbe 3367 813e 7bc8 82be
00000190: 331c 8b3b f685 613e 6006 7f3c 607d 8abd
000001a0: f987 76be 5788 183e 345b e93d fed2 cf3c
000001b0: 5ef7 fdbe be17 2c3e 4da4 12bf 75cd dd3d
000001c0: 2235 42bc 6efd 533d 7a48 f2be b9b2 6f3d
000001d0: 4e5e 0abd b13a ecbc 8b81 fcbd 636d e43d
000001e0: ae93 17be cb26 b33d cd33 10be 94a4 2abd
000001f0: 9fee d83d 85cf 8cbe 2ead 703d ad62 fabe
00000200: e97e 083e 223f cdbd 4cea edbc 47a6 38bc
00000210: 644a 9bbe 5bb2 90bd 4e24 edbd 73b2 a63d
00000220: 3f04 8e3d b74b 36be 36b4 9ebd 823f adbd
00000230: 7506 e9be f0c1 8e3d 2862 9ebe 02e3 283e
00000240: 296c dd3e af0c df3e d045 a23c 9f8d e23d
00000250: 939e a0bd fb02 e7be 2781 b53c ef7d 993d
00000260: c814 f3bc d650 e83d 3194 2b3d 371f d6bc
00000270: 11c0 043e 05f2 a93e f87f b4ba 5721 7abe
00000280: ee27 0d3d 2017 d53e 6cd5 ffbb 372b 0f3d
00000290: e10a 003e 23c5 1bbd 6d53 813d 1e68 233e
000002a0: 0be4 ed3d fd96 e43d f90e cfbc f486 fc3d
000002b0: c051 60be 5315 6cbe 1313 44be 9f06 573e
000002c0: 8188 813d 8566 32bd b09a 883d 5dd9 65bb
000002d0: d767 3abd f82c c93d a093 e9be 0a7b 48be
000002e0: fe43 b53d 1b6b 0b3e d293 4fbd 5e15 a63d
000002f0: d0e8 1abf cf1e 87bc c719 6cbd a445 25bd
00000300: 5aba 28bd 0cef 323d 7906 43be 6104 a73c
00000310: a05c 68bd 7a74 63bd fade 9f3d f7c9 263c
00000320: acb2 d9be 91e7 e1bc f16b f6bc 520f 063e
00000330: 37cb afbc 8d90 b63c e6d4 383c e046 0b3e
00000340: c949 98bd 0001 1ebe 208c 083e 9902 e0bb
00000350: 13ce b3bd fe40 c93d afa6 aebc a252 84bc
00000360: 10df 14be 48fb 52bd 12d6 4f3d b0a6 77bd
00000370: e5d7 ca3d 090a c33d 255c 463c 28c9 953d
00000380: 68ff d93d c66d 58bd b6c8 0dbd 3a45 f83c
00000390: 3889 113d 3bda b2bc b22a 0d3e f12d 323e
000003a0: c929 603d b301 413e 56e9 013e 2ff5 e03d
000003b0: 02a0 89bd 2b4e 48be e21b 85be 8f7a 6abe
000003c0: 5d25 633c 4238 23ba ff58 8ebe 6d76 0f3e
000003d0: 5ec3 d43e 8fa7 c2be cbde 5bbe 4fb6 47bd
000003e0: 4c34 9dbe b243 d23d 7e46 493d c35c 2cbe
000003f0: 9727 303d 63cf 1cbd bc98 d53e f936 883e

fc.6.bias f4 [3]
0.017907694 0.07014463 0.09675123
00000000: 28b3 923c fda7 8f3d 8225 c63d
