직선으로이동_장애물도_센서값만입력력_SARSA.pth (torch, 405248 bytes, 8 tensors)

fc.0.weight f4 [256, 5]
000000 e1 cf d9 3d 0e c5 e0 be fd 99 81 be 98 57 c7 bd
       0.10635353 -0.4390034 -0.25312796 -0.09733504
000010 7f f1 be 3e c8 e3 02 bf 68 c1 dd be 36 29 c1 3e
       0.37293622 -0.51128817 -0.4331162 0.37726754
000020 d8 f6 9e be 47 03 5d 3e 67 8f 92 3d 46 5e b9 bd
       -0.31047702 0.21583281 0.07156258 -0.09051184
000030 42 13 b6 3e ab fc 87 bb cc ea 84 3e 98 12 10 bd
       0.35561568 -0.0041499934 0.25960386 -0.035173982
000040 68 d0 7a bd d6 e9 d2 be 18 f5 c3 bd 65 bb 90 be
       -0.061233908 -0.41194028 -0.09568232 -0.2826797
000050 45 a7 e5 3d 35 07 91 3e e6 b1 17 3e 26 c1 c8 be
       0.11213545 0.2832581 0.14813957 -0.3920986
000060 12 e1 b5 be 1e 59 c7 be 1a c8 cf 3e 8a cd fb be
       -0.35523278 -0.3893518 0.40582353 -0.4918025
000070 a6 27 9d be 42 9f 06 bf 4e d1 87 be da 77 9c 3e
       -0.30694312 -0.5258676 -0.26526874 0.3056019
000080 0a 23 59 3e f6 8b 90 be e6 48 1e 3e 82 fd f4 bd
       0.21204773 -0.28231782 0.15457496 -0.11962415
000090 52 59 9d 3e c4 2e 8a 3e 78 a1 ea be 3f d9 9c be
       0.30732208 0.26988804 -0.45826316 -0.30634496
0000a0 bf 0a 01 3d bb 01 9e 3e 9a d2 f6 be 29 9f 41 bc
       0.03150439 0.30860695 -0.4820755 -0.011817732
0000b0 d9 ff 2e 3d 0a 82 7b be 99 fd b2 be ee 20 eb be
       0.042724464 -0.24561325 -0.34959105 -0.4592356
0000c0 02 3a b9 3e 47 f6 8e be b7 20 8f be dd cb fe 3d
       0.3617707 -0.2792227 -0.27954647 0.124412276
0000d0 7b cc a7 3e 67 73 21 3e a9 37 62 3d 7d 81 a0 3d
       0.32773194 0.15766679 0.055228863 0.07837198
0000e0 0d 2a 48 3e f8 c9 26 bd f2 55 f6 b9 5c 9f d2 ba
       0.19547291 -0.040719956 -0.0004698481 -0.0016069221
0000f0 c1 43 dd bd 5e ab 0c be 20 9a 6e 3e 24 77 52 3e
       -0.10803939 -0.13737246 0.23300982 0.20553261
000100 96 af ba 3e d5 78 87 3d 82 41 08 bf 89 24 78 3e
       0.36462086 0.06614844 -0.53224957 0.24232687
000110 e4 df 98 3e 5b a9 9b 3e 8d 9f 3e 3d 5a d5 22 3e
       0.29858315 0.30402645 0.04653888 0.159017
000120 1c 72 4d 3e 8a 5d f3 3c 80 f7 10 bf 4f c6 07 3e
       0.2006306 0.029707689 -0.56627655 0.13259242
000130 a4 d7 d2 be eb 97 c9 3e 77 e5 87 be 8b 37 15 bf
       -0.41180146 0.39373717 -0.26542255 -0.58287877
000140 2e 77 33 3d 8a 59 97 bc ba 62 bb 3e fe 4a e5 be
       0.04381483 -0.018475313 0.3659876 -0.44783777
000150 75 f4 a2 3e 06 41 65 be 61 d8 6e be 9d a8 80 be
       0.3182713 -0.22388086 -0.2332473 -0.25128642
000160 36 32 b8 be 69 24 c0 3e ae 8f ee be d5 89 8c 3e
       -0.35975808 0.3752778 -0.46593994 0.27448907
000170 6f 6a 2b be 22 2a 57 3d ff 37 db bd 5b 17 0e be
       -0.1673982 0.052530415 -0.1070404 -0.13876097
000180 ef e5 cf be f0 1f 2e 3e 2d c7 68 3e 1d 88 bd bc
       -0.40605113 0.1700437 0.2273223 -0.023136193
000190 b9 d5 cd be 3e f4 90 3e 82 50 a2 3e 0f 7e 90 3e
       -0.4020212 0.28311342 0.31702048 0.28221175
0001a0 36 13 fa be d2 93 22 3e 90 bc c9 3e f2 79 27 3d
       -0.48842782 0.15876701 0.39401674 0.04088778
0001b0 5a 59 a6 bc 70 4d 5c be 69 6f 90 bd 40 00 d9 be
       -0.020306278 -0.21513915 -0.070525 -0.42383003
0001c0 c5 16 6c 3e 8a 58 a3 be 3e 9d 58 bd 9c aa e9 bd
       0.23055561 -0.31903487 -0.052884333 -0.11409494
0001d0 37 cd b7 3e b0 eb 0e 3e 17 53 b7 be 33 13 af bd
       0.35898754 0.13957095 -0.3580558 -0.08548584
0001e0 7c 36 df 3d cc 58 4d 3d 5e 86 91 3e ca af 48 be
       0.10899064 0.05013351 0.28422827 -0.19598308
0001f0 54 47 16 bf ee 58 96 3e 5b ab 0e 3d fe c6 45 3e
       -0.5870259 0.29364723 0.034831386 0.19314191
000200 de 14 01 bf 9e d0 c8 be d5 9e cb be 18 fc ba 3d
       -0.50422466 -0.39221662 -0.39769617 0.09130114
000210 05 e6 b2 be ba 04 12 be 8a 6c dd be ac 9e dd be
       -0.34941116 -0.14259616 -0.4324687 -0.4328512
000220 19 fc 93 be ba 78 91 3c 10 18 3d 3e 62 4b ef bd
       -0.28903273 0.017757762 0.1846621 -0.116843
000230 83 a6 4c be 14 48 91 bd b0 f0 cd 3d cb a1 82 be
       -0.19985394 -0.07093826 0.10055673 -0.25514063
000240 90 69 b3 bd a6 b6 82 bd 2d f9 28 be f4 75 33 3e
       -0.08760369 -0.06382494 -0.16501303 0.17525464
000250 5d 8e d7 3e 38 cf 02 3f a4 b7 c3 3e 2b 56 14 be
       0.42100802 0.5109744 0.38226044 -0.14485995
000260 0c c1 24 3e 8a 8d ac 3d 54 d1 ba be e7 7a b0 3d
       0.16089267 0.08425434 -0.3648783 0.08617192
000270 c3 f8 0e 3c c1 00 7d be 72 9d 81 3e 87 2e d0 3e
       0.008726302 -0.24707319 0.25315434 0.40660498
000280 8f 59 2b 3e 64 c8 c8 be 40 68 0b bf df b0 97 3d
       0.16733383 -0.39215386 -0.5445595 0.07406782
000290 7d 1c cc 3e be 5f c4 be 47 36 ee be 04 8b c7 be
       0.39865485 -0.38354295 -0.46525785 -0.38973248
0002a0 78 2b 49 3e c5 73 18 3e 8c 08 a7 3e 42 19 54 bc
       0.19645488 0.14887913 0.32623708 -0.012945475
0002b0 df 27 8d 3a 09 ea ba be c5 4c 93 3e 71 83 1a be
       0.0010769329 -0.3650668 0.28769508 -0.15089203
0002c0 54 16 0c bf 7e 20 2e 3e 14 78 4a 3e 2d 76 9b bd
       -0.5472157 0.17004582 0.19772369 -0.075908996
0002d0 16 c0 8b 3e f9 6d 99 3d 7a 51 f6 3c 3c 5e cc be
       0.27294987 0.07491679 0.030068148 -0.39915645
0002e0 93 ab 7c bc 3c 7c ff 3e 49 4a 00 3e 52 28 bb bd
       -0.015421766 0.4989947 0.12528338 -0.0913855
0002f0 0a 57 64 bd ae 82 18 3e b9 98 04 3e 09 5c 13 bc
       -0.05574707 0.148936 0.12948884 -0.008994111
000300 ba 48 08 3e 3a e1 c0 3d aa ac c9 bd 2a c4 89 be
       0.13308993 0.094179586 -0.09847386 -0.26907474
000310 ac ea 0f be 1e b7 20 3e e4 cf 95 3e bb de 70 3d
       -0.14054364 0.15694854 0.2926017 0.058806162
000320 fe 98 60 be 98 17 7d bd b8 2f 32 be d4 83 44 be
       -0.21933362 -0.06179008 -0.17401016 -0.19190913
000330 6c 37 b2 be 85 53 86 be 95 c3 c0 be 04 56 e6 be
       -0.3480791 -0.26235595 -0.37649217 -0.449875
000340 2b 07 2c 3e 6c e3 9f 3d 88 75 ce be d8 f4 5c 3e
       0.1679961 0.07807049 -0.40324044 0.21577775
000350 5a d7 a7 be aa b9 53 3e f8 c3 04 be cd 75 d4 3d
       -0.32781488 0.20676294 -0.12965381 0.10374031
000360 e4 dc 68 3e d6 fc ae 3d 72 d0 1a be 3d 40 8f 3c
       0.22740513 0.085443184 -0.15118578 0.017486686
000370 fa b0 6d be 3d 11 03 bf b0 d5 33 3c 20 0f a3 3e
       -0.23212042 -0.5119818 0.01097624 0.31847477
000380 c6 df 84 3e 92 27 c4 be c7 9d 86 3e b0 13 d6 be
       0.25951976 -0.3831144 0.2629225 -0.41811895
000390 42 3e 33 be cf 3d 0c bd f4 8a fd bd 77 50 9a be
       -0.17504218 -0.034238633 -0.12380019 -0.30139515
0003a0 70 2c 52 3d 12 9f 30 be de e2 02 be f5 76 e8 be
       0.05131191 -0.1724818 -0.12781855 -0.45403257
0003b0 a0 42 ea be a4 75 d6 3e 0a 7b 4d be be e4 35 bc
       -0.45753956 0.41886628 -0.20066467 -0.0111019
0003c0 88 bb 13 bf f0 98 22 3e d2 fd 68 3e c1 86 db bc
       -0.57708025 0.15878654 0.22753075 -0.026797654
0003d0 fa ff ea be b5 41 a0 3c 1e a4 4e 3e 7c d7 d0 be
       -0.4589842 0.019562582 0.20179793 -0.40789402
0003e0 13 fe 03 bf c4 4d eb be bc c7 8e be 87 6c 50 3e
       -0.5155956 -0.45957768 -0.2788676 0.203539
0003f0 6b ff 6e 3e 0e a8 07 bf 8e a8 3f 3e 76 dc a9 3d
       0.23339622 -0.52990806 0.18716642 0.08294003

fc.0.bias f4 [256]
000000 60 4a e7 3e 16 13 cd be ae af b8 be 20 68 3b bd
       0.4517393 -0.40053624 -0.36071533 -0.0457536
000010 f7 20 88 3c d1 49 b0 3e a6 5f f4 3e 1c 24 ff be
       0.016617281 0.34431317 0.47729224 -0.49832237
000020 a9 d9 20 3f c9 fe 2c bd f2 63 5d be 34 b5 96 be
       0.62832123 -0.04223517 -0.21620157 -0.29435122
000030 b0 2e f2 3e e8 0c cc be 2e 3f 2c bd 41 ab 1f 3e
       0.47301245 -0.39853597 -0.04205244 0.15592672
000040 70 8b 27 be 60 b1 97 3e 5c f7 30 be 28 55 d0 3c
       -0.16361785 0.29627514 -0.1728186 0.02543123
000050 1d 58 02 3f 14 8b b8 be c7 05 e2 3e 62 ef c1 be
       0.509157 -0.36043608 0.44145033 -0.37877947
000060 77 91 19 3e 8f cf ac 3e 20 e5 28 be eb 80 d3 be
       0.14996897 0.33752105 -0.16493654 -0.41309294
000070 cf 07 cc be 9e d1 02 3e 4a 4c e5 3e 9f e9 68 be
       -0.39849707 0.12775275 0.44784766 -0.2274537
000080 2f f0 97 3e 5d fd 7d 3e 32 b7 32 be 2f a2 da 3e
       0.29675433 0.24803682 -0.17452696 0.4270186
000090 7e 63 e3 3e 45 dd a3 be 2c ac a1 be 0c e2 3e be
       0.44411844 -0.32004753 -0.3157667 -0.18640918
0000a0 0f 0f 53 be c6 bf df b9 42 5e 35 be bf b3 02 bf
       -0.20611213 -0.00042676757 -0.17711738 -0.5105552
0000b0 f2 2c 80 3e 98 3c dc be d9 28 be be 28 f2 c2 be
       0.2503429 -0.4301498 -0.3714054 -0.38075376
0000c0 b8 37 b3 3c c2 9c 85 3e 2e 57 32 bf 71 49 d2 be
       0.021877155 0.2609616 -0.69664276 -0.41071656
0000d0 83 43 c8 be 0a c2 ae be 6a cf 32 be b0 74 53 be
       -0.39114007 -0.34132415 -0.17461935 -0.20649981
0000e0 d0 23 cd be 02 12 ac be 70 d5 71 3e eb a9 16 bf
       -0.40066385 -0.3360749 0.23616576 -0.58853024
0000f0 f5 21 01 3f 21 ee 88 bd 47 3f 23 bf ec b1 f3 be
       0.5044244 -0.066860445 -0.6376843 -0.4759668
000100 68 09 60 be 71 e7 96 be 5a 69 cd be 6c 85 6f 3e
       -0.21878588 -0.2947345 -0.4011944 0.2339074
000110 90 82 ce 3d 50 fa 06 be e0 19 b0 3d 27 76 0a 3e
       0.100834966 -0.13181424 0.08598685 0.13521634
000120 8d 38 cf 3e ae d8 5e be 77 13 8a 3e 53 6f 6e be
       0.40472832 -0.21762344 0.26967975 -0.23284654
000130 08 c1 be 3e 65 3c e4 3e d4 8c 8e be 53 8c 83 be
       0.37256646 0.44577327 -0.27841818 -0.25692996
000140 96 1d ad 3e 20 d1 a3 3c 1a 78 9f 3e 3e 5a 7e be
       0.33811635 0.01999718 0.31146318 -0.24839112
000150 0d c6 82 be d7 80 d8 3d d4 7e 27 3e ef 6a bc bc
       -0.25541726 0.10571449 0.16356975 -0.023000209
000160 10 12 43 bc ee 15 8c 3e 22 ef bb be c1 39 21 bf
       -0.011906162 0.2736048 -0.3670588 -0.6297875
000170 e5 53 ae 3d 94 d9 9f be 65 e0 cc bd 9d 93 9a bd
       0.08512095 -0.31220686 -0.10003737 -0.07547686
000180 70 46 0b bf 4f 98 49 bd ca d7 0c 3f c3 71 e1 3e
       -0.54404354 -0.04921752 0.5501677 0.44032106
000190 49 21 55 3e 5c f8 7e be 1d ec d4 be 02 60 99 be
       0.20813479 -0.24899429 -0.4158639 -0.2995606
0001a0 95 ab 85 3e d1 5f 32 be a3 6c f6 3e 99 c4 9e 3e
       0.2610747 -0.17419364 0.48129758 0.31009367
0001b0 98 9c d6 be e4 e6 d1 be 68 9e af 3d ce 24 b2 3e
       -0.41916347 -0.40996468 0.085751355 0.34793705
0001c0 97 1b 9d be bc 60 a3 be e5 40 5a 3d d8 7d 4b be
       -0.30685112 -0.3190974 0.053284544 -0.19872224
0001d0 b2 6a 88 be a8 1e f6 3e 79 8e 8f 3e 6a ad 41 be
       -0.26643902 0.48070264 0.28038386 -0.18913808
0001e0 be 0a 9c 3e 23 91 85 3e 2e 85 f6 be 4d df 95 be
       0.30476946 0.26087293 -0.48148483 -0.29271927
0001f0 f7 e0 94 3d 72 d1 48 3f f9 8b f5 be a0 9c 90 3e
       0.07269471 0.7844459 -0.47958353 0.28244495
000200 d3 b7 d5 3e 65 bf c3 3e 17 f4 78 3e dd 7f 2b 3e
       0.4174181 0.3823196 0.24311863 0.16747995
000210 c4 b5 ed 3e 5a 9b 97 be b4 33 16 3e de 6f 02 bf
       0.4642774 -0.2961071 0.1466816 -0.50951946
000220 56 4c a2 be e8 a5 b8 3e bc da 8c 3e 4c 6b 2d be
       -0.31698865 0.36064076 0.2751063 -0.16935462
000230 b7 b6 ce 3d 1f d6 48 3e 2a 91 df be b8 c2 29 be
       0.10093444 0.1961293 -0.4366544 -0.16578186
000240 3f 25 68 3e 14 bd 9f be 0a 24 ba be c5 0e 11 3f
       0.22670458 -0.31198943 -0.3635562 0.5666316
000250 77 8c d7 3d 27 74 24 bf dc 97 9c 3e bc 75 17 3f
       0.105248384 -0.64239734 0.3058461 0.59164023
000260 6f 33 c9 3e 38 d6 9c 3e 40 e1 d0 3e 30 c9 ac be
       0.39297053 0.30632186 0.40796852 -0.33747244
000270 53 c7 db be c6 d6 92 3e bf cc 23 3e 8c 8c 92 be
       -0.4292551 0.28679484 0.15996073 -0.28622854
000280 f5 8a 0a bf fd 3b c8 3e 3a d4 04 be 00 e8 d8 3e
       -0.5411828 0.39108267 -0.12971583 0.42364502
000290 e0 42 f9 bc 1a d2 98 3e d6 6d 91 be 23 85 bf 3e
       -0.030427396 0.29847795 -0.2840411 0.37406263
0002a0 1f eb d3 3e 6c 94 78 3e 3a 08 c4 3e 30 5e 1e bf
       0.4139032 0.24275368 0.38287526 -0.6186247
0002b0 55 6a bd 3e 17 12 29 be 34 66 40 3d f4 d2 cd 3e
       0.36995187 -0.16510807 0.04697247 0.40200007
0002c0 dc 2c c6 be ad 99 53 be 00 c4 0a 3f 0d 73 e1 be
       -0.387061 -0.20664091 0.5420532 -0.4403309
0002d0 ad f1 ca be 27 43 9d 3e 49 00 65 3e 58 d2 c7 3e
       -0.3963751 0.30715296 0.2236339 0.39027667
0002e0 18 dd f6 be 7b 81 c8 be 3f d2 e9 3e 4d 17 55 3e
       -0.48215556 -0.39161286 0.45668218 0.2080967
0002f0 3c 4c db 3d 29 d5 be 3e f3 cf a7 be 99 a9 ff bd
       0.107079 0.37272003 -0.3277584 -0.1248352
000300 7f 18 01 bf 04 f2 32 be 62 d0 bf 3e 0a 39 f2 bd
       -0.50428003 -0.17475134 0.3746367 -0.118272856
000310 3a 2d 05 bf 68 e9 11 be 23 08 9d 3e 96 93 d3 3e
       -0.52022135 -0.14249194 0.3067027 0.41323537
000320 d3 ea b7 bd 10 c5 29 3d 7e f3 5f be f2 b8 b1 3e
       -0.08980336 0.0414477 -0.21870229 0.34711415
000330 8f 15 28 be 19 da d2 be d5 65 3b bf de 05 7a 3e
       -0.16414474 -0.4118202 -0.7320226 0.244163
000340 78 6c 58 bd e7 c6 96 be 58 ac e3 be a0 bb 2b bd
       -0.05283782 -0.29448625 -0.44467425 -0.04192698
000350 3a 71 3c be 02 c4 fe bd d9 06 cd 3e 70 af f8 3e
       -0.18402568 -0.12439729 0.40044287 0.48571348
000360 36 6c 4b 3e 8a 1f 08 3f 58 da 70 bd d7 49 ab be
       0.19865498 0.53173125 -0.05880198 -0.33454773
000370 34 98 e9 3e 18 51 f4 37 cd 7c 77 3e 84 a1 7d be
       0.45623934 2.9124829e-05 0.24168701 -0.24768645
000380 cf 31 0d bf 0e d6 8e 3e 88 d2 e6 bd ae 66 c2 be
       -0.55154127 0.27897686 -0.112706244 -0.37968963
000390 a6 0c 68 be 7a 8f 23 bf ce 0e 72 be 75 dc f6 be
       -0.22661075 -0.638908 -0.2363846 -0.4821507
0003a0 de 30 47 bd ab ee 52 be 59 8f fb 3e f5 06 14 3f
       -0.048630588 -0.20598857 0.49132803 0.57823116
0003b0 1c 18 18 3e 85 06 03 3e 63 9d 07 3f d0 87 04 bf
       0.14852947 0.12795456 0.5297453 -0.51769733
0003c0 20 6e ea be 7c 2b 67 be a5 76 ef bd a4 e5 b5 3d
       -0.45787144 -0.22575182 -0.116925515 0.08881691
0003d0 a3 55 11 bf d8 2e fe be c4 20 95 bd c7 9f 46 be
       -0.56771296 -0.49645114 -0.0728164 -0.19396888
0003e0 04 da ab be 57 f3 b8 3d a8 01 6d 3e 80 30 20 be
       -0.3356477 0.090307884 0.23145163 -0.15643501
0003f0 23 75 22 3e ff a4 57 be 97 08 9d 3e 86 5b ff be
       0.15864997 -0.21059035 0.30670616 -0.49874514

fc.2.weight f4 [256, 256]
000000 2b 3c 67 be 78 45 a1 bd c4 13 f3 ba 48 55 dc bc
       -0.22581546 -0.07874578 -0.0018545319 -0.026896134
000010 dc 62 81 3d 6c af 24 bb 6b 07 10 3d f7 61 63 bd
       0.06317684 -0.0025128974 0.035163324 -0.05551335
000020 e9 0b 3f 3d 9a 0b 72 bd 45 9c 1f 3d 40 32 ff bc
       0.046642218 -0.059093095 0.03896739 -0.03115189
000030 3e c4 f7 3c 5f c2 84 3c f9 9e 84 bd a3 54 6f bd
       0.030244943 0.016205965 -0.06475634 -0.058430325
000040 32 0c e1 3c 68 7b 30 be d8 96 c2 bb af 71 0c 3c
       0.027471635 -0.17234576 -0.005938392 0.008572026
000050 89 32 30 3d ee 65 1c 3c 23 60 fc bd da 8c 46 bc
       0.043016944 0.009545786 -0.12323024 -0.012118543
000060 c5 e4 3e 3d 86 4f 79 bd 94 cf ca bc 6e 03 cd 3d
       0.04660489 -0.060866855 -0.024757184 0.1001042
000070 24 e4 18 3d ad e2 f2 3b 04 ed b1 3d a3 38 9d bb
       0.037326947 0.0074122758 0.08687785 -0.0047980114
000080 dd ef 4f bb 2d 1f b7 3d dd 41 bf 3c 6a e3 81 bd
       -0.0031728663 0.08941493 0.023346836 -0.06342204
000090 85 5f be 3d ff f7 f5 bc 79 23 64 bd 2f 33 32 bd
       0.09295563 -0.03002548 -0.05569789 -0.043505844
0000a0 e0 3f 8f 3b 7c 54 cb be 79 b3 39 3c 33 48 e0 3c
       0.004371628 -0.39712894 0.0113342935 0.027378177
0000b0 8b 48 8e ba 07 fe a5 be 8e d6 68 bd ce a3 7f bd
       -0.001085536 -0.3242037 -0.05684524 -0.062412076
0000c0 f5 cc 5d bd c3 5d e1 be 81 d1 b8 bd c1 36 43 3c
       -0.05415054 -0.44016847 -0.09024335 0.01191491
0000d0 ac 84 b0 bd 6d ff 43 3d a2 2d 1b 3d 4e 8a 64 3d
       -0.08619055 0.047851015 0.037885316 0.05579596
0000e0 4e 00 62 bd 6d 98 e8 bc 78 09 83 be 3f a6 0e bd
       -0.05517607 -0.028392995 -0.25593162 -0.034826513
0000f0 58 89 52 bc bc 0b 2b 3d e4 70 99 3c 35 2a 69 bd
       -0.012850128 0.041759238 0.018730588 -0.056925017
000100 02 f4 99 be a0 7c 56 3d 7f 90 21 bd 9a 53 49 bd
       -0.30068976 0.052364945 -0.039444443 -0.049151994
000110 52 2d 8a bd 5d 2f a6 be ac 1e 54 3d 93 ea 0c be
       -0.067469254 -0.3245801 0.051787063 -0.13761358
000120 a1 6d 24 3e e9 11 ae 3b 33 d9 85 bc 25 41 8e bd
       0.16057445 0.0053121937 -0.01633892 -0.06946019
000130 e1 f4 a2 3c d2 ef 89 bc db ac 91 be 8b 69 3b bd
       0.019892158 -0.016837988 -0.2845219 -0.04575495
000140 82 e6 3b 3d e9 11 0c bd cb f4 ea bd 02 8c 1f be
       0.045874126 -0.034196768 -0.11472472 -0.15580752
000150 78 1a bb be 78 2d ad 3d 9e 36 8c 3d 76 67 7f bd
       -0.36543632 0.08455938 0.06846355 -0.062354527
000160 45 27 06 be 7a c0 a0 3d 60 48 06 3c e9 47 89 bc
       -0.13100918 0.07849212 0.0081959665 -0.016757922
000170 1c c4 47 bd d0 96 c4 3c e5 c0 9a bd 49 6b d5 bc
       -0.04877101 0.023997694 -0.07556323 -0.026052134
000180 40 ba ed bc a8 70 0a bc 7a 9e a4 3d 91 dd 8f be
       -0.029019475 -0.008449711 0.080380395 -0.2809873
000190 9c d0 da bc e1 bd 27 bd 05 00 93 bd a3 4d db 3b
       -0.0267108 -0.040952567 -0.07177738 0.0066926046
0001a0 63 9c 16 3d ec cb c9 bd d0 07 28 be 05 76 dd bd
       0.036770236 -0.09853348 -0.1640923 -0.10813526
0001b0 8c d8 22 bd e1 91 87 be b0 5c 88 be 13 90 bc 3c
       -0.039757296 -0.26478484 -0.26633215 0.023017919
0001c0 63 26 0e be e4 6c b6 bc b8 13 34 3b 0b 71 82 bd
       -0.13881831 -0.02226872 0.0027477574 -0.063692175
0001d0 77 e7 aa 3d 90 69 b0 bd 07 d9 6d bd e9 f5 45 bc
       0.0834493 -0.086138844 -0.0580683 -0.012082555
0001e0 30 68 95 3b 5d b1 45 bd 86 10 ae bc 16 d6 9e be
       0.0045595393 -0.04826485 -0.021248113 -0.3102271
0001f0 ab af 05 3e 8f 2d 84 bd 26 f5 b1 bd ec 5e 99 3c
       0.13055293 -0.06454002 -0.086893365 0.01872202
000200 00 10 4e 3c 4a 83 dc 3d 58 2c 30 3d 34 2e 40 bd
       0.012577057 0.10767229 0.04301104 -0.046919063
000210 4e fe c2 3c 75 89 35 3d d6 33 36 3d 1f 90 33 be
       0.023802903 0.044320542 0.04448303 -0.17535447
000220 2d 57 72 3d c7 12 bc bc 01 99 10 3c b1 25 a3 bc
       0.05916517 -0.022958172 0.0088255415 -0.019915434
000230 2a 07 86 3d d9 49 ae 3d 66 0b c1 bc 85 d6 64 bd
       0.06544335 0.08510179 -0.023565006 -0.055868644
000240 e6 c3 f4 3d fb 64 94 3d 23 f8 a5 3b c3 c4 33 3d
       0.11951427 0.07245823 0.0050649806 0.04388882
000250 62 7e 01 bd 4c d2 0e be 20 06 e3 3d f9 97 46 3e
       -0.03161467 -0.1394741 0.110851526 0.1939391
000260 cd de b9 3c 90 88 fe bd c4 03 95 3d de c2 83 bd
       0.022689248 -0.12428391 0.07276109 -0.06433652
000270 40 91 8e bd 12 ce 1a 3d fc 2b 0b 3d b9 e2 f5 3c
       -0.06961298 0.03779418 0.033977494 0.030015336
000280 76 d1 78 bd 5b 58 91 3c 7d 1b cb bd 36 11 0a 3d
       -0.060746633 0.017742326 -0.09917352 0.03370782
000290 4e 4d 6c 3d 7c 60 a1 3c a4 6e 50 bc 35 0e 82 3d
       0.05769091 0.019699328 -0.012721691 0.06350366
0002a0 b6 cd d4 3d 39 7a 68 bd 7c 88 5b be 8b 0e 7e bb
       0.10390799 -0.056757186 -0.21438783 -0.0038765993
0002b0 5a 3d bc be 3e 42 bb 3d 1e 75 ff bd 5e 43 7e 3d
       -0.36765558 0.09143494 -0.1247351 0.062075965
0002c0 54 55 4c 3d 74 de 27 bd 4b 99 f0 3c bc 02 7a bd
       0.049886063 -0.040983632 0.02936997 -0.061037764
0002d0 6e fc 2d be 50 06 95 3d 96 41 c2 3d 8c 43 58 ba
       -0.16990826 0.07276595 0.09485166 -0.00082498114
0002e0 94 78 1a bd 71 90 df bd 82 bc 0b 3d d7 62 d8 3b
       -0.03771265 -0.10916222 0.034115322 0.0066035795
0002f0 ba 6f ba bb 71 06 ac 3d 4e 97 38 bf a5 65 2b bd
       -0.0056895884 0.08399666 -0.7210587 -0.041844983
000300 8c 1a e1 bc e2 42 b9 bc 4b ed 80 3d 2c c7 00 be
       -0.027478479 -0.0226149 0.0629526 -0.12575978
000310 9c 30 73 bd 7c 57 99 ba d7 96 c6 3c d9 38 bc bc
       -0.05937253 -0.0011699046 0.024241848 -0.022976326
000320 c4 7b 20 be 3a d0 54 3d b0 f4 5b bc 59 e9 35 3d
       -0.15672213 0.051956393 -0.013425037 0.04441199
000330 29 61 a4 bd 89 0c fb bd ac 2d 74 bd 37 c8 0e 3e
       -0.08026344 -0.1225825 -0.05961387 0.13943563
000340 cc 99 be 3c 9e ba 38 be e7 b3 2b bd 00 2a 76 3b
       0.023266695 -0.18039939 -0.041919615 0.0037561655
000350 60 ab 86 bc 46 43 77 3d d2 cd 02 3d 41 2f 68 3d
       -0.01643914 0.06036689 0.031934567 0.05668569
000360 2d 14 7b bb bc 19 ff bc 65 e7 53 3b 82 e1 84 be
       -0.0038311586 -0.0311402 0.0032333967 -0.259533
000370 f7 26 43 3c 6e 62 10 be 8a ee 47 be 99 8a 5d bc
       0.011911145 -0.14100048 -0.19524589 -0.013521814
000380 9c f6 98 bd 9b 94 2d 3d ce 2e 5a be 1b 2b 41 be
       -0.07468912 0.04237805 -0.21306917 -0.188641
000390 78 ed 00 3c 2d 8f c9 bd 52 de 93 bc f3 d3 4b bd
       0.007869117 -0.09841762 -0.018050347 -0.049762677
0003a0 b1 13 70 bd 20 3d 32 bd b2 f7 6b 3c 1a dd 76 bd
       -0.05861253 -0.043515325 0.014402317 -0.060269453
0003b0 bf 16 62 be 17 d9 b7 3d 2a 18 b0 3d 07 0e b0 bc
       -0.2207899 0.089769535 0.08598359 -0.021491064
0003c0 27 a1 1c bc 24 ff 53 be 77 4d e6 3b 78 48 df bd
       -0.009559906 -0.20702797 0.0070282775 -0.10902494
0003d0 78 21 72 bd 36 88 1c bf cb 52 ac bd 63 4e 88 bc
       -0.05911395 -0.6114534 -0.08414229 -0.01663894
0003e0 cb 4b 9a 3c ad 77 23 3d 6c d8 67 bd 54 6d 1f be
       0.018834969 0.039909054 -0.05660288 -0.15569049
0003f0 9d e2 15 be be 2a 34 3d 5d 3c 87 bd 6d df 99 bc
       -0.14637227 0.043986075 -0.0660331 -0.018783296

fc.2.bias f4 [256]
000000 cd 9b 2a 3e 84 f1 0d 3e 6a 04 18 be 5b a2 23 3d
       0.16660996 0.13861662 -0.14845434 0.039949756
000010 ec 2d 24 3d ed b7 50 3e 3c 0a 48 3c fc 91 70 bd
       0.040082857 0.20382662 0.012209471 -0.05873297
000020 ea 51 f1 3c 08 43 83 3d 8e 3d 5f bc 9b d6 3b 3d
       0.029458005 0.064092696 -0.013625516 0.04585896
000030 dc 14 46 bd 7f 06 a6 3b 43 b2 29 bd c1 50 8f 3d
       -0.048359737 0.0050666924 -0.04142977 0.069978245
000040 48 ba c9 bc 50 d5 03 3e fc 0e b3 3c d2 12 23 be
       -0.024624959 0.12874341 0.021857731 -0.15925148
000050 f9 93 69 bd 5e 88 8b 3e c8 28 aa bd 34 3e 21 3d
       -0.057025883 0.27252477 -0.0830856 0.039365962
000060 a8 4b 66 3d 19 03 b6 3c 5c 03 c8 3c d5 5e 19 3e
       0.056224495 0.022218274 0.024415664 0.14977582
000070 7f 80 47 bd 6f 01 66 bd 5f e0 00 3d 8c aa af bc
       -0.048706528 -0.05615371 0.031463977 -0.021443628
000080 14 6d 14 3d bb a0 0e 3d 64 6b 91 bd 7c d5 10 3d
       0.036236838 0.034821253 -0.07100561 0.035359845
000090 19 1e f3 bb 8e da 7a 3a 30 25 ac 3c 6e 03 2d 3a
       -0.0074193594 0.00095693104 0.021013826 0.00065999373
0000a0 82 ae 09 3d c3 9d a8 bc 53 ef 18 3e c4 3c 1a bd
       0.03361369 -0.02058304 0.14935045 -0.037655607
0000b0 60 8b 73 3e c0 2b ba bd 27 df 2e 3d b4 9a c1 bc
       0.23783636 -0.09090376 0.042693283 -0.023633339
0000c0 94 1b fe 3c e6 b7 10 3e 92 ec 4d 3e 0b 01 5d bd
       0.03101901 0.14132652 0.20109776 -0.053956073
0000d0 af ba 09 3d 54 e6 23 bd 76 61 fc 3d f0 da d4 3c
       0.0336253 -0.04001458 0.12323277 0.025983304
0000e0 a1 ac 1e 3d 7f 98 92 3e 61 67 1c 3e 39 0f b3 3c
       0.03873885 0.2863197 0.15273811 0.021857845
0000f0 62 97 50 3e de 55 e1 3d 32 61 14 3e a8 58 de bc
       0.20370248 0.11002706 0.14490202 -0.027141884
000100 3b fe 4c 3d af f2 dc 3c 01 d5 33 3e 03 1b 34 3e
       0.05004714 0.02697119 0.17561723 0.17588429
000110 2d e3 66 bd 95 f9 a8 bc 1b 93 b2 3d b6 c7 3c bd
       -0.056368995 -0.020626822 0.087194644 -0.046088897
000120 4c 82 c3 3c 75 d2 02 be 10 64 50 bd f7 67 41 3c
       0.023865841 -0.12775595 -0.050876677 0.011804572
000130 59 1d b4 bd a5 d8 8e bd 69 57 b0 bc 9b 69 08 3e
       -0.0879466 -0.069749154 -0.021526055 0.13321535
000140 44 67 3b 3e e2 75 d4 bd ef c4 08 bd b0 43 f0 bd
       0.18301111 -0.10374047 -0.033390936 -0.1173166
000150 5d 4b d8 bd af aa ab bd a3 d0 2c 3e fe 9b a7 bc
       -0.105612494 -0.08382165 0.16876464 -0.020460125
000160 b7 4a 6f bd 6a 86 06 bd 0e cb a3 bd c4 d2 5b 3e
       -0.058420863 -0.03284303 -0.07997714 0.2146712
000170 c0 6d 0d be 25 8b b6 3c 2f fe 42 be 1b 60 ae 3d
       -0.13811398 0.022283146 -0.19042276 0.085144244
000180 97 72 24 3e 5d 0d 09 3c 24 08 4b bd db 9d 46 3c
       0.16059338 0.008365002 -0.04956831 0.012122597
000190 70 13 73 bd d7 95 d3 3d 5a 97 fb 3d b1 5b aa 3c
       -0.05934471 0.10331314 0.122847274 0.020795675
0001a0 de cf 5a 3d ae 91 a0 3e 00 81 28 3d d3 d0 d5 3d
       0.053420894 0.31361145 0.04113865 0.10440221
0001b0 dd 33 be 3d 8a df 3c bc ba 36 28 be 7e dc e6 3d
       0.09287236 -0.011527905 -0.16427127 0.11272524
0001c0 d1 8b 25 3e 8f 8c 41 bd 8a 51 9a 3d 0c d9 b1 3d
       0.16166617 -0.047253188 0.075350836 0.086839765
0001d0 da 4d 35 bd 88 ce 8b bd 19 d3 52 3e 60 67 22 bc
       -0.0442637 -0.06826502 0.2058834 -0.009912342
0001e0 08 4c db 3d 8a 50 3a 3e 96 8f 12 bd f2 48 c9 bd
       0.10707861 0.18194786 -0.035781465 -0.09828366
0001f0 07 20 51 3e 45 22 dd 3d f0 d4 6e 3c 7e 79 d6 bc
       0.20422374 0.10797552 0.014577135 -0.026180979
000200 09 8d 3c 3c ec 52 d7 3d 59 31 19 3e 8e b4 18 bd
       0.011508235 0.10513863 0.14960231 -0.037281565
000210 d6 60 9d bd c1 fd 00 3d 63 4c 07 3e c9 02 1d 3c
       -0.076844856 0.031492 0.13212733 0.009583184
000220 42 15 ed bb 35 f0 c4 3d 51 2c be bc 46 6d 74 3d
       -0.0072352 0.09616128 -0.023214491 0.059674524
000230 62 12 99 bd 9d 5a 2b bd 56 36 37 bd 38 b1 9d bc
       -0.07474209 -0.041834462 -0.044729553 -0.019249544
000240 e4 b6 18 be cf b0 eb 3c 50 1b 8b 3e 85 ad 4a 3d
       -0.14913517 0.028770832 0.27169275 0.049481887
000250 49 80 1f 3e 2e 76 c1 3d 54 c4 31 bd 85 5c 06 bd
       0.1557628 0.09446369 -0.043400124 -0.032803077
000260 f6 04 db bc 78 5c 66 3c a6 a8 2a bd 1a 70 c2 bb
       -0.026735764 0.014060132 -0.041664742 -0.0059337737
000270 73 46 d6 3d 80 bf 19 3d 66 5f c2 3d 54 17 26 3e
       0.10462656 0.037536144 0.09490852 0.16219836
000280 3d 8e 3a 3d 03 6c 21 bd 20 fc 8b bc 33 57 d7 bc
       0.045545805 -0.03940965 -0.017087996 -0.026286697
000290 7b 44 d2 3c 59 5a 05 be 7c 05 80 3c f6 02 7d 3e
       0.02566742 -0.13022746 0.015627615 0.24708161
0002a0 b9 5e 71 bd 25 33 28 be 62 91 7d 3d 2e 49 14 3e
       -0.058928225 -0.1642576 0.061906226 0.14481041
0002b0 cc 4b 7f 3d 11 2e 40 bc 79 f8 00 bd 54 a7 78 bd
       0.062328145 -0.011729733 -0.031486962 -0.06070645
0002c0 46 f5 91 bc 23 c7 df bc 2b 84 97 3c 51 64 ad bd
       -0.01781715 -0.027316635 0.01849564 -0.084663995
0002d0 b6 46 d2 3d cf 02 c4 bd d0 32 6b bd 49 af a6 3d
       0.10267393 -0.09570848 -0.057421505 0.08138902
0002e0 10 91 bc bd a3 1c 24 3d 99 a1 1d bd 92 78 c2 bd
       -0.09207356 0.040066373 -0.03848419 -0.09495653
0002f0 a3 e4 1d bd 2e cd 79 3d 53 ef 6e 3e e2 ad 3a bd
       -0.038548123 0.06098669 0.23333482 -0.045575984
000300 a5 a8 66 bd d4 84 7b 3c f4 66 3a bd 08 e9 2e 3e
       -0.056313176 0.015351493 -0.04550834 0.17081082
000310 e4 7f 93 3d 01 ce 70 bd 47 4a 05 3e 49 94 45 be
       0.072021276 -0.05879021 0.13016616 -0.19294848
000320 08 98 b5 bd e5 2e 9e 3d 38 7d df bc 71 fc f4 3d
       -0.08866888 0.07723788 -0.027281389 0.11962212
000330 9b 60 40 be 39 93 45 bd 07 c9 7e 3e 4c 1a 71 3e
       -0.18786852 -0.048236106 0.24881373 0.23545188
000340 43 1d a8 bd 2a ea 3e bd c6 7d cc bc 69 63 f2 bc
       -0.08208706 -0.046610035 -0.024962317 -0.029588418
000350 f8 cf a9 3c 41 6d fa bb 8d 25 01 3e bb c4 38 bc
       0.02072905 -0.0076424186 0.1261198 -0.011277373
000360 13 5d 1e 3e ec 65 93 bd 4d 16 bf 3c 8d 1e 4a bd
       0.15465192 -0.071971744 0.023326064 -0.04934554
000370 eb 0e 6c 3e f4 57 f8 3d 5b 89 79 3e f8 47 51 bd
       0.23052566 0.12126151 0.24368803 -0.051094025
000380 17 bf 82 bd b9 8b 3c 3c aa 9a 2e 3d 22 dd bf 3d
       -0.06384104 0.011507922 0.042627968 0.093683496
000390 0a b7 43 3d 83 2f 23 bd 69 49 be bd 25 7b 1d bc
       0.04778198 -0.039840233 -0.092913456 -0.0096118795
0003a0 f9 05 45 bd f9 ee 06 be 5c c9 bb bd f1 5f 53 3e
       -0.0481014 -0.13177098 -0.09169266 0.20642067
0003b0 01 de 2d be 61 6a f2 3d 81 11 46 bc 07 74 60 3b
       -0.16979219 0.118366964 -0.012089134 0.0034248845
0003c0 c2 d6 0a 3e 22 7b e4 ba 6c 53 25 3d 68 0b 4e 3e
       0.13558486 -0.0017431716 0.04036276 0.20121539
0003d0 5e d1 2c 3d c1 7f 06 bd 22 78 91 bd 86 fa 7f 3e
       0.042191856 -0.03283668 -0.07102992 0.24997911
0003e0 74 b1 6d 3d 7f 33 df 3c e3 75 22 3e 51 7d a5 bd
       0.05803056 0.027246235 0.15865283 -0.08080543
0003f0 80 93 7c bd 44 9b ef bd c2 b8 34 3e 94 d6 05 bd
       -0.061664104 -0.116995364 0.17648605 -0.03267534

fc.4.weight f4 [128, 256]
000000 4c 84 fe 3c b1 5e 82 bd ea 75 5a ba 9c 3e 35 bd
       0.031068943 -0.06365717 -0.00083336106 -0.044249162
000010 f4 28 64 bd b7 7d 23 ba 98 f6 30 bd 04 cb 91 bc
       -0.05570312 -0.00062366895 -0.04320392 -0.017797
000020 ee e4 50 3c 96 5c 41 bd 51 97 35 bd 60 b6 65 3c
       0.012749894 -0.047207437 -0.04433376 0.014020532
000030 4e b5 d8 3b b8 b9 ba 3c cc 92 37 bd ac b1 25 3d
       0.00661341 0.022793636 -0.04481773 0.040452644
000040 c4 22 52 3d 3f 01 6c 3d 26 bc 56 bd 18 89 ed 3c
       0.051302686 0.057618376 -0.052425526 0.028996035
000050 60 2d 16 3b 5e 2f e5 bc 55 2f 8d 3c 54 b2 df 3c
       0.002291523 -0.027976688 0.017234484 0.027306713
000060 e9 96 c4 3c c8 84 56 bd 1b c9 82 3c 07 79 73 bd
       0.02399774 -0.052372724 0.015965035 -0.059441593
000070 d3 76 35 3a 0a 52 47 3d bb 1f 7c bd 6e b0 0e 3d
       0.0006922308 0.048662223 -0.061553698 0.034836225
000080 bf b8 8f bc 86 14 2f bd 6f a6 e4 3c 2c fd 05 3d
       -0.017544148 -0.042744182 0.027911393 0.032712147
000090 d2 ad 75 3d 2b d8 6f bc 24 5d 4d 3d 80 89 1c 3c
       0.05998022 -0.014638941 0.050137654 0.009554267
0000a0 af 7d 69 bd e5 b9 44 3d 8a c0 7e bc a0 40 59 3c
       -0.057004627 0.048028845 -0.015548835 0.013260037
0000b0 03 c7 2c bd 04 35 55 3d 87 73 03 3d d8 66 b1 3c
       -0.04218198 0.052052513 0.032092597 0.021655485
0000c0 78 4c 76 bc 40 25 97 bd 9e 9a ee bc e3 c0 ef bc
       -0.01503288 -0.07380152 -0.029126462 -0.02926678
0000d0 23 b8 25 bd e4 36 cf bc aa 9f 36 3d e0 19 19 3c
       -0.04045881 -0.025294729 0.04458586 0.009344548
0000e0 34 28 99 bd 26 4b 90 3c 36 5c a5 bc bd cb 18 bc
       -0.07478371 0.017613959 -0.020185571 -0.009325919
0000f0 c4 fd 22 bd 0d 1e ba 3c 28 85 42 bd 90 95 a6 3b
       -0.03979279 0.022719407 -0.04749027 0.005083747
000100 0b bb 27 bc f6 2b c6 bc 77 31 39 bd 54 d4 c8 3b
       -0.010237466 -0.024190884 -0.04521319 0.006128827
000110 06 ef 31 3d 2f b4 4c 3c 60 4c cf 3b e2 81 73 3d
       0.04344084 0.012494131 0.0063262433 0.059450038
000120 e9 12 37 3d c3 90 45 bd 83 a6 01 bd 10 18 37 3d
       0.04469577 -0.04823376 -0.03165294 0.044700682
000130 b8 9c 44 3c c8 6c 8f bc 16 17 6a 3a bb 7c e7 bc
       0.012000255 -0.017507926 0.00089298317 -0.028257718
000140 02 33 05 bd d4 29 0f bd 39 97 02 3d 81 0b ab bc
       -0.032519348 -0.034952 0.0318825 -0.020879509
000150 a7 c9 57 bd fa b7 0d 3c bc b5 47 bc 88 54 77 bd
       -0.052682545 0.00864982 -0.012189325 -0.06038335
000160 94 e3 4f bd 28 1e ef bc 72 9b 3c 3d f8 b5 a4 bc
       -0.050754145 -0.029189184 0.04604668 -0.0201063
000170 45 0d 80 bd 84 65 41 bd e6 fc 31 bd 13 6c 2d 3c
       -0.06252531 -0.047215953 -0.043454073 0.010584849
000180 20 d6 c8 bc 96 b9 86 3c ec 2b 6c bd 85 10 a4 3c
       -0.024516165 0.016445916 -0.057659075 0.020027408
000190 e0 d8 d3 bc 1d fd cb bc fa f8 03 bd 4f f0 ab 3c
       -0.02586025 -0.024900967 -0.032219864 0.020988612
0001a0 8c 8c 94 bc 07 cb 31 bd 7c 9e e7 bc 3c ef 0c 3d
       -0.018133424 -0.043406513 -0.028273813 0.03440784
0001b0 94 88 8d bd 97 32 88 bd a7 cb b1 bc 99 58 d6 b9
       -0.06910816 -0.06650274 -0.021703554 -0.0004088327
0001c0 e5 21 d0 3c fb 04 2e bc 19 c7 26 3d 86 ff 91 bc
       0.025406787 -0.010621305 0.040717218 -0.017822038
0001d0 30 1b 4b bc ce 3e 73 3d 6c 39 ab bc 88 25 93 3c
       -0.012396619 0.059386067 -0.020901404 0.017962232
0001e0 11 43 67 bd f3 59 21 3d 08 f4 4e bd a8 b3 35 bd
       -0.056460444 0.039392423 -0.050525695 -0.044360787
0001f0 5c 41 66 3d 41 63 7a bd 44 5b 31 bd 00 8b 0b 3b
       0.056214675 -0.061129812 -0.04329993 0.0021292567
000200 94 ff 29 3d c0 2d 8f bd 64 3d b5 3c 68 cb 54 bc
       0.041503504 -0.06991148 0.022124 -0.012987949
000210 50 a0 bd bb e3 ae 0f bd 0a 68 3e bd 24 fb f6 bc
       -0.005786933 -0.035078894 -0.046485938 -0.03014905
000220 10 0f db 3c 27 15 e0 bc 0e 4b d7 3c a2 17 c3 3c
       0.02674058 -0.027353836 0.026280906 0.02381498
000230 82 37 bc bc 8c 69 b0 bc e2 ff 7a bd fc 66 00 3d
       -0.022975687 -0.021534704 -0.061279185 0.031348214
000240 19 34 6d bb 16 71 b9 bc 5b d6 25 3d 24 4b a5 3c
       -0.0036194383 -0.022636931 0.04048763 0.020177431
000250 12 f2 12 3d 2c 52 20 bd f8 55 49 3d de 41 3a 3d
       0.035875387 -0.039140865 0.04915425 0.045472972
000260 e4 a9 a3 bc 12 6c 61 bd b0 f5 5f bd 00 6c 0d bd
       -0.019978471 -0.055034705 -0.054677665 -0.034526825
000270 79 96 94 bd 0a 30 33 bd 0f 3d 8b bd 78 7f 24 3d
       -0.07255263 -0.043746985 -0.067987554 0.040160626
000280 74 71 54 bd 94 4a 05 bd 6a 04 4d 3d dd fb 00 bd
       -0.05186601 -0.032541826 0.050053038 -0.031490196
000290 b6 81 61 bd fb ba 7e 3c 42 fa 76 bd d6 be 3e bb
       -0.055055343 0.015547509 -0.06029726 -0.0029105446
0002a0 70 18 90 3b c8 ff eb 3c a2 02 09 3d 26 db 42 3d
       0.0043974444 0.02880849 0.033449776 0.047572277
0002b0 c2 dc 08 bd 54 ba 6f 3c a0 bf 71 bb 2c c8 fb bc
       -0.033413656 0.014631826 -0.00368879 -0.030735098
0002c0 6a 7d 5b 3d 66 a2 3b bd 88 b0 22 bd ef c7 cb 3b
       0.0535864 -0.045809172 -0.039719135 0.0062189023
0002d0 39 e6 18 bd 8c 72 8d 3c f4 cd 8c bc b7 80 03 bd
       -0.037328932 0.017266534 -0.01718805 -0.032105174
0002e0 77 74 71 bd c5 6b d4 bc 28 86 4c bb 07 f2 63 3d
       -0.05894896 -0.025930295 -0.0031207893 0.055650737
0002f0 c0 54 36 3d 88 c8 37 3d ce 42 80 bc 64 1b 12 3b
       0.044514418 0.044868976 -0.015656855 0.0022294158
000300 dd 18 2d 3b c7 bb 56 3d 10 89 3a bc 7a 3c f3 bb
       0.0026412525 0.052425172 -0.011385217 -0.007422981
000310 b8 30 56 bd 3d b2 3b bc 1e 51 50 bd 92 20 67 3d
       -0.052292556 -0.01145607 -0.05085861 0.056427546
000320 cb f9 ad 3c 90 c0 4d bd 80 8a ee ba 04 c5 69 bd
       0.021237275 -0.05023247 -0.0018199235 -0.057072654
000330 b8 1e 9e 3c 47 62 44 bd 37 c3 20 bd f3 34 d7 bc
       0.019301757 -0.047945287 -0.03924867 -0.026270365
000340 b7 10 90 bd f0 25 4f 3d 66 34 70 bd 0e ad 26 3d
       -0.07034438 0.05057329 -0.05864372 0.04069238
000350 aa e9 48 bd 01 77 5b bd 99 e7 7d 3c 2f 77 b0 3c
       -0.049050964 -0.053580288 0.015497112 0.021541206
000360 ca 76 07 bd 14 6c fe bc 80 e4 f1 ba b8 f4 75 3b
       -0.03307227 -0.031057395 -0.0018454939 0.0037529897
000370 dd eb d4 3c 04 bb 9a 3c ff 0f 63 3c 3a 53 02 3d
       0.025991375 0.018888004 0.013858794 0.031817652
000380 70 96 72 bc 39 eb bc bc d4 ce 27 bd 63 f9 3d 3c
       -0.014806375 -0.023061382 -0.04096873 0.011595103
000390 43 42 5c 3d cd 7f 74 bd 89 66 07 bd 69 b3 3f bd
       0.05377413 -0.059692193 -0.03305677 -0.04680196
0003a0 fb c3 46 bc 0d 70 91 3c b8 e7 08 3d b2 be 59 bd
       -0.012131686 0.017753625 0.03342411 -0.053160377
0003b0 f1 49 00 3c 6b 32 28 bd bc f2 e8 3b 81 d5 80 3c
       0.007830129 -0.041063707 0.0071090143 0.015726807
0003c0 1a fb 6b 3c 18 b4 61 bd 68 bb 15 3c 41 6d a4 3c
       0.014403129 -0.05510339 0.009138919 0.020071628
0003d0 32 50 05 bd 00 ac 3d 3b e0 34 77 bd ad de 5c bc
       -0.032547183 0.0028941631 -0.06035316 -0.013480824
0003e0 0f 7e f9 3c 63 48 0d bc c5 b1 05 bd 25 51 b0 ba
       0.030455617 -0.008623215 -0.032640237 -0.0013451917
0003f0 5f cc 96 3c ee d4 88 ba fa 4f c4 bc 9f d4 e2 bc
       0.018407999 -0.0010439435 -0.023963917 -0.027689276

fc.4.bias f4 [128]
000000 7a 16 b6 bc e1 31 87 3d ae ce 45 bd 7d 8f 96 bb
       -0.022227515 0.066013105 -0.04829281 -0.004594742
000010 25 34 b6 bc 37 5d f5 3c 7c 98 e0 3c 89 47 b1 3d
       -0.022241661 0.029951675 0.02741646 0.086562224
000020 10 14 b3 3b c0 1d 5d 3c 3c 8b 97 3d ad 98 06 bd
       0.005465038 0.0134958625 0.07399604 -0.032860447
000030 09 7b 51 3d 46 dd dc bc 1a 31 05 3e 54 a9 2c 3e
       0.051142726 -0.02696098 0.13007012 0.16861469
000040 95 80 d0 3d ea 4b 66 3e b2 24 bd 3d 69 02 a4 3d
       0.10180775 0.22489896 0.09235515 0.08008272
000050 37 14 da 3d 4b db 37 3e bc c4 d7 3d 3c 56 6f bd
       0.10648387 0.17954747 0.10535571 -0.05843185
000060 11 0c 0d 3e 41 c1 6e bd 24 ee 30 3e 23 23 0d 3e
       0.13774134 -0.05828977 0.17278343 0.13782935
000070 06 95 02 3d a6 39 75 3d b9 20 5f 3e 90 73 dd 3c
       0.0318804 0.05986943 0.21789826 0.027032644
000080 95 32 49 3c 6d ee 9f bd 11 1e 1f 3e c9 75 ac bc
       0.012280126 -0.07809148 0.15538813 -0.021052258
000090 5b 41 65 3d fc 52 73 3d 9d 8c 25 3e 90 83 46 3e
       0.05597053 0.059405312 0.16166921 0.19386125
0000a0 7c 21 22 3d 86 0c 70 3d 5b f0 11 3d 70 ef 38 bd
       0.039582714 0.058605693 0.03562961 -0.04515022
0000b0 c7 bf 11 3e c0 77 eb 3d 66 67 63 bd c5 9d 58 3e
       0.14233314 0.1149745 -0.05551853 0.21153934
0000c0 e9 53 9c 3c 73 10 14 3d 47 be f6 3c 4a d1 d7 3d
       0.01908298 0.0361485 0.030120028 0.105379656
0000d0 c1 f8 01 3e 66 71 ca bc cf c6 8f 3d 1a 4b 4a 3b
       0.12692548 -0.024712276 0.070203416 0.0030867518
0000e0 94 86 c2 3d 2c 0d cd bc e5 04 85 bc 2e db 8e 3c
       0.09498325 -0.025030695 -0.016237685 0.017438497
0000f0 2d 0a 23 3d 66 8b 63 bc ca 3d bd bd 65 08 ea 3c
       0.039804626 -0.013888216 -0.09240301 0.028568456
000100 94 cb bf 3b ac c3 30 bc ba e6 5e bd 87 90 91 3d
       0.005853126 -0.010788839 -0.054419257 0.071076445
000110 8d 52 98 3c 2e bc 5a 3d a1 4b 99 3c a3 e3 2f bc
       0.01859405 0.05340212 0.01871282 -0.010735425
000120 46 89 ea 3d 0c e2 85 bd 13 6d cf 3d 55 66 3c 3e
       0.11451964 -0.06537256 0.10128226 0.18398412
000130 26 a9 8d bd 7d e8 04 3e 6a e2 80 3e e9 ac e9 3d
       -0.06917028 0.12979312 0.2517274 0.11409933
000140 4c 5e 30 3e 35 24 4e 3e 63 c3 12 bd e6 ea 59 bd
       0.17223471 0.20131 -0.035830867 -0.053202532
000150 55 94 cc 3d ee 3f 82 bd 82 85 b5 bd 1d c5 90 bd
       0.099892296 -0.0635985 -0.08863355 -0.070688464
000160 b9 92 9e bd f9 b5 3e 3d 60 02 7b 3e cc e8 5b 3e
       -0.07742829 0.04656026 0.24512625 0.21475524
000170 ce 49 a0 bd 02 84 bc bd b3 4c 4c bd 93 b9 31 3e
       -0.07826577 -0.09204866 -0.049877834 0.17355947
000180 50 d7 9e 3d e3 7c ca bd 08 4f 1a 3d d7 79 ba 3d
       0.07755911 -0.098871015 0.037673026 0.0910527
000190 8f 41 a4 3c d9 c7 a4 3d 9b 96 13 3e 49 bd 3e 3c
       0.020050792 0.080459304 0.1441292 0.011641809
0001a0 06 be 97 bd d8 3f 86 3d de 23 f7 bb b4 73 f8 3d
       -0.07409291 0.06555146 -0.0075421175 0.121314436
0001b0 06 35 d4 bc fa 21 80 3e e6 d8 9a bd 07 15 7f 3d
       -0.02590419 0.25025922 -0.07560901 0.062275913
0001c0 3f b1 b4 3c 0f 23 47 bd 1d 60 b9 3c 73 97 82 bd
       0.022057174 -0.04861742 0.022628838 -0.06376543
0001d0 5c ab 08 3e 5b 98 e0 3d 28 52 17 3e 70 c5 4a 3e
       0.13346618 0.109665595 0.14777434 0.19801879
0001e0 d4 6f 38 3e 9c d4 59 bd 34 f8 db bc 49 aa f1 3b
       0.18011409 -0.053181276 -0.02685175 0.007375036
0001f0 23 ad 5b bd 21 1e 9e bd 1e 39 36 3c d5 c0 14 be
       -0.053631913 -0.077205904 0.011122016 -0.14526685

fc.6.weight f4 [3, 128]
000000 ef 95 8a 3b 85 c3 2b 3e 7b 59 22 bd a0 59 8c be
       0.0042292993 0.16773804 -0.039636116 -0.27412128
000010 d8 e3 0d be 6c 46 39 3e 72 a6 45 3d e7 78 97 3c
       -0.13856447 0.1809327 0.048254438 0.018490268
000020 5c 68 47 3d da 19 c1 3c 93 f4 15 3c fa d1 39 3e
       0.04868351 0.023571897 0.009152549 0.18146506
000030 5b af 71 3d 6f 0f 38 bd b4 32 cd 3d ae 17 04 3d
       0.059005123 -0.044936594 0.100194365 0.032249145
000040 52 c0 45 3e 54 5e 6f bd a5 c7 08 3e 2f ec 4a 3d
       0.19311646 -0.058439568 0.13357408 0.04954165
000050 31 9d 55 3d f2 5c e0 bb 5d 05 9d 3d 4a f5 af 3b
       0.052151863 -0.0068470174 0.076670386 0.005369817
000060 54 57 f3 3d b1 95 48 be ca 66 3c bd 53 d7 65 3d
       0.11881891 -0.19588353 -0.045996465 0.056113552
000070 06 0b ce 3d cd bd 94 be e9 8f dd be 09 26 1b be
       0.10060696 -0.29051057 -0.43273857 -0.15151228
000080 a7 a2 45 3d 7c 20 2d 3d 01 63 a9 3c 0b 14 2f bd
       0.04825082 0.042267308 0.020677092 -0.042743724
000090 3b 77 83 ba 5b 56 e8 be 44 46 64 3d b1 9f 00 3e
       -0.001003004 -0.45378384 0.055731073 0.12560917
0000a0 ac 83 aa bd 3b 95 37 3d 93 b3 a3 bc dd 2c 9a 3d
       -0.08325896 0.04482005 -0.019983089 0.07528088
0000b0 01 96 5d 3d 62 8d 7b bc b5 01 12 bd f0 37 02 3c
       0.054098133 -0.0153535325 -0.03564616 0.007947907
0000c0 cc 28 a9 3d 54 1e e6 be 3e b6 5e 3e ff 0f 04 bd
       0.082597345 -0.44945014 0.21749207 -0.032241818
0000d0 bf b1 fd 3d 6c 1d 28 be 10 7e 3d 3e 9c aa 70 bc
       0.12387418 -0.16417474 0.1850512 -0.014689114
0000e0 c6 c6 9f 3d e2 10 a2 3d 9b a4 41 bc f3 1f 1c be
       0.07801585 0.079133764 -0.01181903 -0.15246563
0000f0 52 66 ab bc bc 62 28 3b fa e2 07 3e 13 e1 2e bd
       -0.020922814 0.0025693616 0.13270178 -0.042695116
000100 90 c0 02 bd a6 61 bd 3c 63 0b 6a 3d 43 f7 d6 bc
       -0.031921923 0.023117851 0.057139765 -0.02624095
000110 c3 a5 37 be f5 a8 6c 3e 93 c4 86 be 2f ac 0b 3e
       -0.17934327 0.23111327 -0.2632185 0.13639902
000120 db c5 d2 3d ad 6f f0 bc 3d b7 c8 bc 99 2c 9b 3d
       0.10291644 -0.029350126 -0.024501437 0.07576866
000130 64 3b 2e be 1d 69 08 be 13 52 b6 3d 98 a6 f2 3d
       -0.17014843 -0.13321348 0.08902373 0.118481815
000140 16 d5 2b bd b3 9c 88 3d f3 b7 e4 3d e1 5f a2 bd
       -0.04195126 0.06670513 0.11167898 -0.07928444
000150 24 e2 bc 3d 36 0b 7f bd 73 9d 10 bd 1e d7 2b be
       0.092228204 -0.06226655 -0.035306405 -0.1678128
000160 93 d1 8e be db 73 f1 3d c8 71 f5 bd ff 37 36 3c
       -0.27894267 0.11789676 -0.11984593 0.011121749
000170 d5 76 3c bb 48 8a d7 3c 3b 59 30 3d cd 18 d2 bd
       -0.0028757353 0.026311055 0.043053847 -0.102586366
000180 79 7e 14 3e 9d 3d 24 be f0 8b eb 3d 79 ac f5 3d
       0.1450137 -0.16039129 0.115013 0.11995787
000190 41 ce 8a 3d e5 79 20 be ad 0b 32 3d 49 53 8f 3d
       0.06777621 -0.15671499 0.043468166 0.06998307
0001a0 bb 16 11 3d a1 58 4f bd e2 c3 49 3e aa 60 ac 3c
       0.035422068 -0.050621632 0.1970363 0.021042187
0001b0 2c 8b 21 3e d8 d1 08 3d 07 dc 4a be 8a 92 72 bd
       0.15775746 0.033403248 -0.19810496 -0.05922178
0001c0 76 04 6d 3c be 37 ec bc 58 0b 23 3d 84 79 12 bd
       0.014466396 -0.028835174 0.03980574 -0.035760418
0001d0 89 d7 05 3e fd 15 ba 3d 71 3c c2 3d 9f f0 00 3e
       0.13070501 0.09086225 0.094841845 0.1259179
0001e0 00 a5 c4 bd 34 23 54 bd fd 05 07 bc 9a 5a ca bb
       -0.09601784 -0.051791385 -0.008241174 -0.0061753513
0001f0 37 32 9c 3d 79 9c 69 be 0b 21 46 3c 65 c0 25 be
       0.07626765 -0.22813596 0.012092839 -0.16186674
000200 3b 60 c6 3b 97 ee 4e bf c9 e1 a7 bd 35 1e bf 3e
       0.006053952 -0.8083281 -0.08197362 0.37327734
000210 30 ee 10 3d 2f d9 93 be 71 45 37 bb 40 49 1f 3e
       0.035383403 -0.28876635 -0.0027964974 0.15555286
000220 63 8b 65 3b e1 ed ac bd 51 02 38 bc 8f d3 9f 3d
       0.0035025708 -0.08443809 -0.011231021 0.078040235
000230 2c f5 27 3e 5a 0d bd bc 48 cc 1c 3e d1 0a 1f 3e
       0.1640212 -0.023077656 0.15312302 0.1553147
000240 f6 7c 6e 3d 30 cd ab bd 98 b7 aa 3e 4d 7e ad 3d
       0.05822464 -0.08388746 0.33343196 0.084713556
000250 f6 c3 ea 3d 66 83 12 3e 3c ef 52 be 48 86 80 3d
       0.11463158 0.14307937 -0.20599073 0.06275612
000260 b0 09 b9 3d 01 d7 ec 3d 37 d2 13 3e 5d 84 16 3e
       0.09035051 0.11564446 0.1443566 0.1469893
000270 9f 63 22 bd 1f 67 df 3d 45 a3 dd 3e 80 37 3a bd
       -0.039645787 0.10908341 0.43288627 -0.045463085
000280 81 92 06 bd b5 05 15 bd b9 bc 2c 3e 7d 59 a9 bd
       -0.03285456 -0.036382396 0.16868867 -0.08269022
000290 75 36 0a 3e 17 ec d4 3d 6d b8 86 3d 8b 6a 10 3e
       0.13497336 0.10396593 0.06578145 0.14103143
0002a0 8d d5 a7 be 7d 68 ea 3d 96 00 5f 3d 61 96 8b 3d
       -0.32780114 0.11445711 0.05444392 0.06815792
0002b0 50 bc 0b 3e 77 74 0e 3e 35 f9 43 bd 89 3e ee 3d
       0.13646054 0.13911615 -0.047845084 0.116330214
0002c0 60 ec ee bd 9e 16 bc 3c cd 2c 47 bd ed 9a 32 3e
       -0.11666179 0.022960003 -0.04862671 0.17441912
0002d0 8c 90 95 3d 9f f5 44 3e 2e 39 23 be 60 ee e4 be
       0.07302961 0.19234322 -0.15939781 -0.44713116
0002e0 1e 71 95 be b9 b4 4b be 33 2d 99 3e 2d 11 9a bb
       -0.29187864 -0.19893159 0.29917297 -0.0047017545
0002f0 cc 2c 6e 3e 2e 40 3a bc 81 e6 06 3e 3a 15 00 3c
       0.23259276 -0.011367841 0.13173868 0.007817561
000300 d8 f9 30 bd d3 d5 23 bd e8 98 3b bd d3 3d 48 bd
       -0.04320702 -0.03999884 -0.04580012 -0.048887085
000310 ff 3d a1 3c 05 3a c3 bd b9 d8 88 bd 21 eb a0 be
       0.019682882 -0.09532551 -0.066819616 -0.3142939
000320 73 2b 21 3e f8 c8 a2 bc d5 49 e6 3d 54 9f 21 3e
       0.15739231 -0.01987122 0.11244551 0.15783435
000330 2e 45 ce 3d bc 47 cb be 46 31 12 3e d3 be d1 3d
       0.10071789 -0.39703166 0.14276609 0.10241475
000340 93 43 6d 3e bc 7b 9d 3d b7 8e 7c 3d 3d 93 e4 3c
       0.23170309 0.07689616 0.06165954 0.02790224
000350 b6 48 a0 3c 38 57 3f bd 7c 9b e6 3d c5 40 1c 3e
       0.019565921 -0.046714038 0.11260125 0.15259083
000360 dd 77 3b be d7 62 ca 3b d6 16 e2 bd 40 12 09 3e
       -0.18307443 0.0061763334 -0.11039512 0.13385868
000370 dd e2 70 bd 44 4b 8f bd 8d fd ae 3d 83 31 a3 be
       -0.058810104 -0.06996778 0.08544455 -0.31873712
000380 a0 bc 00 bc ad fe b2 bd 99 15 67 bb ed 25 99 3d
       -0.007857472 -0.08739982 -0.0035260676 0.07477937
000390 2d 6f 31 3d 31 6e da be 1d 09 21 3e f3 3b 92 bc
       0.043318916 -0.42662194 0.15726133 -0.017850852
0003a0 51 89 fb 3c 13 73 90 3e 6f 37 52 bd c5 07 1f 3e
       0.030705126 0.28212795 -0.051322397 0.15530308
0003b0 53 09 85 3d ef 9f 19 3e 8c 6c c1 bc 8f 8c ae 3e
       0.06495919 0.15002416 -0.02361133 0.34091613
0003c0 e3 03 61 3c ce ed 94 3b ee b8 a6 3c 9e 6b ef 3c
       0.013733837 0.00454495 0.020351853 0.02922612
0003d0 f1 98 96 be b8 7c 96 3e 7e 80 9e bc c7 74 ed 3d
       -0.2941356 0.29392028 -0.01934838 0.11594539
0003e0 1a 3d 96 be d9 af 79 bc 7c cf 04 be cf 11 05 3d
       -0.29343492 -0.015239679 -0.12969774 0.032487687
0003f0 92 b8 76 bd 37 ae 26 ba 71 87 fe bc e4 48 c3 bd
       -0.060234614 -0.00063583575 -0.031070443 -0.09535387

fc.6.bias f4 [3]
000000 f0 1e 4a 3d 79 d8 73 3e 81 59 c6 3d
       0.04934591 0.23813047 0.0968504
