직선으로이동_장애물도도.pth (torch, 413440 bytes, 8 tensors)

fc.0.weight f4 [256, 13]
000000 89 56 a4 be 70 2a bd 3e 6a 5e d2 3d d3 14 ad bd
       -0.3209727 0.3694644 0.10271914 -0.084512375
000010 3a 41 e5 3e 6f 35 dd 3e 90 8f a3 bc ee e2 19 be
       0.44776326 0.4320483 -0.019965917 -0.15027973
000020 37 b6 f9 3e 67 f5 d5 bd dd b6 79 bc 42 a5 a4 3d
       0.4877183 -0.104471974 -0.015241352 0.08039333
000030 81 bf 75 be 24 8f 69 3e f5 31 a2 be b6 cb 72 3e
       -0.23998834 0.2280851 -0.3167874 0.23710522
000040 2c 29 2b 3e 7a 23 d6 bd d4 7f 3b be 5c cc 60 be
       0.16714925 -0.10455985 -0.18310481 -0.21952957
000050 dc fa 4b be fd 50 a4 3e 55 23 08 be c7 36 f5 bd
       -0.19919914 0.3209304 -0.13294728 -0.119733386
000060 33 98 3d be cd a7 bd 3d cd f6 8c 3e fa ed a6 3d
       -0.1851509 0.09260521 0.27532044 0.08150859
000070 eb 26 7d be 49 ba 31 3f ea 05 09 3e 5c 00 9d 3e
       -0.24721877 0.69424874 0.13381162 0.30664337
000080 00 4f 70 be a7 0a 9f be b3 4d ed 3e 0b ac 0d 3e
       -0.23467636 -0.31062815 0.46348342 0.1383516
000090 9e 9b ba be 97 31 b5 be cf 97 ba 3d 3e bc 1d 3e
       -0.36446851 -0.35389397 0.091109864 0.1540384
0000a0 a7 9e 9c be 1d 97 dd be f9 fc 24 3e 18 be b6 bc
       -0.30589792 -0.43279353 0.16112126 -0.02230744
0000b0 8f 0e 2c be 9b 2d 20 be 26 4a dc be 1f 8d 7e 3e
       -0.16802429 -0.15642397 -0.4302532 0.24858521
0000c0 91 63 80 3e a3 d6 49 bd cd a0 4b bd 59 8c 69 3e
       0.25075963 -0.04927696 -0.0497139 0.22807445
0000d0 40 cd 0c be 2c fe 85 3e f9 4f 10 3e db f9 5d be
       -0.13750172 0.2617048 0.14093007 -0.21677344
0000e0 a5 9d db be 49 ac 62 be 6c 9c 2e 3e 16 47 b6 3e
       -0.4289371 -0.22136034 0.17051858 0.3560111
0000f0 e5 0f 5f bd 0f 56 c2 bc fe 97 68 3e b3 41 5b 3d
       -0.054458518 -0.023722677 0.2271423 0.053529453
000100 b4 29 69 bd 32 20 85 be 50 25 88 be a2 39 d2 bd
       -0.056924537 -0.26001126 -0.26590967 -0.10264899
000110 ae 07 36 be 1d a9 07 bd 2f 9f 7b 3e c1 2f 89 3e
       -0.17776367 -0.033120263 0.24572442 0.26794246
000120 87 aa 46 be b4 65 3a bd 3e bf 69 3e aa bd d9 3d
       -0.19400989 -0.045507148 0.2282686 0.10631879
000130 7a 99 52 3e c1 62 59 be 9f c0 44 3e 6e 3f 7f 3e
       0.20566359 -0.21229078 0.19214104 0.2492654
000140 a8 19 9d 3e ac 92 cf 3b 6e 69 fb 3e ac 18 c7 3d
       0.30683637 0.0063346233 0.49103874 0.09721503
000150 70 f8 b5 bc b6 3f 74 be 87 f0 80 3e 2a 95 27 be
       -0.02221319 -0.23852429 0.25183508 -0.16365495
000160 c9 03 38 3d 2f 40 bb be 6e 80 54 bc 28 98 fc bd
       0.044925485 -0.36572406 -0.012970073 -0.12333709
000170 7e 4b cf bd d6 27 0f be fe 6f 6e 3e 8e 7d 1c be
       -0.10121821 -0.1398004 0.23284909 -0.1528227
000180 6c bd 24 3e 0e ea 6d 3e 1c 65 08 3e 96 77 49 3e
       0.16087884 0.23233816 0.1331982 0.19674525
000190 96 79 a8 bd 80 c6 3f bd da 5b 1c be a6 88 ab bd
       -0.08226316 -0.046820164 -0.15269414 -0.08375673
0001a0 88 93 10 bd bc 18 31 3e 7d 24 49 be 08 57 6b 3e
       -0.035296947 0.17294592 -0.19642825 0.22982419
0001b0 34 35 c0 3d af c2 0c bf e1 54 81 be 2e 93 e1 3d
       0.09385148 -0.54984564 -0.2526007 0.110144004
0001c0 f2 8d 9a 3e 5f ac 16 3e 3c 7e 11 3e 00 1e de 3d
       0.3018642 0.14714192 0.14208311 0.10845566
0001d0 4f 75 0b bc a4 ae 21 be 12 dd 41 be ef fc 14 be
       -0.008511855 -0.15789276 -0.18931988 -0.14549612
0001e0 d2 28 4a 3e 54 3b f1 3d c0 f3 9d 3d 70 32 68 bd
       0.19742134 0.11778894 0.07712507 -0.056688726
0001f0 e0 c5 fb 3c 7a cb aa bd e8 cb e7 3d 26 83 36 3e
       0.030734003 -0.08339591 0.11318189 0.17823467
000200 ae 12 9b be ff 60 87 bd f6 e0 a1 3e fc 71 19 bc
       -0.3028769 -0.066102974 0.31616944 -0.009365555
000210 72 89 88 be b6 ea a8 bb 72 d0 e4 3e e4 3a 60 bd
       -0.26667362 -0.005154933 0.4469028 -0.054743662
000220 52 ce 46 3e 11 4b 2e 3f b0 6d 82 3e 30 74 d3 bd
       0.19414642 0.6808329 0.2547431 -0.103248954
000230 00 dc b0 be ca ad 8d be 1d 94 8f bd 2e 05 33 3e
       -0.34542847 -0.27671653 -0.07010672 0.17482445
000240 93 59 da 3e 7d 72 80 be d3 14 9b 3d ad 15 28 3e
       0.42646465 -0.25087348 0.07572331 0.16414519
000250 e7 89 83 3e 9f 27 8c 3e bf c5 3e be 25 1b b2 be
       0.2569115 0.27373978 -0.18630122 -0.34786335
000260 79 c8 a5 3e bf 03 d8 bd bd a2 d3 3b 76 85 b8 bd
       0.3237951 -0.105475895 0.006458609 -0.09009831
000270 1b aa 08 3e 5a 23 23 be b3 b4 a8 3e 66 d0 5a be
       0.1334614 -0.15931454 0.32950363 -0.2136856
000280 a9 e3 9c 3e 5a bc 58 3e 2a 10 31 3e 27 18 e7 be
       0.3064244 0.211656 0.17291322 -0.45135614
000290 3b d6 a0 3e 20 69 9b be d8 c3 58 be b9 b4 6a bd
       0.31413445 -0.30353642 -0.21168458 -0.057301257
0002a0 a0 1b 43 3e cb d8 6d 3e 22 dc 43 be 64 60 b2 be
       0.19053507 0.23227231 -0.19126943 -0.34839165
0002b0 68 2b a8 bc 58 8c 10 be 30 cf 25 bf 80 fc 10 3b
       -0.02052851 -0.14116037 -0.6476927 0.0022123158
0002c0 91 1b 94 be 28 5e 2d bb fe 6b ca bd e2 4c ce 3d
       -0.28927281 -0.0026453827 -0.09883879 0.10073258
0002d0 65 ca f2 3d 77 35 99 be 87 a8 8f be 73 f7 04 3e
       0.1185501 -0.29923603 -0.28058264 0.1298502
0002e0 2d 8d 40 3e 6c a2 43 be 49 19 e0 be 5d 7c 0e bd
       0.18803854 -0.19104928 -0.4376929 -0.03478657
0002f0 80 1d 25 3e 73 7b 7f 3e 6e e8 b4 3e ff 12 cf 3d
       0.16124535 0.24949436 0.3533358 0.10111045
000300 68 fe 43 3e 2d fe d1 3d 72 35 26 3e 59 97 8b 3e
       0.19140017 0.10253558 0.16231325 0.27263907
000310 6a 8e a7 3e 0d 74 bc bd 16 fa 42 be 67 84 07 be
       0.3272584 -0.092018224 -0.19040713 -0.13234101
000320 16 f6 79 3e e0 57 57 be d5 ca ce 3b ce c9 0e be
       0.2441028 -0.21029615 0.0063108006 -0.1394417
000330 a1 ff b2 be 93 a1 36 3e cd a2 06 be 66 6d 9f be
       -0.34960654 0.17835073 -0.13148041 -0.31138152
000340 e6 1a ee bd a7 1a a3 3e 3e 59 6e 3e cb 91 d9 bd
       -0.11626224 0.31856272 0.2327623 -0.10623511
000350 ed 61 eb 3e e3 86 b6 3d d8 ce d1 3d 53 31 d4 bc
       0.4597315 0.08912446 0.102445304 -0.025902426
000360 28 a1 cc 3e e1 6b 21 be 3b a9 97 3e 0c 8d 83 bc
       0.39966702 -0.15763809 0.296213 -0.016058467
000370 44 27 b8 be 43 20 f6 3d 7e 3e 9c bd cb 45 73 be
       -0.35967457 0.12017872 -0.07629107 -0.23757093
000380 d1 ea 2a 3e ba 66 01 be 57 55 ce 3d 20 0b c6 bc
       0.16691138 -0.12636843 0.10074871 -0.024175227
000390 8f 18 00 bf 34 29 a4 3d ef 43 d7 3c 71 2f 9a 3d
       -0.50037473 0.08015671 0.02627751 0.0752858
0003a0 84 fc 06 be 03 c9 a4 3d b9 3e ae 3d ec 20 03 bd
       -0.13182265 0.080461524 0.08508057 -0.03201382
0003b0 9d a4 b8 3e 2e ad ba 3c 4e 23 47 3d f6 76 31 3b
       0.3606309 0.022787657 0.048617654 0.0027078963
0003c0 1e 1b 6f 3e 62 77 19 3d 54 8d 0c 3c b9 b0 3f 3f
       0.23350188 0.037467368 0.008578617 0.7487903
0003d0 40 c5 53 3e 6e 4a 4d 3d be f0 a1 be fa 0c 6f 3e
       0.20680714 0.05011981 -0.31628984 0.23344794
0003e0 09 71 60 3e e9 ba f6 be 6e 11 8c be 0c 8d ac be
       0.2191812 -0.48189476 -0.27357048 -0.3370136
0003f0 18 b6 73 3e 00 8a b0 3b 86 7c db bc 0e 4a 97 3e
       0.23799932 0.0053875446 -0.026792776 0.29548687

fc.0.bias f4 [256]
000000 3d c4 0c 3e c1 e2 27 be 2f 26 76 be e5 c8 0f 3d
       0.13746734 -0.16395094 -0.24038003 0.035103697
000010 7b 0c cc bd 98 77 84 3d 32 3b 73 bc 0a 79 4a be
       -0.09963318 0.06468123 -0.014845656 -0.19772735
000020 07 1e 5b 3e 5a fe 3f be 60 89 c0 3e 21 14 40 be
       0.21398173 -0.18749371 0.3760481 -0.18757679
000030 92 d7 8c 3e 7f ea a5 3e fa d2 82 bd 8b ef 98 bd
       0.27508217 0.3240547 -0.06387897 -0.07467564
000040 f8 f4 df 3c 3c 99 3b be 92 ea 70 bc bb e9 a0 be
       0.02733849 -0.18320173 -0.014704363 -0.31428322
000050 1c 0b 62 3d 89 05 2b be 76 ad 5c 3e 9a 32 cc 3d
       0.055186376 -0.1670133 0.21550545 0.09970589
000060 8a 93 f9 bc 26 27 8a bd 22 14 55 3c dc 11 ae 3e
       -0.03046586 -0.06745748 0.013005288 0.33998
000070 12 24 b5 3d 71 88 18 3e 97 7a 6c be 5a 9c 37 3e
       0.088447705 0.14895798 -0.2309364 0.17930737
000080 f3 38 0e 3e e0 91 92 be b6 31 2b 3e 5b 50 50 be
       0.13888912 -0.2862692 0.16718182 -0.20343153
000090 9a 48 90 bd 1f 8a 3e be 21 8b 95 be 4e 55 99 bd
       -0.07045098 -0.18607377 -0.2920771 -0.07486974
0000a0 80 a6 14 be 58 d1 1e 3e 6a ae aa 3d 77 44 34 be
       -0.1451664 0.15509546 0.08334048 -0.17604242
0000b0 64 6b 4e be 95 e6 14 3e 36 a1 62 be a5 b1 44 be
       -0.20158154 0.14541085 -0.2213181 -0.19208391
0000c0 ff c8 25 be 9c ec ee bd 5f b2 62 3c 4f 69 b1 3e
       -0.16189955 -0.116662234 0.013836472 0.34650657
0000d0 47 74 75 3e 8c 0c 20 3d 6f cd 8e 3e 12 b4 3a be
       0.23970138 0.039074466 0.27891108 -0.18232754
0000e0 58 a8 56 3c 01 bc 28 3d 07 f8 18 be f2 70 bd bd
       0.01310166 0.04119492 -0.14938365 -0.09250058
0000f0 1c d4 3b 3e 05 62 f1 bb 4d f7 c5 be d1 19 05 3e
       0.18342632 -0.007366421 -0.38665238 0.1299813
000100 a8 1e 82 be 2c c6 92 bd 5e 03 99 be 5e 02 87 3e
       -0.25414014 -0.071667045 -0.2988538 0.26368994
000110 3d ac d4 bd 1d 0f 8f 3e 6f 5e 1b be ce b8 fd b8
       -0.10384414 0.27941218 -0.15172742 -0.00012098403
000120 da 0f 33 3e bd b4 31 be 6b 86 58 3e 80 c9 57 bb
       0.17486516 -0.17354102 0.21145026 -0.00329265
000130 f6 43 4d 3e 81 02 6a 3e 10 9b 36 be 76 91 4e 3d
       0.20045456 0.22852518 -0.17832589 0.05043169
000140 ff 49 80 be 17 f4 92 3e 94 f4 5c 3c 96 cc 2d 3e
       -0.25056455 0.2870185 0.013486046 0.16972575
000150 7d 66 eb bd 8c dc a5 be cc 25 7f 3e 58 8f 82 bd
       -0.114941575 -0.32394826 0.24916762 -0.06374997
000160 1e 26 39 bd 4a 50 94 3d a6 67 73 be c7 68 a2 3e
       -0.045202367 0.072418764 -0.23770007 0.31720564
000170 88 6c 83 3e 48 a5 23 3e 4d 3f 64 be 63 e8 23 3c
       0.2566874 0.15981019 -0.22289772 0.010004136
000180 f9 f5 1b be a4 66 e6 3d 8f 29 3a bc 35 7d e2 3e
       -0.1523055 0.11250046 -0.011362447 0.4423615
000190 f7 bd cb 3d fa 80 8e 3e db d7 87 3e 45 c8 55 3e
       0.09948342 0.27832776 0.26531872 0.20877178
0001a0 8c 57 86 be 4c 74 a6 3e 86 00 52 3d bd ca f6 3d
       -0.26238668 0.32510602 0.05127003 0.12050388
0001b0 2a 92 e5 3d 67 fd 03 be 11 d6 0c be ea 74 24 be
       0.11209519 -0.12889634 -0.13753535 -0.16060224
0001c0 e1 9f 68 3e 44 5b 54 3d e1 81 46 be 28 06 06 3e
       0.22717239 0.05184485 -0.19385482 0.13088286
0001d0 a7 53 32 3e 94 05 ce bd b5 d0 27 be 2d 13 5c be
       0.17414723 -0.10059658 -0.16388209 -0.2149169
0001e0 55 14 8f 3e 48 60 3b 3d fc 3b 13 3e ea 01 df bd
       0.279452 0.045746118 0.14378351 -0.10889037
0001f0 26 5a 40 be ec bd 2a be be e1 86 3e 17 29 b0 bd
       -0.18784389 -0.16674012 0.26344103 -0.08601587
000200 97 d0 61 be db 6f 0f 3e 0f 73 4d bc e1 66 8c be
       -0.22052227 0.14007513 -0.012539639 -0.2742224
000210 46 7d 1d 3e 12 ce 4a 3e ec 31 50 3e 04 fd 9f 3c
       0.1537982 0.19805172 0.20331544 0.019529827
000220 14 50 ad 3d 83 63 a7 be 19 93 ce 3e 19 6d 09 3e
       0.08462539 -0.3269311 0.40346602 0.13420524
000230 16 41 62 bd 52 dc 4d bd cf e1 27 3e 67 57 f0 3d
       -0.055237852 -0.050258942 0.16394733 0.11735421
000240 42 61 7b 3b 04 88 f9 3d cd 8b 17 be ff 42 1e 3d
       0.003835753 0.12184146 -0.14799424 0.03863811
000250 8e 8d 89 be 61 a9 e0 3d 65 68 ef 3d 3b ff 78 be
       -0.2686581 0.109698065 0.116898336 -0.24316113
000260 49 6f 0a 3e 2e 68 f5 3c 76 e4 19 3e 6d 4b 53 3c
       0.13519014 0.029956903 0.15028557 0.012896401
000270 0d 2a ff bd a9 29 95 be 87 cc c2 3e 69 0e 09 3e
       -0.124591924 -0.29133347 0.38046667 0.13384403
000280 42 a3 55 bc 94 fa 7f 3e a3 d4 8c be f2 b8 e9 bc
       -0.013039412 0.24997932 -0.2750598 -0.028530572
000290 4d 3f 72 be 25 3a 84 be 52 23 a0 3e fa 9c bc be
       -0.2365696 -0.2582561 0.31276947 -0.36838514
0002a0 bf 04 73 be 89 69 12 3e 36 12 8d 3e 7b 9a 4c 3c
       -0.23732279 0.14298071 0.27552956 0.012488003
0002b0 38 07 d1 bd 91 47 a4 be 31 54 18 be f7 c2 af be
       -0.10206455 -0.3208585 -0.14875866 -0.34328434
0002c0 ee f6 35 be 64 13 ac 3e 17 d0 e2 bd d9 fe 31 3d
       -0.17769977 0.33608544 -0.11074846 0.043455932
0002d0 23 2b b3 bd 09 91 17 3e 94 9b 5e 3e 1a c8 3c 3c
       -0.08748462 0.1480142 0.21739036 0.011522317
0002e0 48 9b 85 be 60 3a 8f 3d 00 ae 5a be 5b cb 9d bd
       -0.26095033 0.06993556 -0.21355438 -0.077048026
0002f0 96 9c 37 3e e5 df b0 3e 65 b8 67 3e 3b 60 a7 be
       0.17930827 0.34545818 0.22628935 -0.32690606
000300 2f 54 6b bb 16 8e 21 be 27 ed ec bc bf 2e 8d 3e
       -0.0035908332 -0.15776858 -0.028921677 0.27574727
000310 90 30 c6 3e 52 7f bf 3e dd e6 36 3c 9d b9 3f 3e
       0.38708925 0.37401825 0.0111634405 0.1872315
000320 37 6c d3 bc e7 2d 39 bd c7 86 ae 3c ec 75 f5 3e
       -0.025808437 -0.04520979 0.021304501 0.4794153
000330 79 a2 9a bd c0 26 b0 bd 53 db 05 be a2 e2 10 3e
       -0.075505204 -0.08601141 -0.13071947 0.14148954
000340 27 62 88 3e ec 46 55 bd f5 90 06 3d 3c 01 d9 bd
       0.26637384 -0.05206959 0.032853086 -0.105959386
000350 65 65 51 3d 5c b7 51 bd 88 45 3a 3e 7d f9 19 bd
       0.051122088 -0.051200256 0.18190587 -0.037591446
000360 05 c0 a9 bd e2 d3 8f bd 1e 8a f2 3b 18 de 28 be
       -0.08288578 -0.07022835 0.0074017188 -0.16490972
000370 fd 30 a7 3e 3a 65 6f be 0e 48 14 3e 50 b7 11 be
       0.32654563 -0.23378459 0.14480612 -0.14230084
000380 2f 17 4f 3e 45 15 01 3e d4 39 c1 bd e1 4c 83 3e
       0.20223688 0.1260577 -0.09434858 0.2564459
000390 a8 88 74 3c 35 0a a0 3d 5d 9b b2 3e 26 7b 8e bd
       0.0149251595 0.07814447 0.34884158 -0.069570825
0003a0 8a ff cf bb a3 8b 93 3e 76 48 8f be cb 09 77 be
       -0.0063476013 0.28817472 -0.2798497 -0.2412483
0003b0 04 35 08 3e df 1d 52 be 19 7c 3a be c9 e0 29 3e
       0.13301474 -0.20519207 -0.18211402 0.16589655
0003c0 45 9c 5c 3e 85 f7 85 be c2 9e ed bd 97 b1 86 be
       0.21543987 -0.26165405 -0.11602546 -0.26307365
0003d0 3e bf 61 3e 08 72 1b be b8 02 2b 3e bb 3e 13 bc
       0.2204561 -0.15180218 0.16700256 -0.008987124
0003e0 6d 31 a6 bd ba 71 bf 3d 17 47 e7 3d e4 07 c8 3c
       -0.08114896 0.093478635 0.11292856 0.024417825
0003f0 23 40 61 be db b0 99 3d 25 cf 62 3d bf 48 52 3e
       -0.21997122 0.07504436 0.05537333 0.20535563

fc.2.weight f4 [256, 256]
000000 f0 70 5d bd d0 cb 3e bc b8 ab 6f 3c c8 fc a5 3d
       -0.054062784 -0.011645272 0.014628343 0.08104855
000010 6c a6 4f bd 32 af 0f bb e0 71 1e 3d 50 41 a5 bc
       -0.05069582 -0.0021924493 0.03868282 -0.020172745
000020 f2 b4 a0 3d 80 6e a5 3c 51 d7 88 3d 69 27 60 bd
       0.078470126 0.020194292 0.06681693 -0.054725084
000030 31 d2 7d bd b6 3d c8 3b fd 87 22 3d 92 8a 62 bc
       -0.061968032 0.006110872 0.03968047 -0.013826983
000040 dd e9 a7 bd c4 df 90 3d 81 ec 7c bc 14 cd f3 bc
       -0.08198903 0.0707393 -0.015437246 -0.029760875
000050 af 52 80 3e 8c 4c 9c bb 5b 7f 15 bd 04 8b fb 3d
       0.25063083 -0.0047698673 -0.03649841 0.122823745
000060 c0 01 15 3d e5 64 e0 3c 4f 0b c8 b8 85 56 f3 3c
       0.036378622 0.02739186 -9.5388496e-05 0.029704342
000070 9b 3b dd bc b8 56 fb bc c4 9e 39 3d 69 ee b1 3e
       -0.027005961 -0.030681 0.045317426 0.34752205
000080 29 56 01 bc f3 35 1b 3c 7e 30 bd 3b f0 07 b6 3d
       -0.007894077 0.009473312 0.005773603 0.08888233
000090 8c fd e2 3c 46 43 40 3d 2a 74 09 be d6 39 59 bc
       0.027708791 0.046939157 -0.1342322 -0.013258418
0000a0 94 32 9f bc 80 e9 75 3b 10 69 8d 3d 59 c6 4c bd
       -0.019433297 0.003752321 0.06904805 -0.049993847
0000b0 ef 8b 42 bc 45 84 14 ba 74 29 62 bd 47 a5 ca bb
       -0.011874183 -0.00056654616 -0.055215314 -0.0061842534
0000c0 f8 bd 7b bd 98 4b ab 3d 91 08 39 3d 96 42 41 3d
       -0.061460465 0.08364028 0.045174185 0.047182642
0000d0 26 f5 13 3d 05 52 c1 bc 52 28 04 bd c2 39 61 3b
       0.036122464 -0.02359868 -0.032265015 0.0034366702
0000e0 6f 66 62 bd 75 c9 60 bd 21 08 e1 bb 70 27 59 be
       -0.05527347 -0.054879624 -0.006867424 -0.2120645
0000f0 87 17 eb bc 86 43 0d 3e 1c c2 2d bd 06 e7 0f 3d
       -0.028697742 0.1379529 -0.042421445 0.03513243
000100 7e 74 2b 3c 2f dc 7b 3d 57 66 8b bd f7 55 bb 3b
       0.010464786 0.06148928 -0.06806629 0.005717035
000110 e7 34 89 3d a5 ab d8 3c 29 9d b6 3c 28 6b e5 bc
       0.066995434 0.026449034 0.022291737 -0.028005198
000120 b8 e7 82 3d 0e 1c 8c be 29 da 19 bd f8 40 9b bc
       0.06391853 -0.27365154 -0.03756157 -0.018951878
000130 48 f1 80 3c 98 b1 b9 3c 2b 2a dc 3d 19 6d 00 3e
       0.015740052 0.022667691 0.107502304 0.12541617
000140 27 0e be 3c eb 1a ff 3c 5b 81 d6 bc 74 ab 13 3c
       0.023200108 0.031140765 -0.026184728 0.009013046
000150 81 40 20 3c e5 92 fa bc 8a 1f 4c 3d 38 48 57 3d
       0.009781004 -0.030587623 0.049834765 0.052559108
000160 b6 d0 12 bc 91 94 6d 3d 60 5d 45 3d 73 d5 53 3c
       -0.008960893 0.058003012 0.048184752 0.012929308
000170 b6 10 4b 3c f2 54 a1 3c b4 47 2b be 2d 27 60 3b
       0.012394121 0.019693825 -0.16726571 0.0034203038
000180 6d fa df 3c ab c7 58 3c b7 5b 7e 3d d8 07 2e 3d
       0.027341092 0.013231198 0.062099185 0.04248795
000190 c9 8e 48 bc 0e 50 76 3c 1a b7 80 be 2f 69 3f 3d
       -0.012241074 0.015033735 -0.25139695 0.04673117
0001a0 5d 41 80 3b c0 e2 24 3c e3 3d a5 bd 76 f5 a4 3b
       0.003914042 0.010063827 -0.080684446 0.005034144
0001b0 28 fd 89 3d e3 ed b4 bc 9a 26 f1 3b 0c bf a1 bc
       0.06737739 -0.02208609 0.007359338 -0.019744419
0001c0 13 b8 80 3d b2 8f 06 be 80 d7 1a bd 74 61 b7 bd
       0.06285109 -0.13140753 -0.037803173 -0.089541346
0001d0 c4 ab 06 bd 9f d1 77 bd 0f 05 81 bb 6f 59 cf bc
       -0.032878652 -0.060502645 -0.0039373706 -0.0253112
0001e0 08 24 8c 3d a4 98 75 bd 25 7a 4c 3d 1c 24 9e 3c
       0.0684281 -0.059960023 0.049921174 0.019304328
0001f0 26 7a 1f bc e0 aa 60 bc 82 38 2e bd 5d 8a 61 be
       -0.009733712 -0.013712615 -0.04253436 -0.22025438
000200 f9 f0 72 bc 3e 96 2b 3d 48 68 0f be 08 dd 26 be
       -0.01482796 0.04189133 -0.14004624 -0.16295254
000210 f9 f3 98 3d ee c3 d3 3c a8 6b 92 3d 97 a8 75 3d
       0.07468409 0.025850262 0.0714944 0.059975233
000220 66 a0 27 bd a5 c5 0d 3d 4a 6a 2d 3d 3e 1f f3 bd
       -0.040924452 0.034612317 0.042337693 -0.11871193
000230 91 f9 88 3d 36 c9 77 be 6b 1d 5a bc 42 6b 45 3d
       0.06688226 -0.2419785 -0.013312678 0.048197992
000240 d5 10 8d bd 06 0e 6b be 71 71 2f bd 72 ec 21 bd
       -0.06887976 -0.22954568 -0.042832796 -0.039532132
000250 77 c0 25 3d 0a 79 61 3b 38 4c 37 3d 26 51 48 3d
       0.040466752 0.003440442 0.044750422 0.048905514
000260 18 73 61 bc 3f 25 8e 3d 68 f8 fc 3c 0b 78 61 3b
       -0.013760351 0.06940698 0.030880168 0.0034403827
000270 31 fa a8 bd 3e 79 59 bc fc ad a5 3d 12 a8 a8 3c
       -0.08250845 -0.013273535 0.080898255 0.020587955
000280 0e 18 f7 bc 70 28 16 bd fb e7 d2 bc 0a bc e4 3c
       -0.030162837 -0.036659658 -0.025745383 0.027921695
000290 4f 65 ca bc 95 37 76 bd 7b fe 94 3d 35 5c 85 3c
       -0.02470651 -0.0601116 0.07275101 0.01627932
0002a0 19 c7 97 bd 13 26 e7 3d 30 68 83 bc b1 56 8b 3c
       -0.07411022 0.11286559 -0.016040891 0.017009111
0002b0 fb be 9c 3d 48 e7 c5 bc e0 ff 8c 3d 4b 17 34 bd
       0.07653614 -0.024158135 0.06884742 -0.043967526
0002c0 e1 0e 84 bd 2e d2 c2 3d e3 87 e1 bc 67 37 15 3d
       -0.064481504 0.09512745 -0.027530616 0.03642979
0002d0 89 42 08 3d a4 90 06 be b3 1e e6 3c 0a 27 cd 3c
       0.033266578 -0.13141114 0.02809081 0.02504303
0002e0 c0 2d 89 3a 03 d8 15 bd dc 66 0e be f4 e0 80 3d
       0.0010465905 -0.036582958 -0.13906425 0.062929064
0002f0 57 d3 8c 3d b9 a3 5c 3d 9c 88 30 3d d0 50 2f 3d
       0.068762474 0.053867076 0.04309903 0.04280168
000300 02 21 80 3d 3b 9f b6 bc 37 b9 89 3c 9c 8f ac bb
       0.06256296 -0.022292724 0.01681195 -0.005266143
000310 25 10 3b 3d 17 ef fe 3d e9 2b bc bc 5a ad 3a 3d
       0.045669693 0.124479465 -0.022970157 0.045575477
000320 e8 77 f2 bc c8 af d0 bd 7f 82 bf 3d ad f0 e4 3b
       -0.029598191 -0.101897776 0.09351062 0.0069866986
000330 dd fe 2a bd 67 5f ce bc b9 0e 26 3d 02 69 b9 bc
       -0.041746963 -0.025191976 0.040541384 -0.02263308
000340 71 71 75 3d 0f 27 e8 bc 37 b9 7b 3d c5 43 cd bc
       0.05992264 -0.028338937 0.06145593 -0.02505673
000350 27 d6 33 3d 9e 57 cb 3d cb d8 99 3d 0c c1 73 3d
       0.043905403 0.09928821 0.07512053 0.059510276
000360 18 ed 72 bb 10 cf 37 3c 92 53 90 bb e7 6c 41 3d
       -0.0037067588 0.011218801 -0.0044044936 0.047222998
000370 7a 54 88 3d 5a b3 80 be a8 53 d1 bc d2 21 aa bb
       0.066567376 -0.25136834 -0.025552586 -0.00519202
000380 5e 76 16 bc a3 0d e5 bd 05 5a a6 3d 58 b3 a9 3b
       -0.009183494 -0.111842416 0.081226386 0.00517885
000390 77 dc 2e bc 04 49 76 3d e6 8e 61 3d 17 d8 48 bb
       -0.01067268 0.060128227 0.05506792 -0.0030646378
0003a0 91 c0 96 3d 06 c7 46 bd 7f dd 4e 3d a1 57 85 bd
       0.07360948 -0.048529647 0.050504204 -0.065108545
0003b0 85 9a 74 3d 46 a2 75 bc 87 c1 9e 39 8d cb 30 bd
       0.059717674 -0.014992302 0.00030280298 -0.04316287
0003c0 52 94 9e 3d 16 82 62 3d 67 15 4e 3d 67 d6 b8 3b
       0.077431336 0.05529984 0.05031338 0.005640793
0003d0 d0 7e 51 bd c7 83 67 be ff 4e 2e bd 02 88 9d bc
       -0.05114633 -0.22608863 -0.042555805 -0.019229893
0003e0 29 f2 28 bd 73 fc 98 bb 0a 02 59 3d 37 a2 ce be
       -0.041246567 -0.004668766 0.05298046 -0.40358135
0003f0 73 1e 17 3d 93 cf 95 3d 42 59 3e bd e0 4d d5 3d
       0.036894273 0.07314982 -0.04647184 0.10415244

fc.2.bias f4 [256]
000000 2f 6c 2f 3e 55 0e 20 bd c3 87 29 bc 72 53 b8 3d
       0.17131113 -0.039076168 -0.0103473095 0.09000291
000010 cf 44 6e 3d 44 42 f3 bd 4c 3c 0f 3e 89 f0 05 3e
       0.05817109 -0.118778735 0.13987845 0.13080038
000020 7e 2b 77 3d 8a d3 12 3d af 1f 5b bd e0 e1 13 bd
       0.06034421 0.03584627 -0.053497013 -0.036104083
000030 88 52 8d 3d 76 00 74 3e c3 e3 8b bd 95 c0 98 3d
       0.06900507 0.23828301 -0.068305515 0.07458607
000040 24 89 18 3d 40 b5 cb ba ea 65 ba 3c bc 28 24 bd
       0.037240162 -0.0015541688 0.022753675 -0.04007791
000050 18 13 14 bb 62 60 fb bb ab 6c 42 bd ee 2a e8 bc
       -0.0022594389 -0.007671402 -0.047466915 -0.028340783
000060 34 0f 36 bd a6 ff e6 bc 10 51 45 bc 47 05 7d 3d
       -0.044448093 -0.028198075 -0.012043253 0.06177261
000070 6a 4e dd bc ca f6 9a 3d f6 1c 2c 3d 7e 57 81 3e
       -0.02701493 0.075666025 0.042019807 0.25262064
000080 8f 3f 7d bd 2a 18 5f 3e 45 3f 1f 3e 06 f2 55 bd
       -0.061828192 0.21786562 0.15551479 -0.052232765
000090 30 c6 cb 3d a7 23 9e bc f3 6f 74 3d 0a 11 1f 3d
       0.09949911 -0.01930411 0.059677076 0.03883461
0000a0 64 a3 5a ba 3c b4 0d 3d 51 ba 23 3c 7b 53 30 3e
       -0.0008340387 0.034595713 0.009993152 0.17219345
0000b0 d9 70 aa 3d 89 6d a8 3d f9 3e 23 be f3 2a 44 3e
       0.08322305 0.08224017 -0.15941991 0.19157009
0000c0 35 d4 62 3c 88 cb 14 3e 1f 64 96 3d a7 52 2e bd
       0.013844539 0.14530766 0.07343315 -0.042559292
0000d0 ed 75 d7 3d 93 d9 d3 bc eb e2 16 3d fd cc fe 3d
       0.105205394 -0.025860583 0.0368375 0.12441442
0000e0 9f 38 0b bd 48 22 6d bd 97 f4 ba bd 4a 2d 0e 3e
       -0.033989545 -0.05789402 -0.09128683 0.13884464
0000f0 22 2e 0b 3d 48 57 ec 3c 24 5f ad 3c e8 47 c8 bd
       0.033979543 0.028850213 0.02116353 -0.0977934
000100 94 5c 50 3d be 21 33 bd 52 10 38 3d 23 24 bd bd
       0.05086954 -0.04373335 0.04493744 -0.09235408
000110 97 fb b3 bc f9 23 c8 3d f9 71 0a 3e 23 0b 69 3d
       -0.021970553 0.09772486 0.1352004 0.056895386
000120 91 2a 2b 3e f8 8d 77 bd e8 01 75 3d 5e 53 b0 bd
       0.16715457 -0.060438126 0.05981627 -0.08609651
000130 c6 5a b8 bb f3 b3 16 3e 58 25 d1 3c 8c 73 78 3d
       -0.0056260554 0.14717083 0.025530502 0.06065707
000140 70 48 34 3c 97 98 37 3d e3 9e 90 3e 2f 46 51 bc
       0.011003599 0.044823255 0.2824622 -0.012773081
000150 3c 62 0e 3d 22 da 7e bd 06 bf 0f 3d 90 95 a0 bd
       0.034761652 -0.062219746 0.035094284 -0.07841027
000160 a8 01 89 bd 1e c0 b2 3d 00 ab ec b9 14 4c c2 3d
       -0.06689769 0.0872805 -0.00045140833 0.09487167
000170 d8 62 1e 3d 2c ba f4 3d e9 0f 21 3e 79 6d 54 bd
       0.038668483 0.11949572 0.15728725 -0.051862214
000180 bf 54 53 3e cd fc b6 3d 3d 54 36 3c 39 f6 0e bd
       0.20637797 0.08934937 0.011128482 -0.034902785
000190 53 1f e9 bc 87 45 a6 bd 48 46 d1 bd a4 18 81 3d
       -0.02845732 -0.0811873 -0.10218483 0.06303528
0001a0 80 81 0c 3c 40 1f a8 bd 7c a5 60 3d 2f 5e 8a 3d
       0.008575797 -0.082090855 0.05484532 0.06756245
0001b0 44 b4 5e 3a a2 a3 23 3d 20 c1 76 bd 74 44 82 3c
       0.00084954896 0.039950974 -0.060242772 0.015901782
0001c0 28 c8 b4 bd 10 76 d2 bb ea 0d f2 bc 6c 8c 5e 3d
       -0.08827239 -0.0064227656 -0.02954765 0.054333135
0001d0 50 6f f1 3b a8 b7 ad bd 6e 51 30 3e 8c 5b 86 3d
       0.007368006 -0.08482295 0.17218563 0.0656043
0001e0 93 47 39 3d 67 52 bc 3d 21 94 1a bd 82 8f f7 bc
       0.045234274 0.091954045 -0.037738923 -0.030219797
0001f0 0f a0 9c bb 50 2b f6 3d 32 cb b0 3d 53 83 9a 3d
       -0.0047798227 0.1201998 0.086325064 0.07544579
000200 65 c7 32 3d 01 03 31 bd 7f 5f dc 3d 88 08 04 3e
       0.04364719 -0.043215755 0.10760402 0.1289388
000210 b4 28 83 bd 5d 4f a4 bc ae 1d 2f 3d f1 81 f1 3d
       -0.06404248 -0.020057375 0.042752914 0.117923625
000220 8d 1d 4b 3d b5 3e e1 3d 18 97 ba bd bd fd 0f bc
       0.04958873 0.109982885 -0.0911085 -0.008788523
000230 5a e5 ba 3d 4e 7e b6 bd c4 28 99 bd a3 cc 6e ba
       0.091257766 -0.089108095 -0.074784786 -0.0009109473
000240 7a c6 38 3e f8 61 e0 3c a1 2b e2 3d c5 db 88 3c
       0.18044463 0.027390465 0.11043478 0.016706357
000250 11 e8 6c 3d 53 fd 6c 3e 02 e0 c5 3c 76 d9 64 bd
       0.057838503 0.2314351 0.024154667 -0.05587145
000260 3d 30 f0 3c fd cb 0e 3e 2b 76 cb bc f4 5f 2a 3e
       0.029319877 0.13945003 -0.02483662 0.16638166
000270 74 ec 11 3d 7c 3d 86 bc 7a a0 0e 3d 4d 1a 5e 3d
       0.03562589 -0.01638674 0.03482101 0.0542243
000280 dc d1 7f 3d dd ec 3a 3e 67 36 a8 3d a8 59 55 3d
       0.062455997 0.18254419 0.082135014 0.052087456
000290 ff 00 19 bd 29 13 d5 bc af d5 da 3d 25 7b 34 3d
       -0.037354466 -0.026010113 0.10685288 0.044062752
0002a0 b5 b9 72 bd ce c0 c8 3d 16 87 53 bd e0 23 0f bd
       -0.059259135 0.098023996 -0.0516425 -0.034946322
0002b0 a8 2b 0d bc 37 ee 22 bd 50 89 33 3e 68 2e 1c 3d
       -0.0086163655 -0.03977796 0.1753285 0.038130194
0002c0 e9 b3 b7 3c 16 10 f5 bd 70 7f 74 bd d0 b4 79 3c
       0.022424655 -0.11965959 -0.059691846 0.015240863
0002d0 71 70 4e 3e bb e8 2a 3e f5 47 c9 3d fe 6e 0d 3e
       0.2016008 0.16690342 0.09828178 0.13811871
0002e0 57 f8 7d bd ca 4a 11 3e f8 13 da bd 2f bb 89 3c
       -0.062004413 0.14188686 -0.1064834 0.016812889
0002f0 6a e6 e7 3d 35 6f 8f bc ef 67 64 3c 11 7c 08 bd
       0.11323245 -0.017509082 0.013940795 -0.033321444
000300 1c 2e 32 bd dc 71 b7 3d 47 37 f6 3b 1b 02 7b bb
       -0.043501005 0.08957264 0.007513914 -0.0038300816
000310 d4 f1 57 3d 57 bc be 3c bd 8a 60 bc 73 f7 26 3e
       0.05272086 0.023283167 -0.013704953 0.16305332
000320 90 ab 80 39 52 4e f8 3d 05 35 09 3d 70 21 aa 3c
       0.00024541887 0.121243134 0.03349783 0.020767897
000330 ba c5 e1 3d ac 3d 45 3d 36 a4 59 bd e1 35 8c 3d
       0.110240415 0.048154518 -0.05313512 0.06846214
000340 ff 35 b7 bd 6a 87 c2 3d f3 c5 ea 3d 73 cf 13 be
       -0.08945846 0.094984844 0.11463537 -0.14434604
000350 4d ea db 3d 11 ac 70 bc ac 00 bb 3d d0 a7 68 3d
       0.10738049 -0.014689461 0.091309875 0.056800663
000360 f1 18 21 3e 49 44 6e 3d 9a 04 2b 3c f0 d3 05 3e
       0.1573217 0.05817059 0.010438109 0.13069129
000370 83 38 95 bd bf 24 1e bc c5 10 56 bd b1 03 b1 3d
       -0.072861694 -0.009652316 -0.052262086 0.08643282
000380 80 5a 58 3e 01 a7 8f bc cb cb 49 3d 14 13 85 3d
       0.21128273 -0.017535688 0.049266618 0.064977795
000390 d1 db c9 bd ed dc b3 3d df 69 98 3b 6e b8 ff 3c
       -0.0985638 0.087823726 0.0046512927 0.031215873
0003a0 0d 9e 59 3d 1a 84 9f 3d 53 d1 59 bd 8b d4 a8 bd
       0.053129245 0.07788868 -0.053178143 -0.08243664
0003b0 ff 92 d7 3d 39 bd 5d bd 8d 20 e4 3d cf d3 30 3e
       0.10526084 -0.054135535 0.11139021 0.17268299
0003c0 e9 cb 9b 3d 83 d1 2a 3d 20 c9 9b bd 49 11 46 bd
       0.07607252 0.041703712 -0.07606721 -0.04835633
0003d0 88 4e 5c 3b bd dc 67 3e af 92 3b bc 87 1b f0 bd
       0.0033616144 0.22642799 -0.011448546 -0.117240004
0003e0 df cd 2b 3d d7 7b 00 3e b1 a0 4b bd 3d d8 7a 3d
       0.04194438 0.12547241 -0.049713794 0.061241377
0003f0 99 10 d9 bc c9 16 0b 3e 30 d1 53 3e 7c 45 2a bd
       -0.026497172 0.1358291 0.20685267 -0.04157017

fc.4.weight f4 [128, 256]
000000 33 08 a2 3d 5a 4c 19 bd 26 34 51 3c 26 b5 95 bc
       0.0791172 -0.03742633 0.012768781 -0.018274855
000010 ff a9 ce bb 32 17 be 3d 94 80 b1 bd 7e b0 17 3c
       -0.006306886 0.09281768 -0.086671025 0.009258388
000020 72 96 a8 bd a6 d8 ef bd fe a6 1c 3e 27 32 3e 3e
       -0.0823182 -0.11711244 0.15298077 0.18573819
000030 4b d9 80 3d 9f 39 54 be 0a 11 59 bd c7 80 90 3d
       0.06291445 -0.20725106 -0.052994765 0.07055812
000040 b9 e4 46 be 08 8a 6d bd 2c cc 53 bd 1a 22 9b 3c
       -0.19423188 -0.057992965 -0.051708385 0.01893716
000050 96 bc 83 3c 54 92 07 be 0f b6 82 3d 6a 86 02 3d
       0.016081136 -0.13239413 0.06382381 0.03186647
000060 fc 5e 87 bc 91 af 41 be 28 1f ac 3d 23 8d 01 bd
       -0.016524784 -0.1891463 0.0840438 -0.03162874
000070 38 cb 86 3d d9 00 0f be f1 a5 c3 39 bc 5a 43 3d
       0.0658173 -0.13965167 0.00037316934 0.047693953
000080 15 9e c2 b9 2f c7 b5 bd 41 ff 17 bd a4 61 eb 3c
       -0.00037120344 -0.08875882 -0.037108663 0.028733082
000090 16 cc 03 3e e9 54 54 bd 16 66 a0 bd b3 64 ad bb
       0.12870821 -0.05183879 -0.07831971 -0.0052915453
0000a0 2f fe 40 3e ba ea ce 3d f1 da 07 3d 65 8f 79 be
       0.18846963 0.10103364 0.033167783 -0.24371107
0000b0 f1 b9 3d 3d 42 c9 d8 bd 23 cd ee 3d 91 b6 67 3e
       0.046319906 -0.10585262 0.116602205 0.22628237
0000c0 48 fe 98 3e 25 cc 89 bd f0 80 49 bd 56 d9 45 3d
       0.298815 -0.067283906 -0.04919523 0.04830297
0000d0 31 37 c0 be 11 b5 c6 be a9 6a d8 bd ba d1 84 3d
       -0.37542108 -0.38810018 -0.10567219 0.06485315
0000e0 6d c7 c9 3c 3e 02 2f 3d ab be 80 3d 12 af 5d be
       0.024631226 0.042726748 0.06286367 -0.21648815
0000f0 0f 42 44 be e9 3c 09 be 69 ec b6 bd 77 5f 4f 3b
       -0.19165824 -0.13402142 -0.089318104 0.0031642595
000100 b3 32 dd be 3f 4b 19 3f f3 cf 1e 3d 8f 8d 9d 3d
       -0.43202743 0.5988044 0.038772535 0.07693016
000110 98 23 e6 3c c9 e1 18 3c 95 5f 52 3d 2c 56 90 3d
       0.028093144 0.009331175 0.051360685 0.07047686
000120 4e cf ed bc c7 1d 71 bd 8a 8b 49 3e 51 27 e4 3c
       -0.029029515 -0.05886629 0.19682136 0.027850779
000130 ae c5 8b bd 47 f6 fd bc bd af 81 3d 79 11 b1 3d
       -0.06824814 -0.031001223 0.063323475 0.08645911
000140 3a 45 eb be f1 db 55 bd d2 4b 3c 3d 38 cd fe 3d
       -0.45951253 -0.052211706 0.045970745 0.12441486
000150 9d 65 ad bd 9e fa 6a 3d ce 61 6b 3d b6 53 a1 3c
       -0.08466647 0.057367913 0.05746632 0.019693237
000160 95 83 86 3d ff 8f 28 bc 74 cc 7b 3d bb d4 ae bd
       0.06568066 -0.010288238 0.06147428 -0.08536669
000170 02 29 b6 bc 50 62 5d 3d 96 ba 4b be d5 27 15 3d
       -0.02223635 0.054048836 -0.19895396 0.03641494
000180 41 7a e5 bd cb 38 20 be 95 94 bd 3c 56 ae 0e 3d
       -0.11204959 -0.15646665 0.023142138 0.03483423
000190 51 a5 8c 3c 2a 4b 72 3e 5f 70 06 bd fa a2 fc bd
       0.017168673 0.23661485 -0.03282201 -0.12335773
0001a0 11 33 3b 3d 7e 88 93 bc 13 d0 d7 3d c5 1f 5c bc
       0.045702998 -0.01800942 0.10537734 -0.013435309
0001b0 2f c0 8c 3b 2e 48 b0 3e b2 a8 23 bd ca 8a 4f be
       0.004295371 0.3443007 -0.039955802 -0.20267788
0001c0 9d bd cd 3d 88 40 52 3c 55 00 b0 bb 58 75 0b bc
       0.100459315 0.012832768 -0.0053711333 -0.008511864
0001d0 93 5d 5b 3d d4 24 bc be 4a d4 80 bd 06 aa 65 bd
       0.053556036 -0.36746848 -0.06290491 -0.05607035
0001e0 57 ae 22 3d 2a 9f 46 bd df 22 94 3d a1 34 55 3e
       0.039717045 -0.048491634 0.07233214 0.20820858
0001f0 33 a6 f0 3c 89 4f 50 3d 53 fa 4a 3c a1 7a 76 bd
       0.029376125 0.0508571 0.0123887835 -0.06017554
000200 77 da 91 3d f9 e6 33 3d 6f 25 a9 3d be 61 57 bc
       0.07121747 0.043921445 0.08259093 -0.013145862
000210 28 a9 2e bd f8 0b c3 bd a0 4c 55 3b e2 55 54 bc
       -0.04264179 -0.09523767 0.0032546893 -0.012959929
000220 7e 8c c4 bd 5d ff ee bd a5 f6 3c 3d 42 de 3c bd
       -0.09597109 -0.116698004 0.046133656 -0.0461104
000230 cf 22 86 bc 4f 43 84 bd d2 3c f8 bd 7c f6 9c bb
       -0.01637402 -0.064581506 -0.121209756 -0.0047901254
000240 76 8b b6 3b 3b 48 10 bc 20 8c 56 3d 45 00 ab 3d
       0.0055708243 -0.008806284 0.052379727 0.08349661
000250 df f2 bb 3d 54 71 b1 be 01 75 a1 bd 18 77 b7 3c
       0.09177183 -0.34656775 -0.07883645 0.022395656
000260 70 df d0 3c 00 28 69 be 20 ed a4 3b 20 f1 b2 bd
       0.025497168 -0.22769165 0.0050331503 -0.08737397
000270 d6 ca e9 3a 0c a6 be bc 9b 02 ca 3d 2b 25 0a bf
       0.0017836939 -0.023272537 0.09863778 -0.53962964
000280 ae 17 7c 3d 95 31 8a 3d 17 1a ee bd e8 08 8b 3d
       0.06154602 0.06747738 -0.1162607 0.06788808
000290 5b 28 74 be 4e cb 08 3c 59 dc ac ba fa 96 9e bc
       -0.2384352 0.008349253 -0.0013188227 -0.0193591
0002a0 e4 20 aa be 59 dd 34 be 81 37 92 bc f4 8a 49 3d
       -0.3322822 -0.17662562 -0.017848732 0.04920478
0002b0 76 06 01 3d 32 06 fc 3c be 81 4f 3d e3 ff be 3d
       0.031500302 0.030764673 0.05066084 0.0932615
0002c0 79 1f e5 3e 16 ea 32 3c 38 ac 10 bd 8c 2c 2b 3d
       0.44750574 0.010920068 -0.03532049 0.04179053
0002d0 2a 32 5f be f2 fe b9 bd 89 9b 85 bd 89 c8 89 bd
       -0.2179648 -0.0908183 -0.065238066 -0.06727702
0002e0 cc cd c2 bd e8 fa b7 3d b5 22 57 be 23 1b 8a 3d
       -0.09511909 0.089834034 -0.21009333 0.06743457
0002f0 d4 64 2a bd 76 e0 5a bd e3 3e f4 3d 53 7e 25 bd
       -0.041600063 -0.05343672 0.11926057 -0.040403675
000300 e6 cd 48 ba 20 ba 5e be 12 87 c6 bc ac 02 60 be
       -0.0007660076 -0.21750689 -0.024234328 -0.21876019
000310 3c 74 12 3b 58 e5 9c bc f9 60 13 3e 4b cc 70 3c
       0.0022347113 -0.019152328 0.14392461 0.014697145
000320 a2 fc 17 3d 24 6d 16 3e 84 0a 70 3d f5 35 e3 3c
       0.037106164 0.14690071 0.05860378 0.02773569
000330 5f 02 86 bc 41 f1 2d be 8d 1a ba 3d 87 bb 44 3d
       -0.016358553 -0.16986562 0.090870954 0.048030403
000340 22 52 bf 3d 49 55 bf 3d d7 e5 b8 3c 20 c1 1b bd
       0.093418375 0.09342439 0.022570534 -0.038025975
000350 67 e0 8d 3c 10 8d 78 3d 4d 48 3e 3d cd 90 f1 bd
       0.017318917 0.060681403 0.04645567 -0.11795197
000360 34 27 aa 3b 5a 54 95 3c dc 9e fc be cd cc 48 3d
       0.0051926617 0.018228699 -0.4933995 0.04902344
000370 07 a0 97 3d ac c4 31 3d d1 5b 8c be ad c1 3e 3c
       0.0740357 0.04340045 -0.274138 0.011642856
000380 40 69 5b bd c8 e0 09 3c 99 b9 e7 3b c8 60 0d be
       -0.05356717 0.008415408 0.0070716855 -0.1380645
000390 33 11 70 3d 67 89 10 3d 3c da 91 bc 39 a3 59 3c
       0.058610152 0.035287287 -0.017804258 0.013283544
0003a0 3b d6 44 3d f6 0d 67 3d 51 45 0b 3e 74 7c f9 3c
       0.04805587 0.0564098 0.13600661 0.030454852
0003b0 7a 61 a6 3c 74 53 3e 3d 0b 21 ab 3d 25 c8 6e bd
       0.020310152 0.046466306 0.08355912 -0.05829634
0003c0 d2 38 dd 3b ee d0 53 bc cf 64 8b 3d 13 a4 76 3d
       0.0067511583 -0.012928231 0.06806337 0.060215067
0003d0 94 e9 f2 3d 3d 05 3b 3e c4 21 76 3d 89 22 c6 3d
       0.11860958 0.18263717 0.060090795 0.09674556
0003e0 70 e7 11 3e c5 36 f8 bd e4 ba 51 3d 4e 8f ca 3b
       0.14248443 -0.121198215 0.051203623 0.006181634
0003f0 77 0c 9b 3d 9d 84 8a be 91 d0 31 be ab 5c 17 39
       0.07570737 -0.270543 -0.17364718 0.00014435004

fc.4.bias f4 [128]
000000 2d f1 9e bc f9 39 26 ba de 34 d4 3d 53 65 ac 3c
       -0.019402111 -0.0006341036 0.10361646 0.021044409
000010 9b d4 43 bd 79 d0 ca 3d 3c 5e ed bd df da bc 3c
       -0.04781018 0.09903044 -0.115902394 0.023053585
000020 4c fb 2c 3e af a2 ad 3c 64 2d 47 3d 68 0f a9 3d
       0.16892737 0.021195738 0.048627272 0.08254892
000030 e4 d2 21 3d 58 a6 33 bc d6 fd 80 3d a4 e1 f4 bc
       0.03950776 -0.010964952 0.06298415 -0.02989275
000040 1b 31 04 3d aa 3f 89 3d 70 5b 9d 3d cb 75 8d bd
       0.032273393 0.06701596 0.07683456 -0.06907233
000050 9d 84 e0 3d 62 17 90 bd 1b 96 14 bd 07 81 97 3d
       0.10962794 -0.0703571 -0.036275964 0.07397657
000060 a5 75 1a 3d f6 2a cc bb c6 ba 07 3e 64 e1 79 bc
       0.03770985 -0.0062307073 0.13254842 -0.015251491
000070 ef 2a 1d bd a2 bc 0a 3d 52 19 31 bd 55 50 6d 3e
       -0.038371023 0.0338713 -0.043237038 0.23175175
000080 4a b3 e6 3b 19 92 14 3d ff f6 b6 3d 42 d2 5a 3d
       0.007040416 0.036272142 0.089338295 0.053423174
000090 54 2d 0b 3e d9 c7 75 bd 99 47 4b 3d b0 b8 0b 3e
       0.1359151 -0.060005043 0.049628828 0.13644671
0000a0 75 58 fd 3c 74 f7 12 3d 17 b7 e0 3d db c5 08 3e
       0.030925969 0.03588052 0.109724216 0.13356726
0000b0 5a 17 e7 3d e0 a8 86 3d e8 60 d7 bc 67 45 8e 3b
       0.11283751 0.06575179 -0.026291326 0.0043417695
0000c0 28 89 5a bd 42 e2 b3 3c ce b7 81 bd 6d 39 05 3d
       -0.05335346 0.021958474 -0.06333886 0.03252547
0000d0 f3 9d c9 3d 42 5e 80 3c 77 dc 2b 3d 54 50 95 3d
       0.098445795 0.015669946 0.0419583 0.07290712
0000e0 e8 76 a0 bd 18 ee a9 bc 7c 14 7f 3b 04 ef b8 bc
       -0.078351796 -0.020743415 0.0038922122 -0.022574909
0000f0 b5 78 fc 3c dc 26 46 bc bd 6a 56 3d 04 64 92 3d
       0.030819276 -0.012094226 0.052347887 0.07147983
000100 ab 83 c7 3b 2b 0d 03 bc 07 b2 ba 3c a5 5c 79 ba
       0.006088694 -0.007998745 0.022789968 -0.00095124013
000110 54 cd 99 3d d6 d3 4c 3d c9 82 a8 3d 42 23 c9 3d
       0.07509866 0.05000671 0.0822807 0.09821178
000120 97 cd c3 3d d6 80 15 3d 44 c9 28 3e 0e cf 92 3d
       0.095606975 0.03649982 0.16483027 0.07168399
000130 53 d0 22 bc d5 38 41 3c f1 25 0a bd e9 16 1e bc
       -0.009937364 0.011793335 -0.03372759 -0.009649017
000140 4f 99 f7 3d ce c7 09 bd 80 de 61 bd 74 1b 2d 3e
       0.12089788 -0.033637814 -0.055143833 0.16905004
000150 67 bf c1 3d db f8 91 3d 9c 33 12 3e b8 b4 6e bc
       0.09460335 0.071275435 0.142775 -0.014569454
000160 46 93 a3 3d 03 0d 42 3d 92 2c 89 3d 4d e0 84 3d
       0.079870746 0.04737569 0.06697954 0.064880945
000170 b0 b5 8b bb b5 c6 2f 3e 69 79 b5 3c 5d 52 19 3e
       -0.004263602 0.17165644 0.02215262 0.14972825
000180 4e 46 20 bd 3c 32 30 3d ed b2 1f 3e a9 2c ab 3c
       -0.039129548 0.043016657 0.15595599 0.020895319
000190 fd a3 26 3e d9 9b 1b 3e 9a 89 1c 3d ea 72 f0 bc
       0.16273494 0.1519617 0.038217165 -0.02935167
0001a0 d8 57 07 bc 83 f7 ee 3b 09 c4 a4 bc 2d 52 86 3d
       -0.00826069 0.0072926893 -0.020113008 0.065586425
0001b0 9f bb 7e 3d 81 1f 6a bd c7 29 8c 3d 50 9e a6 3d
       0.06219065 -0.05715895 0.06843906 0.081356645
0001c0 3a 88 9f bd ce 6e 00 bd 3e ec 80 3c 90 9d bf 3d
       -0.07789655 -0.03135567 0.015737649 0.093562245
0001d0 a4 10 c9 3d 38 fb 78 bd 52 43 6a 3d 48 42 15 3d
       0.09817627 -0.060786456 0.057193108 0.036440164
0001e0 10 14 80 bd 2f dd 05 3d 2e 4c 97 3c 5e 50 a7 3c
       -0.062538266 0.03268164 0.018468942 0.020424064
0001f0 be 04 59 3d e6 a4 e3 3d 37 19 35 bd 08 39 9b bc
       0.052983038 0.11115436 -0.0442135 -0.018948093

fc.6.weight f4 [3, 128]
000000 79 fe 43 be d3 5c 4b 3e 8a 6d dc bd 92 b6 54 bd
       -0.19140042 0.19859628 -0.107630804 -0.051931925
000010 a2 7c 9a 3d ab 28 a6 3c f3 fc ec be 51 17 96 bd
       0.07543303 0.020283064 -0.46286735 -0.07328666
000020 fc 16 1e 3e e3 08 d2 3d 68 23 34 3d 9e 03 d4 be
       0.15438455 0.10255601 0.04397908 -0.4140901
000030 f8 ef 69 bc 1f 38 2f be 6d bb 2a 3e b3 a6 93 3d
       -0.014278404 -0.17111252 0.1667306 0.0720953
000040 cb 6f 3b 3e d0 a6 1a 3e 3d 22 b4 be 6c 14 18 be
       0.18304364 0.15102696 -0.35182372 -0.1485154
000050 43 51 03 3e 13 0d 40 3e f9 6a 26 3e 83 f5 b2 bc
       0.12823968 0.18754987 0.16251744 -0.021845585
000060 b2 f5 98 3d 14 68 58 3b 66 d5 70 3d b7 b1 a4 bd
       0.07468738 0.003302102 0.058797263 -0.08041709
000070 c8 c9 9e bd 53 23 21 3e ba 48 5d 3d b9 d0 58 bd
       -0.077533305 0.15736131 0.054024436 -0.05293343
000080 87 b6 b3 3e ad 7b 36 be 15 0b f5 3d 03 5b 45 bd
       0.35100195 -0.17820616 0.11965004 -0.0481825
000090 c3 78 0b 3e 8d 0d 82 3d 9b ff 23 be fa 08 9d 3d
       0.13620286 0.06350241 -0.16015474 0.07667728
0000a0 2e e0 4b bd 1c 85 6c be f0 e3 a0 3d fe e7 de 3d
       -0.04977434 -0.23097652 0.07855976 0.10884093
0000b0 01 14 4a be 4d e2 be be 99 9f 7b 3d 42 f5 80 be
       -0.19734193 -0.3728203 0.0614315 -0.25187117
0000c0 26 fe a4 bd ca 8f 6f 3e ed f9 9b 3d f8 27 8a 3e
       -0.080562875 0.23394695 0.07616029 0.2698362
0000d0 cc 18 7b be 11 74 57 3d 90 1b 7d 3d 9c b8 21 3d
       -0.24521178 0.052600924 0.061793864 0.039482698
0000e0 f3 f4 84 3b d7 b9 78 3c ec 4d 30 3d c7 d8 86 be
       0.0040575205 0.015181026 0.043043062 -0.26337263
0000f0 34 6e e8 bb a3 ac d0 bb fc a6 06 3d 09 23 b2 3c
       -0.0070932154 -0.006368236 0.032874092 0.021745222
000100 ef 32 c1 3d d0 ff 8d 3d ad b4 82 3c c9 30 cf 3b
       0.09433543 0.06933558 0.015955294 0.0063229543
000110 5e 99 69 3e 38 52 d4 3c 45 87 3b bd d9 01 e3 3d
       0.22812411 0.025918111 -0.0457833 0.11084337
000120 c9 4a 32 3c 1a 87 05 bc 60 05 a6 3c d6 86 77 3d
       0.010882088 -0.0081498865 0.020266235 0.060431324
000130 70 12 85 3d 5c 47 11 bb 73 c3 13 be b7 3f 1f 3d
       0.06497657 -0.0022167778 -0.14430027 0.038879123
000140 fd 46 21 be 50 1c 7f bd 05 6c 75 be de f9 74 3d
       -0.15749736 -0.06228286 -0.23966987 0.059808604
000150 24 be b1 bd aa 4a 84 3e 2f 79 89 3d f6 f0 07 3c
       -0.086788446 0.25838214 0.06712567 0.008297196
000160 3d 6d c6 3d b1 b8 f4 bd f7 86 f7 be 3f 52 00 3e
       0.09688804 -0.119492896 -0.48345158 0.12531374
000170 95 78 61 3d a1 43 86 3c 95 d4 b2 3d 5e a0 72 be
       0.055046637 0.01638967 0.08731953 -0.23693988
000180 28 bc 41 be 4b 31 63 be 61 83 bf 3d 02 21 f4 ba
       -0.18919432 -0.22186773 0.093512304 -0.001862556
000190 34 b4 a7 be 9c 0c b4 3d 2a f8 57 3d ea e0 3b 3d
       -0.32754672 0.087914675 0.052726902 0.04586879
0001a0 88 63 82 3d 42 bf fc be 67 40 48 3e d0 6f f2 3d
       0.0636664 -0.49364668 0.19555818 0.11837733
0001b0 33 06 fa 3d 05 8f 9f be d3 f4 81 3e 47 e6 f2 3d
       0.12208214 -0.31163803 0.253821 0.11860328
0001c0 b4 aa 3b 3e 52 2c 2c ba 42 6d 6a be 51 f8 00 3e
       0.18326837 -0.00065678835 -0.22893241 0.12594725
0001d0 4d c4 82 3d 59 8e 2a 3e bd 9d 9e 3d 7e 84 51 3d
       0.06385098 0.16655864 0.0774493 0.051151745
0001e0 66 f3 9d 3d 37 17 8f 3d 71 4c b6 be 8a f9 97 be
       0.0771244 0.0698685 -0.35605195 -0.2968257
0001f0 19 16 30 3e 2c 71 4e 3d 56 a4 ad bc 78 56 56 3c
       0.1719593 0.050400898 -0.021196526 0.013082139
000200 64 7e 16 be 71 82 8d bd 93 3a 71 3d 72 ac 01 3e
       -0.14696652 -0.06909645 0.05889375 0.12663439
000210 19 7d 7d 3d 49 cb 85 3e c0 55 02 3f 1e fe f3 be
       0.06188688 0.26131657 0.50912094 -0.47654814
000220 27 9e 0f be ad eb 1c 3e f1 ef 93 3c b6 a5 23 3d
       -0.14025174 0.15324278 0.018058749 0.039952956
000230 2b e7 c0 3d 45 b2 9b 3d 4f a1 6e 3d 00 42 a5 bd
       0.09419092 0.076023616 0.058259305 -0.08069229
000240 df 4f d5 bd e1 91 1a 3e 5f b2 88 bd cd 8d 49 be
       -0.10415625 0.15094711 -0.066746466 -0.19682999
000250 07 67 1c 3e be 04 22 be 6d 78 18 be 30 e0 ba 3b
       0.15273677 -0.15822122 -0.14889689 0.0057029948
000260 5b 9e f2 3d 84 17 95 bd 51 cb 01 3e 6c 3e 42 bd
       0.1184661 -0.07279876 0.12675215 -0.04742281
000270 23 0d 3f 3c e3 c4 b5 be c9 59 b1 3c 74 ae ba bc
       0.011660847 -0.35501775 0.021649258 -0.022788264
000280 1d 68 8c be 3d 66 c8 bd d2 87 c4 bb 8e 42 6b 3d
       -0.27423182 -0.097851254 -0.0059976364 0.05743652
000290 9c 38 4f bd d0 02 d4 bc df 66 f3 3d f1 4f ad 3d
       -0.050591096 -0.025880247 0.118848555 0.08462513
0002a0 7e 08 05 be 60 1a d7 3c 9b 32 18 3e 66 bf be 3d
       -0.12991521 0.026257694 0.14863054 0.0931385
0002b0 48 66 48 bd 2d bb be be 79 f5 fd 3d ad 8e ff bd
       -0.048925668 -0.3725218 0.12400336 -0.12478385
0002c0 fb a1 d1 3c b3 e5 8a be 93 ca 65 ba b3 da 34 be
       0.025589934 -0.27128372 -0.00087658426 -0.17661552
0002d0 89 dc 93 3d ba a0 16 3e 2b c3 6a 3d 0e c4 fe 3d
       0.07219798 0.1470975 0.057315033 0.12439738
0002e0 d8 83 3c 3e a4 a9 90 3d dc 6a 10 3e e3 6e 7c bd
       0.1840967 0.070636064 0.14103264 -0.061629187
0002f0 04 54 ca bc 59 b1 2c 3d bf 85 f3 3d 23 54 a0 3d
       -0.024698265 0.04216132 0.118907444 0.07828548
000300 d9 8e 17 3e f4 42 4a 3e 96 1f 7f bc 87 9c 1d 3d
       0.14800586 0.19752103 -0.0155714955 0.038479354
000310 ee 40 16 bd f1 d6 07 3e e9 e8 1a 3e fc 6a 0b 3e
       -0.036683016 0.13265587 0.1512791 0.1361503
000320 7d 01 0d 3e 7c 40 32 3e 0a 00 a8 3d c5 22 01 3e
       0.13770099 0.17407411 0.082031325 0.1261092
000330 50 85 3d be f5 89 f2 bc 45 b7 b1 3c 68 47 6f bd
       -0.18507886 -0.029606799 0.021693835 -0.058417708
000340 47 bc 40 3e 52 a6 89 bd 7d af 8f bd 7c 1a 5b be
       0.18821822 -0.06721176 -0.070158936 -0.21396822
000350 0a 7c ba be da ea 41 be 6c 6d 4d 3d 2d 54 b1 3d
       -0.3642276 -0.18937245 0.05015318 0.086586334
000360 f3 bc 19 3d 9a 7c 1c 3d 35 4e 89 3d 02 b0 13 3e
       0.03753371 0.038204767 0.0670437 0.1442261
000370 a4 ca 85 3b 51 cc 15 3e ab 5b c4 bc ae 35 1b 3d
       0.0040829945 0.14628722 -0.023969492 0.03789299
000380 ba 48 5b be f8 61 34 3e 5d e4 95 3d 02 7d 8c bd
       -0.21414462 0.17615497 0.073189475 -0.06859781
000390 7e 18 4c 3e 34 41 97 3b 48 95 1a 3b a1 fd 16 bd
       0.19931218 0.004615927 0.0023587514 -0.036862973
0003a0 1b b0 d2 be 52 52 04 bc 3d 82 51 bd 6c a8 18 3e
       -0.41149983 -0.008076267 -0.051149596 0.14907998
0003b0 63 48 24 3c 71 0d 83 bd 70 32 ae bc 3d 96 0c 3c
       0.010027024 -0.06399048 -0.021264285 0.0085807415
0003c0 92 bd d8 bc 20 d3 fc 3d 01 45 45 bc 6c 4d 00 3e
       -0.026457582 0.123449564 -0.012040378 0.12529534
0003d0 93 d0 1e 3e 3e db f0 bd 38 51 c7 3d f3 9d 4e 3d
       0.15509252 -0.11760567 0.09732288 0.0504436
0003e0 1f 0a c1 bc 41 b7 81 3d 59 09 1b bd 88 6a cb be
       -0.023564396 0.06333781 -0.03785071 -0.39729714
0003f0 72 27 3e bd e0 57 37 3d 22 9b 10 bd b6 d8 45 bd
       -0.046424337 0.04476154 -0.035304196 -0.048302375

fc.6.bias f4 [3]
000000 16 e8 b5 3d 9f ea 0a 3e 08 6a 52 3c
       0.088821575 0.13566063 0.012842663
