0615/grid_dqn_model.pth (torch, 403284 bytes, 8 tensors)

fc.0.weight f4 [256, 2]
000000 e4 71 4c 3e 8b 2b d0 3e df a6 dd 3d 24 15 b1 3e
       0.19965321 0.4065822 0.10822844 0.34586442
000010 b0 66 06 be 6f 3e 9a 3d 24 19 0c bf 32 4a 1f 3f
       -0.1312511 0.075314395 -0.5472586 0.6222259
000020 9f a5 23 bf 4d 42 34 3f f0 24 f1 be 90 ba 1c bd
       -0.6392459 0.70413667 -0.47098494 -0.038263857
000030 50 da a8 bd 20 d9 db be 30 6a 82 bd 90 08 6d be
       -0.08244765 -0.4293909 -0.0636791 -0.23147798
000040 dd 1f 9c 3e b9 27 e6 3e 14 15 23 3f 93 ea 8c be
       0.3049306 0.4495218 0.6370404 -0.27522716
000050 e8 aa 0a 3f 1e 58 9b 3d 74 6f db 3e 06 7b a9 3e
       0.5416703 0.075851664 0.4285847 0.33101672
000060 a4 71 b1 3e 73 84 a4 3a 56 f7 0e 3f 40 26 b0 3e
       0.34657013 0.001255168 0.55846155 0.34404182
000070 b0 b2 1d bd b4 a4 2f bf ba eb e9 3e 39 bc 13 bd
       -0.038500488 -0.6861069 0.45687658 -0.036068175
000080 21 49 1c 3f 42 84 65 3d dd ff 15 3e 38 60 0a 3f
       0.61049086 0.056034334 0.14648385 0.5405307
000090 ad 95 80 3e e2 8f 04 3e a4 ef a3 3e 40 9b ba be
       0.25114194 0.12945512 0.3201877 -0.3644657
0000a0 c4 01 12 3f 45 87 99 3e 68 57 e8 3e 72 49 d9 3e
       0.57033944 0.29986015 0.45379186 0.42438847
0000b0 71 83 83 be e7 ef 0d bf 03 a3 fb 3e 9d 00 c7 3e
       -0.2568622 -0.55444187 0.49147806 0.38867655
0000c0 28 67 54 3e 4f 17 08 3f 9e 9f 97 bd c4 42 f4 3e
       0.20742476 0.53160566 -0.074034914 0.47707188
0000d0 83 38 cd be 56 8b 3b 3f ab 6f dc bd ff 6b 08 3f
       -0.40082178 0.73259485 -0.107634865 0.5328979
0000e0 5e 14 4e be f3 5f 2a 3f ec cf 33 3f 9e 53 b9 bd
       -0.20124957 0.66552657 0.7023914 -0.09049152
0000f0 38 5a 87 be a5 e1 0e bf 05 c2 16 bf 78 90 70 be
       -0.2643602 -0.55813056 -0.588898 -0.2349261
000100 f7 b1 8a 3d 89 9a ac bd a0 ab 95 3d d2 ed dd 3e
       0.06772225 -0.08427913 0.073081255 0.43345505
000110 cd 04 d5 bd 40 6d 7e 3e 80 aa de 3e 3d de 6a 3e
       -0.10401306 0.24846363 0.43489456 0.2293634
000120 92 92 90 3d c9 99 7c be 0c b3 98 be 2e d6 5c 3f
       0.07059206 -0.2466804 -0.29824102 0.8626431
000130 6e 37 84 bf 33 46 4c 3e 0a 24 1e bf 89 4e c3 be
       -1.0329416 0.19948654 -0.6177374 -0.38145855
000140 50 7c 32 3f 93 c8 77 3c a6 03 83 3e c3 08 e9 3e
       0.69720936 0.015123504 0.2558872 0.45514497
000150 5a 27 2b 3f 45 4f 4b 3d dd 3c db be a7 1a 95 be
       0.6685692 0.049636144 -0.42819872 -0.29121897
000160 62 cd ce be 80 fb eb be 71 52 3c be 65 4c 4e 3f
       -0.4039107 -0.46090317 -0.18390824 0.8058532
000170 45 ec 15 bf 79 94 18 bf e5 11 cb 3e 87 62 b1 3d
       -0.58563644 -0.5960155 0.3966209 0.08661371
000180 25 7a bb be 3e 74 69 3f ab f0 58 be a9 b8 31 3f
       -0.36616626 0.91192997 -0.21185558 0.69422394
000190 30 12 de bd f8 54 31 bf e1 e0 1a be 7e 89 e8 3e
       -0.10843313 -0.6927028 -0.15124847 0.45417398
0001a0 99 df 28 3e 2d 5e 39 be 13 0c 15 3f 8d b4 d7 bd
       0.16491546 -0.18102331 0.5822155 -0.10532484
0001b0 fc a1 1a be b4 33 de be 9e 99 c5 3e 49 10 31 3f
       -0.15100855 -0.4339882 0.38593763 0.69165474
0001c0 fc 83 07 3f 96 9b 47 be f7 5f 1f 3f 90 bf d0 3d
       0.5293577 -0.19492945 0.62255806 0.10192788
0001d0 60 dc 36 be 23 9b 2e bf b6 17 93 be f9 af 82 3f
       -0.17857504 -0.6820547 -0.28729028 1.0209953
0001e0 34 f1 c8 3e 28 d1 b8 3d b9 c3 53 3e 7b 54 39 3f
       0.39246523 0.090242684 0.20680131 0.7239453
0001f0 d2 ba 76 be 6d ce 2e 3f 45 49 69 bd 3a 24 02 3f
       -0.24094704 0.6828373 -0.05695464 0.5083653
000200 86 1c 30 bf 10 88 55 be 7f 62 8f be 2a 44 75 be
       -0.68793523 -0.20852685 -0.28004834 -0.23951784
000210 cb f9 25 bf ac 50 f3 be 88 9e 38 be 34 1d 06 bf
       -0.6483428 -0.47522485 -0.18029225 -0.5238831
000220 bb b4 10 3e 60 b3 a1 3e a3 d2 df bc 65 57 86 3e
       0.14131443 0.31582165 -0.02732212 0.26238552
000230 39 07 81 be 97 b1 2d bf cd 4c 8c bf d9 d8 18 3e
       -0.25200823 -0.67849106 -1.0960938 0.14926471
000240 10 a9 63 3e 1a b4 1f 3f 26 ec ee 3e 88 55 01 bf
       0.22232461 0.6238419 0.46664542 -0.50521135
000250 dc 9d 07 be f8 0a 7b be 09 f2 64 3e b1 c1 82 be
       -0.13243812 -0.24515903 0.22357954 -0.255384
000260 6e 0f 8e be 5c 2e 47 be 52 a5 21 be cd b3 0c 3f
       -0.27746147 -0.19451278 -0.15785721 0.54961854
000270 bc 72 ec 3e e7 70 3f bf a7 29 3b be bd 87 2e 3f
       0.46181285 -0.7478165 -0.18277608 0.6817587
000280 ae 43 f4 3e db a2 c5 bd 7e d1 2b bf ca 11 f4 be
       0.47707886 -0.09650203 -0.67116535 -0.47669822
000290 8d 1e f7 be 98 8c 1d 3f 0e ad 07 bf 5c 28 17 3f
       -0.48265496 0.61542654 -0.52998435 0.5904596
0002a0 7d 71 99 3c d0 63 10 bf d3 1d c1 be 59 18 d9 3e
       0.018730873 -0.564023 -0.37718067 0.42401388
0002b0 aa b1 1f bf 84 e4 31 3f 3a 2e 9d 3e 1b 47 74 3e
       -0.6238047 0.6948931 0.3069933 0.2385525
0002c0 7f c6 bb bd d7 b7 0c bc dd ce c5 be ff 9b e3 3e
       -0.091687195 -0.008588753 -0.38634387 0.44454953
0002d0 dc fe 0c bf 78 47 ff 3e 80 52 35 bc 28 0d dd be
       -0.55076385 0.49859214 -0.011067033 -0.431741
0002e0 4d 5c 26 3e b5 ca a8 3e f4 81 4c 3f 2f e2 d8 bc
       0.16246147 0.32967153 0.7988579 -0.02647504
0002f0 a4 43 b8 3e 53 95 26 be 3e 47 2a 3d 45 cc a7 be
       0.35989106 -0.162679 0.041571848 -0.32773033
000300 27 30 a0 3e ba 16 12 3e e4 21 3a be 24 60 ce 3e
       0.31286737 0.14266482 -0.18176991 0.40307724
000310 35 e8 87 be e2 cc b9 be e9 9b 2e 3f a2 f1 1e 3f
       -0.26544347 -0.36289126 0.6820665 0.6208745
000320 8c 72 f0 3e 12 54 53 bd 66 cd 25 bf 6c b0 3e 3f
       0.46962392 -0.051593848 -0.6476654 0.7448795
000330 81 8a a9 3e 4e 7e 9e be ca 95 8d 3e 54 04 1b 3f
       0.33113483 -0.30955738 0.27653342 0.6055348
000340 76 27 c3 3e 81 91 19 3e 50 4e 54 3f c0 ef 73 bd
       0.38116044 0.14996912 0.82931995 -0.059554815
000350 e9 eb ea bd 09 1a bc 3e f8 4f 1e bf 5c fa ab 3e
       -0.114707775 0.36738613 -0.6184077 0.33589447
000360 a4 b8 78 be 7c 18 0a 3f 91 09 8d be c8 12 25 be
       -0.24289185 0.5394361 -0.2754636 -0.16120446
000370 d5 89 b9 be 92 54 00 3f c2 4a 3a 3f 95 28 39 bf
       -0.3623797 0.50129044 0.7277032 -0.7232755
000380 ce 7a 28 be db 10 de 3e 46 2b 4e be 3a 3e 23 3f
       -0.16453096 0.43372235 -0.20133695 0.63766825
000390 10 9d d6 bd 83 a0 b1 be 79 b1 61 3e a0 2d 82 be
       -0.10479176 -0.34692773 0.22040357 -0.25425434
0003a0 c2 b0 84 bd 0b 8a e5 3e 93 d6 83 3e 39 71 8d be
       -0.064790264 0.4483188 0.25749645 -0.27625445
0003b0 d3 6d b4 be cc 27 53 3f c1 8d 3b be 38 92 28 ba
       -0.3524004 0.824826 -0.18315794 -0.00064304797
0003c0 23 b4 16 3f fe aa 1f bf de 84 8f 3d 77 38 f3 3e
       0.58868617 -0.6237029 0.07007764 0.47504017
0003d0 d6 fe f4 3d 5c ee c2 3e 71 f4 c7 3d ae 91 df 3e
       0.119626686 0.3807248 0.097634204 0.43665832
0003e0 49 1d 05 3f 48 ff 16 3f bf 6c 81 be 05 e4 08 bf
       0.5199781 0.5898328 -0.2527828 -0.5347293
0003f0 91 58 75 bd f1 de 84 3e 73 20 79 3e 04 4f 17 3f
       -0.059898917 0.2595134 0.24328785 0.59104943

fc.0.bias f4 [256]
000000 6c 12 59 3f 1a 0d 4c 3e 26 f4 8f 3f c5 b4 18 bf
       0.84793735 0.19926873 1.1246383 -0.5965083
000010 41 ec 03 bf 03 ee dc be a6 8c d1 3e 70 10 4c 3d
       -0.5153237 -0.4315034 0.4092762 0.049820364
000020 ee f8 7f 3e c2 2d 20 be b0 56 8d bf d6 53 14 3f
       0.24997303 -0.15642455 -1.104208 0.57940423
000030 be 18 82 3f a3 63 25 3f 89 b6 13 3f f0 43 69 3f
       1.0163801 0.6460516 0.577004 0.9111929
000040 67 46 87 bf 88 29 8a bf 32 0a e2 3c cb b3 94 3f
       -1.056836 -1.0793924 0.027592752 1.1617368
000050 43 29 4d 3f d3 88 f6 be d0 8c f9 3d fa f7 2c bf
       0.80141085 -0.48151264 0.12185061 -0.6756588
000060 71 c5 21 3f 5f ff 48 3e ef 17 52 3f ea 37 d5 bd
       0.63191897 0.19628666 0.8206777 -0.104110554
000070 84 3a eb 3e 06 f9 2c be ad 2e 26 3f 7f c6 07 bf
       0.4594308 -0.1689187 0.6491497 -0.53037256
000080 fd a7 36 3f f5 22 5a 3f 89 29 34 3f df 7a ff be
       0.7135008 0.8520959 0.7037588 -0.4989843
000090 5b 6d 35 3f 8d fc d9 3d 6c a4 0a 3f c6 a8 af 3e
       0.7086999 0.10643873 0.5415714 0.3430845
0000a0 62 65 32 be 1d e3 11 be c7 7f 8a be ba fe b7 3e
       -0.17421487 -0.14246793 -0.2705061 0.35936528
0000b0 63 05 32 3f 2e 35 e8 be 88 60 16 bf 10 0f 38 3e
       0.6953947 -0.45353073 -0.58741045 0.17974496
0000c0 83 1f 14 3f 43 f6 37 be 2f ca 08 3f 11 18 e4 3e
       0.57860583 -0.17965035 0.5343351 0.4454961
0000d0 7c ce 0d 3f 8a aa 71 3f 09 db 98 be ba d5 8e be
       0.55393195 0.94400847 -0.2985461 -0.27897435
0000e0 d6 25 15 3e 5b e6 c4 be 90 15 48 bd 01 dd 39 be
       0.14565215 -0.38456997 -0.04884869 -0.18150713
0000f0 51 1a 8a bf 05 e4 36 bf 67 a7 4a 3f a1 0a 30 bf
       -1.0789281 -0.7144168 0.79161686 -0.6876622
000100 76 6f fa 3e d0 f9 db 3d 94 05 4c 3e e1 6e 1e 3f
       0.48913163 0.10741007 0.19924003 0.6188794
000110 b6 09 5b bf 03 e8 10 3f 20 e6 00 3d b1 8a 44 3f
       -0.8556169 0.5660402 0.031469464 0.76774126
000120 88 a9 43 3f b6 72 7d 3f 40 a2 39 bd 5c 91 a6 3e
       0.7643056 0.9900316 -0.04532075 0.32532775
000130 6a 80 f2 be b6 6e ba 3e f7 6f 71 be ad 47 94 3e
       -0.47363597 0.3641259 -0.23577867 0.28960934
000140 d4 93 b7 3e be 98 bd 3e a7 f5 67 bf ea 28 f4 be
       0.3585497 0.37030596 -0.9060921 -0.47687465
000150 84 fc c8 3e 6b 68 20 be 1a 38 4a 3e 3e 9c a1 bf
       0.39255154 -0.15664832 0.19747964 -1.2625806
000160 02 46 6f 3f bd 94 1d 3d 50 f7 59 3f 16 45 b3 3e
       0.934662 0.038471926 0.85142994 0.35013646
000170 ac 40 1d 3f b6 ad 26 bf 2e b0 47 3f 58 d5 6e 3f
       0.61426806 -0.6510881 0.78003204 0.93294287
000180 99 9e 67 bf 7d f9 5f 3f 20 14 69 bd a3 97 ec be
       -0.90476376 0.87490064 -0.05690396 -0.4620944
000190 44 44 10 bf 28 6c 45 bf 80 f7 88 3e 5e 81 f7 be
       -0.56354165 -0.7711816 0.26751328 -0.48340887
0001a0 c9 19 a3 3e 56 26 e9 be 24 60 69 3f ea 2d 12 3e
       0.3185561 -0.4553706 0.91162324 0.14275327
0001b0 26 7c 92 3f 28 b8 34 3e f4 b8 88 bf 6a 58 37 3f
       1.1444137 0.17648375 -1.0681443 0.71619284
0001c0 e0 79 20 3f 5d 9d 02 bd 6c 18 86 be 1b c0 01 3f
       0.62685966 -0.031888355 -0.26190507 0.50683755
0001d0 5a ab 46 3f 3d ef 52 3f ae b5 38 3f d8 72 14 3f
       0.7760521 0.823963 0.7215222 0.5798774
0001e0 76 d4 35 3f 22 53 05 bf f9 af f9 be 18 e7 56 bf
       0.71027315 -0.52079976 -0.4876707 -0.8394637
0001f0 04 9d 27 3e 10 84 d6 3d ee 80 18 3f 94 01 14 bf
       0.1636849 0.10474408 0.5957173 -0.5781491
000200 7e c8 88 bf 87 1a 10 bf 5d 38 16 3f aa 2b b1 3e
       -1.0686185 -0.5629048 0.58679754 0.34603626
000210 30 0f a1 3d 6a 60 ee 3e 0b a9 4c bf 5f bd a4 3c
       0.07864225 0.46557933 -0.7994544 0.02010983
000220 71 84 14 3f e8 69 21 3e 5b 02 86 3f 82 40 31 3f
       0.5801459 0.15763056 1.0469469 0.69239056
000230 58 36 34 3e d8 cb 21 3f bb 62 a4 be c6 1b 5f 3f
       0.17598855 0.63201666 -0.32106575 0.87151754
000240 eb f1 fc 3e 1c 6c a0 be 60 de cb bc 83 2a 2c bf
       0.4940332 -0.3133248 -0.02488631 -0.6725237
000250 1b 43 4c bf a6 cd a8 bd b7 89 10 bf dd b0 31 3f
       -0.79789895 -0.08242349 -0.56460136 0.69410497
000260 13 da 25 bb b0 56 b0 3e 8d 7f 94 be 6e 90 53 3f
       -0.0025306984 0.34441137 -0.29003564 0.8264226
000270 d3 85 8a 3f 80 d7 59 3e 00 19 71 bf 30 0e 59 3d
       1.082209 0.21273613 -0.9417877 0.052992046
000280 d4 59 53 3f 51 79 90 3f 94 c1 10 bf 90 06 72 3d
       0.8255894 1.1287023 -0.56545377 0.05908829
000290 b5 dc fd be f5 e2 61 3f 2a 02 9a 3e 6c 93 50 bf
       -0.4958245 0.88236934 0.30079776 -0.8147495
0002a0 18 db 14 3e 48 a1 35 be af 3d a1 be 42 a8 52 3f
       0.14536703 -0.17737305 -0.31492373 0.8228799
0002b0 47 4f c3 be d8 2f 3c 3e ee 8d 34 bd 5f ae 2e 3f
       -0.3814642 0.18377626 -0.044080667 0.6823482
0002c0 eb 94 73 3f 76 c8 58 3f 15 9e f5 3e 9a 30 ff 3e
       0.95149106 0.8468088 0.4797217 0.49841768
0002d0 a4 3b 7c be 47 1b 14 be ee a5 7a 3f 14 e8 2a bf
       -0.24632126 -0.1446353 0.9790944 -0.66760373
0002e0 c1 33 d8 be 0e 06 68 3f b6 ba 3c bf 11 64 61 3f
       -0.42226985 0.9063424 -0.737224 0.88043314
0002f0 9f 1f 3f be 04 73 02 3f ec 2f 0b bf 5c 50 3f be
       -0.18664406 0.5095675 -0.5437 -0.18682998
000300 fa 33 90 3d 21 a6 85 3f 28 4f 91 3f 49 8b ba be
       0.07041164 1.0441324 1.1352282 -0.3643439
000310 7b 87 0a be 34 ba 59 be 44 d8 1c be 68 a2 af be
       -0.13528244 -0.21262437 -0.15316874 -0.34303594
000320 1e ce 13 be 4f 63 ab bd fd a4 39 be 6a e4 2f bf
       -0.14434096 -0.08368551 -0.18129344 -0.6870791
000330 b7 05 52 bf a3 0d aa be 3f 09 4c 3f 86 f1 af 3e
       -0.8203997 -0.3321353 0.7970161 0.34363955
000340 a0 3f 68 3f b7 79 85 be 80 6c ef bd b8 de cb be
       0.90722084 -0.26069424 -0.116906166 -0.39818358
000350 99 7d 7a 3f 2d 5c 32 bf cc a6 eb be ad e5 51 3f
       0.97847897 -0.696719 -0.46025693 0.8199108
000360 5c 7c 2e 3f 3c c3 85 3f 5f 4c 1f 3f 39 9d 84 3f
       0.6815851 1.0450206 0.6222591 1.036048
000370 17 42 2a 3f 42 b0 af 3e c8 77 09 3e b5 fc 32 bf
       0.66507095 0.34314162 0.13424599 -0.6991685
000380 bd 14 31 be c8 97 85 3d af 30 bc 3e 32 11 9b be
       -0.17293067 0.065230906 0.36755893 -0.30286556
000390 c6 cb 20 be 92 c5 ad be 43 d9 18 3f ce 32 4e bf
       -0.15702733 -0.33939797 0.59706515 -0.8054627
0003a0 db f4 8e 3f 6a 74 71 3f af 46 3d 3f 2c 55 11 be
       1.1168474 0.9431826 0.7393598 -0.14192647
0003b0 71 fd 4c 3f bb 63 4b 3f fc 6b be bd e5 ef 22 3f
       0.8007422 0.7944905 -0.0929794 0.636473
0003c0 22 71 29 3f 28 cd 58 3f aa 09 78 3f aa 37 38 3f
       0.6618825 0.84688044 0.96889746 0.71959937
0003d0 54 b6 b0 be 9a bd 74 3f 0f 73 38 3f d0 f0 44 3f
       -0.34514105 0.9560181 0.72050565 0.7692995
0003e0 61 d7 8e 3e e2 5a 23 3f 4c ba 10 be 6d f4 81 3f
       0.27898696 0.6381055 -0.14133567 1.0152718
0003f0 c3 33 f9 3e 9a 8c 54 3e c4 2d 52 bf cc db 8e 3f
       0.48672304 0.2075676 -0.8210108 1.1160827

fc.2.weight f4 [256, 256]
000000 87 ed 18 3c cf b7 c8 3d cc 9e ac 3c 01 f3 9e 3d
       0.009333975 0.09800684 0.021071814 0.07761193
000010 5b 63 87 3c 56 2c 3b 3d 5c 8b 61 bd 90 1a 03 bc
       0.016526869 0.04569658 -0.055064544 -0.008001938
000020 4e ef 56 3d 84 d7 29 be 7c 97 4e bc 93 45 c8 bc
       0.052474312 -0.16586119 -0.012609359 -0.024447238
000030 94 e9 23 bd 1b 75 b0 3d 60 a3 77 3b f4 17 89 3d
       -0.04001768 0.08616086 0.0037786588 0.06694022
000040 9e 23 b7 bc 9a 88 d1 3e e0 40 9d 3d 82 b3 ae bd
       -0.02235585 0.4092453 0.076783895 -0.08530332
000050 76 ea 60 3d 9f 70 98 3c a8 43 56 bd 20 84 cd 3c
       0.0549111 0.01860839 -0.052310616 0.025087416
000060 0b 6b 73 3d c0 3d 12 3e 33 0e b3 3d 13 0b f6 3d
       0.059428256 0.14281368 0.08742943 0.12013831
000070 d6 48 2e 3e ab 76 6f bc c0 54 96 ba da 73 3d 3d
       0.17019972 -0.014615695 -0.0011469349 0.046253063
000080 94 92 91 3c 52 9b 11 3c b6 9f 21 3e e3 bc 1e 3d
       0.01777009 0.008887129 0.15783581 0.038754355
000090 19 e3 aa 3b e0 07 0c 3e ab 61 f5 3e 12 bd 73 bd
       0.0052150604 0.13674879 0.47926077 -0.059506483
0000a0 69 29 b7 3c 34 2c df 3c 7c 79 4d 3d 24 00 6d bd
       0.022358613 0.027242757 0.050164685 -0.057861462
0000b0 f0 9d 7e 3c b5 43 91 3d 2c 45 da bc c2 3d 3c 3d
       0.015540585 0.07092992 -0.026644312 0.045957334
0000c0 80 48 cc 3d 89 de 1e 3e c0 96 ee ba 32 7f e2 3d
       0.09974766 0.15514578 -0.0018202886 0.11059417
0000d0 81 94 a1 bb fa b4 6c 3c 18 d0 52 bc f5 5f b8 3d
       -0.004931033 0.014447445 -0.012866996 0.09002677
0000e0 34 be 8e bd da ff 38 bc c4 cf 82 3c c8 36 c9 3d
       -0.06969872 -0.0112914685 0.015968211 0.09824902
0000f0 d5 3f 27 be c0 3a 84 3d 4e a8 2f 3e b1 59 2c 3e
       -0.16332944 0.06456518 0.17154047 0.1683109
000100 78 87 0b 3c d2 41 50 3d 40 5d 81 bb 10 a4 74 bc
       0.008516185 0.05084402 -0.003947884 -0.014931694
000110 a1 94 e8 3d eb 54 02 3e 90 33 2f 3d 98 bc 0f 3f
       0.11356474 0.12727706 0.042773783 0.56147146
000120 f4 01 f6 3c 18 4b 35 bd 70 32 77 3c d3 6f 64 be
       0.030030228 -0.044261068 0.015087709 -0.22308283
000130 f8 d2 7d bd 2f 1b 8e 3d d7 9f ad be 31 86 0c 3e
       -0.061968774 0.069387786 -0.3391101 0.13723065
000140 79 f4 38 3c 3c 50 e2 3c f9 ca d6 bd 2f 83 bf bc
       0.011288756 0.02762615 -0.10487933 -0.023377983
000150 dd a0 8a bd ee ce d0 3e a9 53 dc 3d 27 32 db 3c
       -0.067689635 0.40782875 0.107581444 0.026757313
000160 15 d0 b4 3c 35 56 d1 3e 11 86 4b 3d 5a f8 10 bd
       0.022071877 0.40886083 0.049688403 -0.035393097
000170 53 bf 92 3d 80 ed 81 bd 87 8a 0d 3d a6 93 dc bd
       0.071653984 -0.06344128 0.034555938 -0.10770349
000180 3f a3 c3 bc 1d da 31 3e 90 ca 67 3c e5 80 2d 3d
       -0.023881553 0.1736836 0.014147416 0.04235925
000190 2d a2 e9 bd 41 e5 2d 3d fd b3 6a be ee bf 9f 3d
       -0.11407886 0.04245496 -0.22920223 0.078002796
0001a0 78 b9 4c 3d 83 4b bc bc c2 c4 04 3e a8 87 9e bd
       0.049981564 -0.022985226 0.12965682 -0.07740718
0001b0 e0 7c c3 3d 80 7f 11 bb a7 d1 ac 3d 6a 1f d7 bd
       0.095453024 -0.002220124 0.084384255 -0.10504039
0001c0 c5 32 0c 3e d2 3e e9 3d 80 5f 78 bd 4e 53 db bd
       0.13691242 0.11388935 -0.06063795 -0.107092485
0001d0 96 01 b8 3d cb 02 10 3b 52 bf 80 3d 75 6b 81 bd
       0.089846775 0.002197432 0.062864915 -0.06319324
0001e0 a5 e5 57 bd 45 e9 43 3e 64 7b 01 3e e8 9d af 3d
       -0.05270924 0.19131954 0.12644726 0.0857504
0001f0 2d 54 09 3d e6 c8 21 3d ca bc b6 3d 4a c2 89 3d
       0.033527542 0.039498232 0.089227274 0.06726511
000200 59 e8 30 3e 1f 92 f8 bc fa cf 14 3e dc a7 7c be
       0.17276134 -0.030343113 0.14532462 -0.24673408
000210 be 38 51 bd 55 c0 54 bd ef 7e 80 bc 57 fe 81 bd
       -0.051079504 -0.051941235 -0.015685527 -0.063473396
000220 44 68 74 3d 80 ef c9 ba b1 1b 2c 3d 82 03 e2 3d
       0.059669748 -0.001540646 0.042018596 0.11035825
000230 94 19 a7 3c a0 d3 ea bd e0 c3 11 3c c8 a2 2e 3e
       0.020397939 -0.114661455 0.008896798 0.17054284
000240 71 2f db 3c 5a 7d 72 bd ac bc 8b 3c b2 bd bc bc
       0.02675602 -0.059201576 0.01705774 -0.023039673
000250 55 14 00 be 5a 0f 29 be 72 77 0a 3d 7c b2 4c 3d
       -0.12507756 -0.16509762 0.03380532 0.049974903
000260 4c 58 1a be 62 5f a0 3c 08 27 94 3d 02 e3 d7 3c
       -0.15072745 0.019576732 0.07234007 0.026353363
000270 fc 21 bc bd 54 ba 49 bd ef aa d6 3e a6 04 40 bd
       -0.091861695 -0.049249962 0.41927287 -0.046879433
000280 84 ed 6e ba a5 dc d3 3d dc 2f 0a bd b0 d5 ea 3b
       -0.0009114372 0.10344819 -0.03373705 0.007166587
000290 3a 61 85 bd e5 68 f6 3d 2c a5 d6 bc fa d9 69 3e
       -0.06512685 0.12031726 -0.026201807 0.22837058
0002a0 80 64 bb 3a 10 e7 68 bd c1 8d cb be 2f 49 d0 3d
       0.0014296919 -0.056860983 -0.39756587 0.10170209
0002b0 80 d8 6f bc f8 c3 78 bc 12 9c da 3c e2 de 94 3d
       -0.01463902 -0.015183441 0.026685748 0.07269074
0002c0 68 dd 31 bd 7b 35 b8 3b ab 88 9d bb 95 c1 ca bd
       -0.04342404 0.0056216097 -0.004807552 -0.09900204
0002d0 88 e0 ae bc c2 a0 48 bc 3e 17 b4 be 81 1c 21 3e
       -0.0213473 -0.012245359 -0.35173982 0.1573353
0002e0 ea 83 1e 3d 4d a8 61 3d f9 8e a3 3d 31 47 34 3c
       0.03870002 0.055092145 0.07986254 0.0110033015
0002f0 1c 68 ce 3d c5 33 4d be 9a 40 3f bd d9 bc bd 3c
       0.10078451 -0.2003928 -0.04669247 0.023161339
000300 0f 38 0d 3e a2 94 da bd 22 97 00 3d e0 80 2a 3e
       0.13790916 -0.10672881 0.03139413 0.16650724
000310 08 86 3e bc 78 5e 17 bd 4e 5c 2e 3d fd c1 65 3d
       -0.011628635 -0.036955327 0.042568497 0.056093205
000320 f1 5f 8b bd d2 38 0f bc 9b b3 40 bd 06 73 77 bd
       -0.06805409 -0.008741574 -0.047046285 -0.06041243
000330 f7 51 b7 3e ac 5a 15 bd 36 26 9a 3d 18 79 d0 bc
       0.35804722 -0.036463425 0.075268194 -0.025448367
000340 5b 29 54 be 1d a6 44 be 30 01 37 3d c6 5a ea 3d
       -0.20718901 -0.19203992 0.044678867 0.11443095
000350 3b f2 59 bd 62 93 60 bd 6a 1b e2 bc 36 2a d2 bd
       -0.053209525 -0.054828055 -0.027600963 -0.10261957
000360 99 7f 44 3c a1 57 03 be c5 2f 0b 3e 87 5c 92 3d
       0.011993312 -0.12826397 0.13592441 0.071465544
000370 de a4 31 3e e0 63 de bb b0 1e 61 bc 28 b9 0d 3d
       0.17348048 -0.0067868084 -0.013740227 0.034600407
000380 16 1d dd 3d fa 91 35 bd 54 f5 08 3f 64 32 e0 3c
       0.10796563 -0.044328667 0.5349934 0.027367778
000390 e2 9f 1d bd c6 d8 f7 3d c3 86 d2 bd de 67 6c 3e
       -0.038482554 0.12101893 -0.1027961 0.23086497
0003a0 45 fa 2f 3e 50 e0 c8 ba 4d 39 6f 3c 24 08 cb 3c
       0.17185314 -0.0015325639 0.014601064 0.024784155
0003b0 a0 a3 22 3d 0b b2 03 3e 46 7f a1 3b 20 79 0d bc
       0.039706826 0.12860887 0.0049285023 -0.0086348355
0003c0 a4 ad ae 3d 06 01 27 be 4c 3a ad 3c af 0a 2f be
       0.08529213 -0.16308984 0.021145962 -0.17093919
0003d0 88 9c 26 bc 1d 1e 26 bd 18 d2 fe 3d 77 f9 31 bd
       -0.010169156 -0.040556062 0.12442416 -0.0434508
0003e0 1b 81 76 be 55 79 b4 3d c6 f3 0b 3d ea 40 b6 3a
       -0.24072687 0.08812205 0.034168027 0.0013904844
0003f0 21 77 99 be cd c3 ad 3d 33 73 8b 3a 06 6b 7e 3b
       -0.299737 0.08484612 0.001063919 0.0038821115

fc.2.bias f4 [256]
000000 77 37 c1 3d 23 f8 47 3e 2c 3c c3 3c 8b 73 9d 3c
       0.09434407 0.1952825 0.023832403 0.019220134
000010 c9 c8 50 3e ce ab 01 3d e0 f6 7c bb 5d 0b 26 3e
       0.20389093 0.031657986 -0.0038599297 0.16215272
000020 a4 eb 39 3e ec b6 fc bd c9 36 c9 bc 79 21 8e 3b
       0.18156296 -0.12339577 -0.024562256 0.0043374863
000030 73 ba 58 3e 3e da b5 3d a4 f5 28 3d f8 4c 69 3d
       0.21164875 0.08879517 0.041249886 0.05695817
000040 58 f5 d0 3c a8 96 66 3d 3b 38 6c 3e e8 c2 cb bc
       0.025507614 0.05629602 0.23068325 -0.024873212
000050 34 e5 ae 3d ec 34 66 3e 4e fa 84 3e af f3 5d bd
       0.08539811 0.22481126 0.25972217 -0.054187473
000060 51 97 3f 3e ee a3 b2 3d a0 96 06 3c a2 df 16 3e
       0.18710066 0.08722673 0.008214623 0.14733747
000070 fd 8d b3 bd a8 be 3f 3c f8 0c 90 bc 00 e0 f6 38
       -0.087673165 0.011703171 -0.017584309 0.00011771917
000080 68 d1 14 3d 58 42 65 3d 31 63 be 3d 89 c8 2f bd
       0.036332518 0.055971473 0.09296263 -0.042915855
000090 5b 38 fe bc 34 5c dc bc 27 fc e2 3c 30 3c 01 bd
       -0.031032732 -0.026899435 0.027708126 -0.03155154
0000a0 9f 7c 2b 3c 27 b3 55 3e 8f 32 84 3d 61 bb 9b 3e
       0.010466724 0.20869122 0.06454956 0.30416396
0000b0 64 82 44 bd 9d 18 f7 3d 70 d8 59 3e 80 07 4b 3d
       -0.047975913 0.120652415 0.2127397 0.0495677
0000c0 b0 32 72 bd d4 da 44 3e 60 34 14 bb fb 48 97 3e
       -0.05913037 0.19224101 -0.0022614226 0.29547867
0000d0 3e 3d b5 3d 69 ca 8d 3c b5 77 37 3e 2e 1e f2 3d
       0.08849572 0.01730843 0.17916758 0.118221626
0000e0 7c 3d b0 3e 70 84 6d bd af 1a a0 3d b3 e3 7b 3e
       0.3442191 -0.05798763 0.078175895 0.24598579
0000f0 6e ae 9b 3d ba 6f 2e 3e fb f8 b8 3c 14 ea 97 bc
       0.07601629 0.17034808 0.02257966 -0.018544234
000100 70 fc 77 bd 0e 01 5b 3e 80 6e 48 3b ce c4 32 bd
       -0.060543478 0.21387121 0.0030583441 -0.04364472
000110 b0 fd 3a 3c f0 8b a8 3b 07 44 f6 bc a8 f6 4b 3d
       0.011413023 0.005143635 -0.030061735 0.049795777
000120 0b 1b be 3a 32 d1 39 3d 86 38 72 3d ca 08 5f 3d
       0.0014503909 0.04536552 0.059135936 0.05445174
000130 6d de a0 bc 6c 11 6e ba 16 29 0d 3d 3e 79 29 3d
       -0.01963731 -0.00090815756 0.03446301 0.04137539
000140 c7 fa 5f 3e 3b a2 87 3e 01 9f e7 3b 00 86 3a 3b
       0.21873008 0.2649096 0.0070685153 0.0028461218
000150 91 d6 d3 3c 93 cb 22 3e f9 ae 9c 3e ad 4c 07 bc
       0.02585915 0.1589797 0.30602244 -0.008258027
000160 e0 04 07 bc 67 1b 87 3e 39 88 52 bd ab d8 8e 3c
       -0.008240908 0.26388094 -0.051399443 0.0174373
000170 21 1f 78 3e af 5b cf 3c b1 f6 b0 3e bc a2 64 3e
       0.24230625 0.025312273 0.3456321 0.22327703
000180 20 49 30 bd 68 86 6f bd ce 54 ca bb c0 c2 ba 3e
       -0.043038487 -0.05847779 -0.0061746603 0.36476707
000190 c8 f4 ea bc 93 cc c1 3d a0 fa c6 3c 76 39 84 3d
       -0.028681174 0.094628476 0.02428943 0.06456272
0001a0 8e 1f fe bb 51 79 94 3d 66 6f 38 3c 9d 36 94 3d
       -0.0077552265 0.07249702 0.011257028 0.07236979
0001b0 c8 3c ed bc 41 15 9e bd 56 df 8a 3c 19 03 12 3e
       -0.028959647 -0.077188976 0.016952198 0.14258994
0001c0 78 e7 cb 3b a2 44 13 3e a4 c6 a3 bc 54 d0 a1 3d
       0.0062226616 0.1438165 -0.01999218 0.079010636
0001d0 19 ea 3c bd 47 18 36 3e 77 98 0a 3e b0 17 ec 3b
       -0.04612169 0.17782699 0.13534723 0.007204972
0001e0 d4 01 0f 3e 8a 65 c1 3d 7e a8 e7 3d 5b 85 fd 3b
       0.13965541 0.09443195 0.11311434 0.0077368445
0001f0 71 a7 46 bc d6 9c 14 3d 95 e8 3e 3d 10 79 0b bc
       -0.012124882 0.036282383 0.046608526 -0.00851275
000200 c0 96 8d 3b 4a 0c 7d 3e 1f 56 ce 3d f1 95 52 bd
       0.0043209493 0.24711719 0.1007502 -0.051412527
000210 e6 1c cc bc 3f 65 0d be c4 f8 52 3e 05 8e 0b bb
       -0.024916124 -0.13808154 0.20602709 -0.0021294367
000220 9a 8f 59 bd d4 e8 03 be 4a 5c 6a 3d 91 12 eb 3d
       -0.053115465 -0.12881786 0.05721692 0.11478151
000230 38 bd eb 3c ed 76 6f 3e e7 a5 05 3e 07 55 3a 3e
       0.02877675 0.2338521 0.13051568 0.18196498
000240 a8 b5 00 bc e1 15 32 3e a2 90 51 3e 91 f2 35 3e
       -0.00785581 0.17391159 0.2046533 0.17768313
000250 74 ea 76 bc 80 af 58 3e e0 6c 2c 3e 48 63 4c 3e
       -0.015070546 0.21160698 0.16838408 0.19959748
000260 ae 7e 4d 3e 15 ee 35 bc 3a 7e 78 3d 72 ad 3f be
       0.20067856 -0.011104126 0.060667254 -0.18718508
000270 c2 2b 08 3c e4 4e c2 bc 0b ed c3 bc 20 56 95 3b
       0.008311214 -0.023719259 -0.023916742 0.004557386
000280 dc 14 75 bd 98 47 77 bd 8c 37 1a bd 3c 61 17 bd
       -0.059834346 -0.06037101 -0.03765063 -0.036957964
000290 3f 94 32 3e 7f 11 45 bd a6 15 79 3d 89 aa 01 be
       0.17439364 -0.04811239 0.06081166 -0.1266271
0002a0 c0 fa 7d 3e 52 d0 e2 3b 07 33 83 bc 38 27 78 3d
       0.24802685 0.0069218064 -0.016015543 0.060584277
0002b0 32 f3 02 3d ef f2 e3 3c 21 9f 60 bc 69 f9 d0 bc
       0.03197021 0.0278258 -0.013709814 -0.025509553
0002c0 fa ae 08 3d b0 4c 53 bb 28 1b bb 3d 6e 44 37 bd
       0.033369996 -0.0032241754 0.09136039 -0.044742994
0002d0 f0 e1 ae 3e a6 ae 7b bc a6 1f eb bc f2 50 07 3d
       0.34156752 -0.015361464 -0.028701615 0.03303618
0002e0 9d 07 b1 3d 8d e4 54 bd 7e 4e a2 bd 03 a6 09 3e
       0.0864403 -0.051975776 -0.079251274 0.13442235
0002f0 cf 8c 2e 3d 82 a4 81 3e 9d 75 df bc 90 4d af bb
       0.042614754 0.25320822 -0.027277762 -0.0053498223
000300 3c e5 dd 3c a0 ed 83 bb 82 bf 4d 3e 9e 00 6d 3e
       0.027086847 -0.00402613 0.20092586 0.23144767
000310 d8 13 67 3d 63 9a af bc dd 35 3c bd d0 ab fa 3b
       0.05641541 -0.021435922 -0.045949806 0.007649876
000320 b2 d7 60 bd 46 64 d5 3e b5 7e 8c 3e d1 d7 4a 3e
       -0.054893203 0.41678065 0.2744042 0.1980889
000330 b4 bf 0e 3d 58 69 57 bd 0c 80 9f bd 8d 1b 6c 3d
       0.03485079 -0.052590698 -0.07788095 0.057643462
000340 61 51 6a bd 70 86 66 3d 18 d3 eb 3c 68 c6 6a bd
       -0.057206515 0.056280553 0.02878718 -0.05731812
000350 1c 3a 8b 3c 0e 2d 9d 3d c0 12 66 bc 74 43 86 bc
       0.016995482 0.07674609 -0.014042556 -0.016389586
000360 8a e9 7f 3d 47 f2 6b 3e 23 2d bc bc 51 fc 30 3e
       0.06247858 0.2304164 -0.022970742 0.17283751
000370 fa e1 47 be b0 a3 89 bd 60 00 c6 3b 1c 6c d7 3d
       -0.19519797 -0.06720674 0.006042525 0.10518667
000380 80 30 0e 3e 39 aa 8e 3e f9 06 32 3e 7b 04 5f 3d
       0.13885689 0.27864245 0.17385472 0.054447632
000390 59 88 2a bd c8 c4 58 3e 2a fa 3c 3d c0 ac 34 bc
       -0.041633938 0.21168816 0.046137013 -0.011027515
0003a0 e3 56 03 3f c7 d3 25 3e 5b 5a 75 3d 97 6e b2 3e
       0.51304454 0.16194068 0.059900623 0.34849998
0003b0 06 23 4d 3e 92 d4 a0 3e a0 57 ec bc a2 a7 e9 3d
       0.20032892 0.31412178 -0.028850377 0.114089265
0003c0 29 e1 c5 bd ec 8d 36 3d c3 c9 72 bd 12 72 5a 3e
       -0.096620865 0.04456894 -0.059274446 0.21332577
0003d0 2f 0a 9d bc e7 9a 7f 3e d6 65 05 3e 26 43 20 bd
       -0.019169895 0.24961434 0.13027129 -0.039126538
0003e0 c0 e4 11 3d ba af 98 3e d7 4b 91 3e 1f 2c 89 bc
       0.035618544 0.2982157 0.28378174 -0.016744671
0003f0 2f 11 72 3d 7d 7c e3 3b 54 9f 0f 3e 90 5b 4d 3e
       0.05909842 0.0069423304 0.14025623 0.2005446

fc.4.weight f4 [128, 256]
000000 0f 3f 7c bc c5 54 23 bd 66 25 35 bd 84 94 2f 3d
       -0.015395894 -0.039875764 -0.04422512 0.042866245
000010 bc ec 11 3d ee 8e 11 3d 64 0e 77 bd 35 b7 ab 3c
       0.035626158 0.0355367 -0.06031646 0.020961383
000020 b9 5a 0c bb 44 61 b2 3b a8 69 6f bd 34 50 00 3d
       -0.002141638 0.005443724 -0.05845037 0.031326488
000030 d1 f4 2f bd f2 a2 2d 3d c0 6f 32 bc 00 a2 bc b9
       -0.042958084 0.042391725 -0.010890901 -0.00035978854
000040 93 34 65 bc 5a 37 4a 3d df a3 7c bd 10 c1 03 bd
       -0.013989585 0.049369194 -0.061679717 -0.03216654
000050 b3 b9 06 3d ed 05 00 3c ab 46 99 3b 18 a6 22 3c
       0.03289194 0.007813913 0.0046776137 0.009927295
000060 a5 83 f4 3c c7 fb b1 bc 40 f4 ee 3b ff cd e8 bb
       0.02984793 -0.021726502 0.0072923005 -0.007104635
000070 b7 8e e0 3c 18 05 71 bd d0 b3 e5 3c 86 ac 13 3d
       0.027411802 -0.05884275 0.028039843 0.036053203
000080 70 e0 46 bd 23 b2 89 bc 0e 53 86 bc 8e 30 20 3d
       -0.048553884 -0.016808575 -0.016397025 0.039108805
000090 00 aa 49 3a 4c 8c 9f bc 4c 87 b1 3c 7e 90 01 3d
       0.00076928735 -0.019476078 0.02167096 0.03163194
0000a0 e8 eb 6e 3c 5f 47 08 bd 29 23 77 bd ab 3d 73 bc
       0.014582612 -0.03327119 -0.060336266 -0.014846246
0000b0 a2 0b 31 3d 57 33 bc bb fb 77 4d bd 88 24 05 bd
       0.043223985 -0.005743425 -0.05016325 -0.032505542
0000c0 94 d2 cd bc 70 25 6b bc 70 c6 9e 3b 1a 94 92 bb
       -0.025124826 -0.0143521875 0.004845433 -0.0044732215
0000d0 f4 2c 09 3d 6c 86 16 3d 75 54 2f 3c 8e c6 8f 3a
       0.033490136 0.03674929 0.0107012885 0.0010969208
0000e0 01 10 d2 bb ec 68 cb 3c 9b 83 9d 3b 14 81 6d bd
       -0.006410599 0.024830304 0.0048069484 -0.057984427
0000f0 e8 63 75 bd 45 b9 ef 3c 9a d3 2e bd b8 ec ca 3c
       -0.05990973 0.029263148 -0.042682268 0.02477108
000100 50 9d 4d bc b3 ca df ba 24 56 31 3d 38 ce 45 3c
       -0.012549713 -0.0017073959 0.04329504 0.012073092
000110 c6 e0 07 bd 56 38 7d bd d0 20 b5 bb 78 3c 58 bd
       -0.033173345 -0.061821304 -0.005527593 -0.052792042
000120 00 70 9f bb d8 a2 64 3d c4 58 58 3d 9c 84 66 bd
       -0.0048656464 0.055819362 0.05281903 -0.05627881
000130 4c 25 07 bc 60 d2 23 3b b6 75 3f bd 64 05 c8 3c
       -0.008248638 0.002499722 -0.046743117 0.024416633
000140 dc ee 4b 3b ec a7 13 bd c9 e4 9a 3c 90 11 64 3d
       0.0031117713 -0.036048815 0.018907921 0.05568081
000150 70 e4 56 3d 72 1c c5 3c 37 dd 40 bb b0 54 2c bc
       0.05246395 0.024061415 -0.002942873 -0.010518238
000160 e4 35 35 bd 78 cc 38 bd 96 5b 8f 3c 90 14 d5 bc
       -0.044240847 -0.04511687 0.017499726 -0.026010782
000170 ba 08 13 bc 50 c4 ec 3c 7e a1 ca 3b 94 f2 39 3d
       -0.008974249 0.028902203 0.006183802 0.045397356
000180 96 eb 47 3d 88 d4 21 3c 10 b2 09 3c a6 56 7f 3d
       0.048808657 0.009877332 0.00840427 0.062338494
000190 62 ec 40 bd b0 b2 38 3d 20 cc 0f 3c 84 79 66 bd
       -0.047100432 0.045092285 0.008776695 -0.05626823
0001a0 69 5c de 3c dc d6 e1 ba ac 70 00 bd cc 94 24 bd
       0.027143674 -0.0017230171 -0.031357452 -0.040180966
0001b0 60 f7 7d 3d 00 75 4f bb 7f a2 cf 3c c2 f9 80 3b
       0.062003493 -0.003165543 0.025346039 0.0039360235
0001c0 30 2a 5f bc ac 61 be bc f6 fc 25 bd 7a 2d a9 3b
       -0.013620898 -0.023239933 -0.040524445 0.005162892
0001d0 d0 78 5c 3c 81 d6 83 bb a3 ff f6 bc 8e 62 0a 3d
       0.013456538 -0.0040233736 -0.030151194 0.033785395
0001e0 d9 ab 1c 3d 5f 5b 16 bd 6d 7f 1b bc ac 24 86 bc
       0.038249824 -0.036708232 -0.00949083 -0.016374908
0001f0 a3 2a c6 bc ac da bc 3c 9a 43 7d bd 84 d3 9f bc
       -0.024190253 0.02305349 -0.061832048 -0.019510038
000200 70 59 1d bd db 4e e6 bc e7 94 6b bc 50 02 4e 3d
       -0.038415372 -0.028113773 -0.014378763 0.050295174
000210 40 7b c5 3c 95 ab 0b bd 8d 9c 2f 3c 2e fa 3f 3d
       0.024106622 -0.03409918 0.010718477 0.04686945
000220 90 df f8 3c b8 dc 9d 3a 9a b3 1f 3d 90 1f ee 3c
       0.03038004 0.0012043929 0.03898964 0.029067785
000230 24 7e cd 3c ed e2 49 bd 19 91 11 3d 3b 46 10 bd
       0.025084563 -0.04928868 0.035538767 -0.035223227
000240 00 07 5a 3b e5 0b 0c bd 51 0d 28 bc fc 44 65 bd
       0.0033268332 -0.03419103 -0.010257081 -0.05597399
000250 f0 3e db 3b 73 d0 33 3c 53 46 75 bc a6 08 ad 3c
       0.0066908523 0.010974991 -0.01497038 0.021122288
000260 72 8c 54 3d 78 79 3d 3c fc 8e 84 3c 01 af 12 3d
       0.05189175 0.011564605 0.016181462 0.035811428
000270 2f 6b 63 bd e8 99 6a bc d0 99 42 3c 32 7d 1d bd
       -0.05552214 -0.014318921 0.011877492 -0.038449474
000280 2a 5d 62 3d ac 6f ee bc b0 7f 63 bc a8 38 3c bc
       0.05526463 -0.029105984 -0.013885424 -0.011488117
000290 cb b6 5d 3d 00 c6 2f 39 d8 2e 92 3c 94 be 8e bc
       0.054129403 0.00016763061 0.017844602 -0.01742486
0002a0 38 01 93 3c 90 b3 fd bb 7e 4e 67 bd 3a 36 66 3d
       0.017944917 -0.007742353 -0.05647134 0.05620406
0002b0 ef 77 02 3c 51 d2 7a bd d8 d6 20 3c f3 a3 6e 3a
       0.007963165 -0.06123573 0.009816848 0.000910341
0002c0 f0 24 53 bd 63 ac a3 3c 8d ee 86 bc a4 3e 30 3b
       -0.0515489 0.019979661 -0.016471172 0.0026892805
0002d0 a3 aa 23 3d 18 07 5a 3c c8 3a 76 3d 44 76 ff bc
       0.039957654 0.013307355 0.060114652 -0.031184323
0002e0 95 f9 2b 3d f4 9c e9 bc 00 f9 bd bb 9c 87 bb bc
       0.041986067 -0.028517224 -0.0057975054 -0.022891812
0002f0 27 ad 0d bd 69 f9 57 bd d3 7c 4a bc 04 fb aa 3c
       -0.03458896 -0.05272809 -0.012358862 0.020871647
000300 5c 93 00 3d 8c 4c 1c bd 6f 8b 13 3a 34 b2 1d 3c
       0.031390533 -0.03815894 0.0005628382 0.0096250065
000310 56 ff 7c bd 12 86 65 bd be ac 73 bd 44 57 9f bc
       -0.061766945 -0.056036063 -0.05949091 -0.019450791
000320 d0 73 dc bb a0 26 7b 3c d0 9d fd bc c0 30 99 bc
       -0.006727673 0.015329033 -0.03095904 -0.018700004
000330 10 1b 34 3d dc 36 93 bc 04 25 bb bc b0 bd 92 3c
       0.04397112 -0.017970495 -0.022844799 0.017912716
000340 51 55 27 3d 44 bd 48 3d 06 f6 55 3d 5c 26 d7 3c
       0.04085285 0.049008623 0.05223658 0.026263408
000350 ac b1 3a 3d 97 a4 cd 3c 34 01 c1 bc 54 9f 84 bc
       0.045579597 0.025102897 -0.023560144 -0.016189255
000360 0a 3d 1b 3d ba 26 24 bd 40 93 98 bb 7b 9a 1f bd
       0.03790001 -0.040075995 -0.0046562254 -0.038965683
000370 31 fe 7e bd 7e dd 57 3d 84 e1 60 3c 3a 4b c5 3b
       -0.062254135 0.052701466 0.013725642 0.0060209306
000380 84 f5 60 3d c5 0a 10 3d 11 49 50 3d a0 6e 00 3b
       0.054921642 0.03516652 0.05085093 0.0019597188
000390 f0 35 3d bd 2d b3 4d bd 1c 9e 92 bc 70 fe f6 3b
       -0.046194017 -0.050219703 -0.017897658 0.0075376555
0003a0 09 fe 4e bc 77 e6 2d bc 99 97 68 3d c6 56 03 bd
       -0.012633809 -0.010614029 0.0567852 -0.032065175
0003b0 0b 04 46 3d 0c fd 93 bc bc bf 49 bd 31 49 02 bc
       0.0483437 -0.018064998 -0.049255118 -0.0079520205
0003c0 f7 69 7b bd b3 c7 44 3d 40 02 48 3d d5 f8 32 3d
       -0.061380353 0.04804201 0.04883027 0.043694336
0003d0 c3 91 f8 bc 51 78 b3 bc 53 17 82 bd 7e 81 35 3d
       -0.030342942 -0.021907957 -0.06352105 0.044312946
0003e0 78 80 bf 3c 0f 4b bd 3c fa ff 5c bc 5e 6d 6a bd
       0.023376688 0.02310708 -0.013488764 -0.057233207
0003f0 a8 06 3b bd 65 a0 83 bc 69 55 64 3d 56 d8 88 3c
       -0.045660645 -0.016067693 0.055745516 0.01670472

fc.4.bias f4 [128]
000000 57 20 af bc 01 fb 97 3c ab 89 67 3d bc 27 20 bd
       -0.021377726 0.018552305 0.056527775 -0.039100394
000010 ce 95 55 3c 08 d5 e8 3c 35 25 ba 3c 13 5c 12 3d
       0.0130362045 0.028421894 0.02272282 0.03573234
000020 16 c2 50 bb c0 e8 26 3d 38 3f a4 3c 07 0c b7 bd
       -0.0031853965 0.04074931 0.020049676 -0.08937841
000030 59 6d a2 bc fe 5b d0 3d 6a 65 6a bd e8 1b 61 bc
       -0.019827532 0.10173796 -0.057225622 -0.0137395635
000040 69 b9 18 3e 80 79 44 3c d7 8e f5 bc c5 77 61 bd
       0.14914478 0.0119918585 -0.029975338 -0.05504586
000050 00 0a f4 b9 2d 1f d9 3d fe bc b1 bc a3 29 2f 3c
       -0.00046546757 0.106016494 -0.021696564 0.010691079
000060 aa 8a 70 3d 58 1f eb 3b 80 b4 2a 3b c0 e5 4f 3d
       0.05872599 0.0071753673 0.0026047528 0.050756216
000070 48 a6 2c 3d b3 80 ef 3c 65 b3 a5 bd ef 80 ac bd
       0.042150766 0.029236173 -0.080908574 -0.0842303
000080 fa 14 75 bc c3 88 9f 3d 35 35 05 3c d0 d1 96 3c
       -0.0149586145 0.07789757 0.008130361 0.018410593
000090 e9 28 2b 3c e0 5c e7 bc bb 55 98 3d a8 c7 34 bd
       0.010446765 -0.028242528 0.07438227 -0.04413572
0000a0 3d a5 ae 3c 10 8a fa 3b ea 86 95 bd 2f 96 6c bd
       0.021319026 0.007645853 -0.073011234 -0.057760414
0000b0 5a f7 2f bb a6 68 d8 3d ed 27 16 be db 26 be 3d
       -0.0026850314 0.10566835 -0.14663668 0.09284755
0000c0 a0 47 2c 3c 90 4a 85 3d b0 e0 98 bd 08 44 63 bc
       0.010515124 0.06508362 -0.07464731 -0.0138712
0000d0 f0 e4 95 bd b0 fb 46 bd 69 8e 1c 3e a6 8e 24 bd
       -0.07319057 -0.04857987 0.152887 -0.040175103
0000e0 7c 68 78 3c 18 20 58 bc ee 92 cf 3d 47 7e 11 3c
       0.01516163 -0.0131912455 0.101354465 0.0088802045
0000f0 69 e1 37 3d 90 85 a4 3c a0 59 43 3d f5 9d 43 3d
       0.044892702 0.020083219 0.047692895 0.04775806
000100 0d a0 42 ba cc 1c a1 3c f5 c3 d6 3c 1d de 38 bc
       -0.0007424362 0.019667052 0.026216486 -0.011283425
000110 47 5f ad bd a4 79 aa bc 54 fa b8 bd 35 11 10 bd
       -0.08465438 -0.020809956 -0.09032121 -0.03517266
000120 30 0e 95 3c 74 be 7c bd fe 1e 77 bd a7 5d 18 bd
       0.018195242 -0.061705068 -0.06033229 -0.03719869
000130 57 b5 b0 bd 38 47 3d 3e b6 c1 82 bc 35 9d 83 3d
       -0.08628338 0.18484199 -0.01596151 0.06426469
000140 df 58 8c 3c 9b fe 5b bd 3f 21 80 bc 2a 52 b0 bd
       0.01713222 -0.053709608 -0.015640853 -0.086094216
000150 79 58 3c bd 46 b3 e5 be dd 62 6b bd 13 d9 1c 3d
       -0.04598281 -0.44863337 -0.05746733 0.038292956
000160 e9 55 1a 3d 44 6b 1c 3e 22 bf 9f bc 49 cd 19 bd
       0.037679587 0.15275294 -0.019500319 -0.03754929
000170 27 0f 23 3d 68 46 9c 3c 92 9d 3b 3c 7c f3 9a ba
       0.039809372 0.019076541 0.011451142 -0.0011821832
000180 52 6e 52 3e d1 75 41 bd 64 58 c3 bc bd 66 29 bd
       0.20549896 -0.0472315 -0.023845859 -0.041357744
000190 df 7a 1b 3e 38 6e 14 3e 98 10 63 3d 3c 5e b2 bd
       0.1518359 0.1449517 0.055435747 -0.0870938
0001a0 98 56 11 3c 1b 97 2e 3d 3a 5d d8 3d 57 fa 52 3c
       0.008870743 0.042624574 0.105646566 0.0128770685
0001b0 7b 85 3b 3a 18 ff 2a bd 58 4e 0e 3e ca 54 48 3d
       0.0007153374 -0.041747183 0.13897073 0.048908986
0001c0 12 a0 41 3e 5e 20 7a 3d 0e b3 c1 3d 10 dc 59 bd
       0.18908718 0.061066024 0.0945798 -0.053188384
0001d0 fe d5 04 3e 5c 62 9f 3d 01 79 39 3d bb 87 5d bd
       0.12972257 0.077824324 0.045281414 -0.05408452
0001e0 e6 5f 13 bd 31 c1 fd bd c6 66 f9 3a e1 09 e5 3c
       -0.035980128 -0.12390364 0.0019027821 0.027958812
0001f0 cf 64 23 bd 92 79 b1 3d d6 b2 51 bd f2 01 a4 3c
       -0.03989106 0.08665766 -0.051195942 0.020020459

fc.6.weight f4 [4, 128]
000000 73 34 5e 3d 86 d9 7d 3d e1 a5 1b 3c 74 f8 63 bd
       0.05424924 0.061975025 0.009499998 -0.055656865
000010 2c 9b df bc 21 20 89 3e d0 fc 45 bd c8 84 9f 3d
       -0.027295671 0.26782325 -0.048336804 0.07788998
000020 8a df d4 3d 3a fa 9c 3d 4d af a4 3d 67 ed e8 3e
       0.10394199 0.076649144 0.080412485 0.45493624
000030 36 0e 51 3d 0a f1 b4 bf 95 48 09 3d 6c fb ec bc
       0.051038943 -1.4136059 0.033516485 -0.028928481
000040 c0 1d 3d 3d a4 03 a9 3d ba 91 0c 3d 06 5f 34 3d
       0.04617095 0.082526475 0.034318663 0.044035934
000050 49 5a a2 3d 41 c1 ae be 8c 05 5d bd ae 55 ed 3d
       0.07927377 -0.34131816 -0.053960368 0.11588608
000060 65 b7 ff 3d ef 6b b0 3e 88 4f 8b bd 64 67 5e be
       0.124861516 0.34457347 -0.06802279 -0.21719128
000070 25 1b 64 3d 5e 96 65 3d 93 d1 68 3e a1 c7 fc bc
       0.05568995 0.056051604 0.22736196 -0.03085691
000080 6d 11 00 3d a8 5c 70 be 73 3b 0c 3c bf 1a 07 bd
       0.03126662 -0.23472846 0.008559096 -0.03298449
000090 4a 58 69 3c 2c a5 90 3c f4 01 23 3e c4 4a 7f 3d
       0.014242241 0.017656885 0.15918714 0.06232716
0000a0 0d 7f b0 bd e6 58 8e bd 62 d3 dc be da ec 08 3e
       -0.08617983 -0.0695055 -0.43130022 0.13371602
0000b0 39 5e e6 be 80 43 5a bd 2c 2d 5b be a4 2b 93 3e
       -0.4499376 -0.05328703 -0.2140395 0.28744233
0000c0 a5 23 f8 3d 68 db 23 3e 36 73 b2 bd b0 06 06 bd
       0.12116174 0.16001666 -0.08713381 -0.03272122
0000d0 e4 cb 4d 3e c8 5e b7 3d a7 26 1e 3e 4b 0c 23 bd
       0.2009731 0.08953625 0.15444432 -0.039806645
0000e0 21 8a 20 be 99 f0 99 bd d9 b7 44 bf 48 44 f3 bd
       -0.15677692 -0.075165935 -0.7684303 -0.11878258
0000f0 cf 80 98 3d 8c 69 1c bd f3 7e 50 3e e2 ce 5d 3d
       0.07446443 -0.038186595 0.20360927 0.054152377
000100 01 84 1a 3e 4a c5 10 be e2 b6 59 bd be eb 12 3d
       0.15089418 -0.1413776 -0.053152926 0.035869353
000110 77 96 0b 3e 85 be 2e be 7a c6 d7 3d 03 10 9c bc
       0.13631617 -0.17064865 0.10535903 -0.019050604
000120 53 7b e6 be 3a 6e 95 3d 83 d8 72 3d 8f 28 10 bd
       -0.45015964 0.07296415 0.059288513 -0.03519493
000130 c0 b5 9e 3e fd 57 46 be 4a d6 4f 3e 32 0b a3 be
       0.3099804 -0.19369502 0.20296589 -0.3184448
000140 87 57 d7 bd 25 09 19 3e e1 4c e1 ba 84 80 77 3d
       -0.105147414 0.14944895 -0.0017189049 0.060425296
000150 a0 a8 0f 3d 6c 0f 08 3b 59 b2 a1 3d 16 28 a6 bc
       0.035072923 0.0020761145 0.07895345 -0.020282786
000160 4f 4a b7 3e 02 e0 f6 3d c6 90 8a 3d 3c 17 1e bd
       0.3579888 0.12054445 0.067658946 -0.038596377
000170 d9 9b ab bd b3 d0 80 bd 0c a2 cf be 86 6b de bc
       -0.08379335 -0.06289806 -0.4055332 -0.02715088
000180 86 fb ed 3d fb 4e b9 3e cf 9e 27 3e a5 53 10 be
       0.1162024 0.3619307 0.16369174 -0.14094408
000190 97 eb b2 3d 4f 50 3f be 08 8f 70 3b 75 1c 4c bd
       0.087363414 -0.18682979 0.0036706347 -0.049831826
0001a0 10 85 7b bd 63 90 30 bd 4e 7f 57 bf 23 b3 37 bf
       -0.061406195 -0.043106448 -0.84178627 -0.71757716
0001b0 49 1a 49 3d 81 34 9b be 5d 77 80 be dd dc 99 3d
       0.049097333 -0.30313495 -0.25091067 0.075128295
0001c0 0c 36 50 be 9b 16 2e be 42 e6 88 3e cc f9 e2 3c
       -0.20333117 -0.17000811 0.26738173 0.027707003
0001d0 9a 3a 30 3e 97 e9 05 3e 88 9b c4 3d 3f af a1 3e
       0.17209855 0.13077389 0.09599978 0.31579015
0001e0 d1 1a 55 3e 6a 64 61 be 5f 6b ae 3d 38 55 69 bd
       0.20811011 -0.22010961 0.08516573 -0.056966037
0001f0 c2 e0 d5 3d b0 4a fe 3d 23 2c 7a 3c 12 00 98 3d
       0.1044326 0.12416589 0.015269312 0.074218884
000200 7b 79 93 3d 05 33 2d 3e 60 5c 8c 3d 9f 8a 1d 3d
       0.07200905 0.16913994 0.06853557 0.038462278
000210 4c 44 26 3e c0 d3 a9 3d 8c a5 4c 3e 43 a4 a4 3d
       0.1623699 0.08292341 0.19985026 0.08039143
000220 4a 0e 27 3e f9 75 63 3d 19 2b 27 3d a4 ab c1 bd
       0.16314045 0.05553243 0.040812586 -0.09456566
000230 0e 2a 8f 3d 94 3c 06 3e 71 a0 3a bc ae 75 40 3e
       0.06990443 0.13109046 -0.011390791 0.18794891
000240 ea ff ac bd 93 f1 82 3d c4 71 94 3d 78 ec 91 bd
       -0.08447249 0.06393733 0.072482616 -0.07125181
000250 af 9a 6d bd 2f 29 4d 3c 76 4a 30 3d 87 a0 fb 3c
       -0.058008846 0.012522026 0.04303976 0.030716194
000260 ec 2a 4b bd e8 d3 28 3e 6c e5 b4 3c 27 cf 8e 3d
       -0.04960148 0.16487086 0.022082053 0.06973105
000270 fd ac d9 bb 53 f9 4d 3d 8c ca 67 bd cf ac 6d be
       -0.0066429363 0.050286602 -0.056589648 -0.23210452
000280 f0 6d 8a 3d bc 79 fa 3d a9 ae 92 3d 10 d3 4f bc
       0.0675925 0.1223025 0.0716222 -0.012684599
000290 10 87 13 3c 7f 1c da 3c 91 d6 54 3e cd d6 8a 3d
       0.009004369 0.026624916 0.20784976 0.06779251
0002a0 22 80 fc be 1a 42 7b 3d 1a 90 97 bd a4 d5 44 3d
       -0.49316508 0.061342336 -0.07400532 0.048055306
0002b0 83 2b bf bd bb 44 fe 3d c0 5d 44 be 66 24 0b be
       -0.09334471 0.12415453 -0.19176388 -0.13588104
0002c0 2a 89 a1 3d 8e 0e d9 3d e3 dd 0f bd 60 a0 09 3c
       0.0788749 0.10598479 -0.035123717 0.008400053
0002d0 f6 08 cc 3c 30 05 a5 bd 0f 89 fd bd 25 30 9a 3d
       0.024906617 -0.0805763 -0.123796575 0.07528714
0002e0 ac f1 e4 3d 86 16 06 3d 34 2b 59 3c 34 e2 a9 3d
       0.11178908 0.032736324 0.013254929 0.08295098
0002f0 c7 7a 90 3d 3a 64 99 bd ea 0f 9b be cb 49 b6 3d
       0.07054668 -0.0748982 -0.3028558 0.08900794
000300 ae c4 c1 3c 25 fb 93 bd 9c 28 9b be e1 de e3 3d
       0.023653354 -0.072256364 -0.3030442 0.11126495
000310 7f d8 cd bc 84 5f 93 bd 10 5c 68 bd c9 a0 17 3d
       -0.025127647 -0.071959525 -0.056728423 0.03701857
000320 86 5d 3f 3c d7 f2 7f bd 54 d6 1b be 54 e3 06 3c
       0.011680013 -0.06248745 -0.15218478 0.00823291
000330 8f 8e 3d b7 b6 ca 6b 3e 43 3e ba 3d 43 6f 9d 3d
       -1.129847e-05 0.23026547 0.09093907 0.07687237
000340 b8 08 07 3e d8 3c 2b 3e 0f f7 6c 3c 1a e4 77 3e
       0.1318692 0.16722429 0.0144632 0.24208108
000350 90 42 26 bc ee fb e7 bf 3f a7 47 bd bd 38 ac bd
       -0.010147706 -1.8123758 -0.048743483 -0.084092595
000360 e3 13 cd 3d 37 2c 15 3c 15 e8 54 3d 47 43 a2 be
       0.10013559 0.00910478 0.051979143 -0.31691954
000370 a2 73 d5 3d 78 6e 54 3c e0 16 41 be fe 0b 10 bc
       0.10422446 0.012965791 -0.18856382 -0.008791922
000380 00 88 e0 3d 20 73 7e bd 51 d0 2e 3d 77 18 08 bd
       0.1096344 -0.06212151 0.042679135 -0.033226456
000390 73 72 24 be eb 45 f6 3c 02 24 30 3d a5 c4 7b 3e
       -0.16059284 0.030062636 0.04300309 0.24586733
0003a0 b9 fb 9d 3d 20 48 c1 bc 09 4a 11 be 0e a9 1b be
       0.07714028 -0.023593962 -0.14188398 -0.15201208
0003b0 63 03 c8 bc d9 7b e5 bc bf 0b 6d 3e 1b fd 1e 3d
       -0.024415677 -0.028013157 0.23149012 0.0388156
0003c0 07 12 99 3e 0d 0b e9 3d 60 2c 1b 3e d0 36 bb bc
       0.29896566 0.11379061 0.15153646 -0.022853285
0003d0 a1 c6 e6 3c d4 97 79 3e d6 35 a6 3d 63 33 13 be
       0.028170886 0.24374324 0.08115737 -0.14375071
0003e0 fc 15 ec 3d 27 af 34 bc 45 a4 f0 3c a6 50 44 3e
       0.11527631 -0.011028088 0.029375205 0.1917139
0003f0 3d 74 9b 3c aa 75 82 3e f8 0c 12 3d 7f cb 9d 3d
       0.018976325 0.25480396 0.0356569 0.077048294

fc.6.bias f4 [4]
000000 48 c3 0a 3d 72 62 66 3e cf 81 ca 3d 7e e1 1d 3e
       0.03387764 0.22498491 0.0988804 0.1541805
