0615/따라가며슈팅팅.pth (torch, 401664 bytes, 8 tensors)

fc.0.weight f4 [256, 1]
0	0xbf35d55d	-0.7102869
1	0xbd871c30	-0.06597173
2	0xbdbbec52	-0.09175934
3	0xbf0529a2	-0.5201665
4	0xbdcd6504	-0.10029033
5	0x3f3fecde	0.74970806
6	0xbdd0b120	-0.10190034
7	0xbf344fe3	-0.704344
8	0x3e95217e	0.29127115
9	0xbf212256	-0.6294302
10	0x3d809274	0.06277934
11	0x3eae5fbf	0.34057423
12	0x3ecae640	0.39628792
13	0xbf2aa3e0	-0.66656303
14	0x3f547f57	0.83006805
15	0x3e841a93	0.25801525
16	0xbe18b97f	-0.14914511
17	0xbf2cf5a1	-0.675623
18	0xbeb3e03b	-0.35132012
19	0xbcb4e52f	-0.02208194
20	0x3f083f2b	0.53221387
21	0x3ed2769d	0.4110612
22	0xbf0919ad	-0.53554803
23	0x3f24b829	0.64343506
24	0xbee887af	-0.45416018
25	0x3f3033d7	0.688291
26	0x3ea8fb18	0.3300407
27	0x3d21629e	0.03940069
28	0x3f2c6cf4	0.6735375
29	0x3d9624a6	0.07331209
30	0xbd31b680	-0.043386936
31	0xbe92a6a1	-0.28642753
32	0x3f062377	0.52397865
33	0x3ef958ef	0.48700663
34	0x3d91d5e0	0.071208715
35	0xbe365941	-0.17807485
36	0xbc250f55	-0.010074456
37	0xbe9af37b	-0.30263886
38	0x3f6087f7	0.87707466
39	0xbd7bb87e	-0.061455242
40	0xbf1f4720	-0.62217903
41	0x3f287c70	0.65814877
42	0xbdf82101	-0.1211567
43	0xbf10051b	-0.5625779
44	0x3ed966bc	0.42461193
45	0xbd29df0b	-0.041472476
46	0xbf0a4a4f	-0.54019636
47	0xbd908157	-0.070559196
48	0xbe1e7dab	-0.15477626
49	0x3f46e862	0.7769834
50	0x3d628c86	0.055309795
51	0xbf04658c	-0.5171745
52	0x3f04f557	0.5193686
53	0xbece1c64	-0.40256035
54	0xbc83056d	-0.015993798
55	0x3f536a4d	0.8258408
56	0x3f663aee	0.8993367
57	0x3ed46e85	0.4149057
58	0xbf0f42fe	-0.55961597
59	0xbeb5675f	-0.35430428
60	0x3f28a82c	0.6588161
61	0x3d96971f	0.07353043
62	0xbdc55911	-0.09636129
63	0xbf103f6c	-0.56346774
64	0xbf06ed4d	-0.5270584
65	0xbf3b37eb	-0.731322
66	0x3e804fdb	0.25060925
67	0xbf0679de	-0.52529705
68	0x3a455e82	0.00075290364
69	0xbec0c236	-0.3764817
70	0x3f14b3c3	0.58086795
71	0xbe546292	-0.20740727
72	0x3f316dc0	0.6930809
73	0x3e11edf2	0.14250925
74	0xbf0eed58	-0.5583091
75	0xbf340730	-0.7032347
76	0x3e7ee8e4	0.24893528
77	0xbf30c08e	-0.69043815
78	0xbf05a278	-0.5220103
79	0x3f1a75e8	0.6033616
80	0xbeb79579	-0.35856226
81	0x3edd0c49	0.43173435
82	0xbf1cb1be	-0.61208713
83	0x3e85dd4e	0.26145405
84	0xbe379539	-0.17928018
85	0xbd75c140	-0.05999875
86	0xbe1051b9	-0.14093675
87	0xbe611221	-0.21979572
88	0xbe40cf8c	-0.18829173
89	0xbdd8d574	-0.10587588
90	0x3f12c436	0.57330644
91	0xbf3cf573	-0.73812026
92	0x3f3050e7	0.6887345
93	0xbf03f937	-0.51552147
94	0xbd3fb5f8	-0.0468044
95	0x3d951640	0.072796345
96	0xbdbb7440	-0.09153032
97	0xbc521d38	-0.012824349
98	0xbec49cf2	-0.3840099
99	0xbf66781c	-0.9002702
100	0x3ef66e6f	0.4813113
101	0xbdf05c96	-0.11736409
102	0xbdecfd1e	-0.11571716
103	0xbf1535f1	-0.58285433
104	0xbeaf8129	-0.3427823
105	0xbd8bb0e0	-0.068208456
106	0x3f01b1fe	0.5066222
107	0x3eff76f8	0.49895453
108	0x3cc4cdec	0.024023972
109	0xbc831c40	-0.016004682
110	0xbf60775c	-0.8768213
111	0xbeccf6a4	-0.40031922
112	0x3ec9bca6	0.3940174
113	0xbf2d98aa	-0.6781107
114	0xbd5e5cf3	-0.054287862
115	0x3f1976a5	0.5994666
116	0xbf521a21	-0.8207112
117	0xbf6fe726	-0.9371208
118	0xbf06a9ed	-0.52603036
119	0x3e1bbe4f	0.15209316
120	0xbe42a062	-0.19006494
121	0x3f3fccfe	0.7492217
122	0x3f321c4d	0.69574434
123	0x3e31087e	0.17288396
124	0x3e981c2d	0.29708996
125	0x3ee1f155	0.44129434
126	0x3f0d6f26	0.55247724
127	0xbf1077d1	-0.56432825
128	0xbeb39408	-0.35073876
129	0x3e90bd94	0.28269637
130	0x3e57dbea	0.21079984
131	0xbf4ee4f1	-0.80818087
132	0x3e2ac20e	0.16675588
133	0xbe47078a	-0.1943647
134	0xbc4662bc	-0.012108501
135	0x3e842216	0.25807256
136	0xbea5c336	-0.32375497
137	0x3f39e497	0.72614425
138	0xbf058515	-0.5215619
139	0x3f012b3b	0.5045659
140	0x3d8860a0	0.06659055
141	0xbd9cc685	-0.07655052
142	0x3e3b1926	0.18271312
143	0xb96a06c1	-0.00022318495
144	0xbd1c3354	-0.038134888
145	0x3e77c5d9	0.24196567
146	0x3eddb855	0.43304697
147	0xbecae599	-0.39628294
148	0xbdb648ba	-0.0890059
149	0x3f58f631	0.8475066
150	0xbf0b8c64	-0.54511094
151	0xbe0bcc50	-0.13652158
152	0x3f5941ff	0.8486633
153	0xbef94c62	-0.48691088
154	0x3f1aa808	0.60412645
155	0xbe036300	-0.12830734
156	0x3d650ae1	0.055918578
157	0xbea049b5	-0.31306234
158	0x3e284a76	0.16434655
159	0x3e2daedd	0.16961236
160	0xbdf6c30f	-0.12048923
161	0xbf47d965	-0.7806609
162	0x3ed356d0	0.4127717
163	0x3e5dbe60	0.21654654
164	0xbecf880e	-0.4053349
165	0xbf4bffa0	-0.7968693
166	0xbea6856e	-0.32523674
167	0x3e96242f	0.2932448
168	0x3ed1347b	0.40860352
169	0x3eb25846	0.34832972
170	0x3d979140	0.07400751
171	0xbe52612b	-0.20544879
172	0x3e162472	0.1466234
173	0x3ed879c0	0.42280388
174	0xbddba280	-0.10724354
175	0xbeb42d68	-0.35190892
176	0xbf319100	-0.6936188
177	0xbdf5ebd8	-0.12007874
178	0xbe4cb559	-0.19991054
179	0xbd011dc0	-0.031522512
180	0xbf4f3d98	-0.8095336
181	0xbf0c97c8	-0.549191
182	0x3f10e085	0.5659259
183	0x3f50f69e	0.8162631
184	0x3f1a8f2c	0.6037471
185	0xbf12bf98	-0.573236
186	0x3f238a57	0.63882965
187	0x3d45a900	0.048256874
188	0xbe5659a4	-0.20932633
189	0x3eb757cc	0.3580917
190	0x3e1f27e8	0.15542567
191	0x3f5ae2c6	0.8550228
192	0x3d53b92d	0.05169027
193	0xbf42abab	-0.76043195
194	0xbcc53ebc	-0.024077766
195	0x3f1d3480	0.61408234
196	0x3e349293	0.17634039
197	0xbf27607a	-0.65381587
198	0x3d9bed90	0.07613671
199	0xbf168f07	-0.5881199
200	0xbf514887	-0.8175129
201	0xbd1452f3	-0.03621192
202	0xbf325413	-0.6965954
203	0xbdc3db71	-0.095633395
204	0xbd999ec4	-0.07500985
205	0xbdf0e141	-0.11761714
206	0xbe16f96c	-0.14743584
207	0x3eb7ae2f	0.3587508
208	0xbcb6d9ed	-0.022320712
209	0x3f37dc47	0.7182049
210	0xbf0e11ec	-0.55496097
211	0x3e1f1a29	0.15537323
212	0xbf2ed380	-0.68291473
213	0x3eb98042	0.36230665
214	0xbf04856b	-0.5176608
215	0xbe968388	-0.29397225
216	0x3f048da8	0.5177865
217	0xbd690a8d	-0.056894828
218	0x3cc80bcf	0.024419693
219	0x3ed33db7	0.41258022
220	0xbe9aca9c	-0.30232704
221	0x3dacd70b	0.08439454
222	0xbe701a07	-0.23447429
223	0x3e6ba77c	0.23013109
224	0x3f13a44f	0.5767259
225	0x3f398d74	0.72481465
226	0xbf5110e6	-0.8166641
227	0xbe00007a	-0.12500182
228	0x3ecf338e	0.4046902
229	0x3d31c945	0.043404836
230	0xbe03bdeb	-0.12865417
231	0xbe2faa82	-0.17154887
232	0xbd9ba600	-0.07600021
233	0xbed5fe68	-0.4179566
234	0xbf2212b6	-0.633098
235	0xbd4f76c8	-0.050650388
236	0xbe48142b	-0.19538943
237	0x3ec73be4	0.3891288
238	0x3e108a58	0.14115274
239	0x3f3f38bc	0.74695945
240	0x3ea13ff9	0.3149412
241	0x3f073b9b	0.52825326
242	0x3f06d536	0.52669084
243	0xbf0d4828	-0.55188227
244	0xbe41370d	-0.18868656
245	0x3db7b124	0.08969334
246	0x3f0b9883	0.5452959
247	0x3d68b5c0	0.056813955
248	0x3d22dc8c	0.03976111
249	0xbef8d8b5	-0.48602834
250	0xbf2a1153	-0.66432685
251	0x3e20b280	0.15693092
252	0xbcbc0918	-0.022953555
253	0xbe236f66	-0.15960464
254	0xbeacd07f	-0.3375282
255	0x3d1d07e0	0.03833759

fc.0.bias f4 [256]
0	0x3ee41691	0.44548467
1	0xbf04731a	-0.5173813
2	0xbf0d66c0	-0.5523491
3	0x3f8f8159	1.1211349
4	0xbf1a756e	-0.60335433
5	0xbf483d10	-0.78218174
6	0xbf1ca759	-0.6119285
7	0x3f7901ab	0.9726817
8	0xbf135233	-0.575473
9	0xbe97c6b1	-0.29643777
10	0xbec13f58	-0.3774364
11	0xbf141fdf	-0.5786113
12	0x3eed8a70	0.46394682
13	0x3f909593	1.1295646
14	0x3f53c698	0.82724905
15	0x3f3cccb9	0.7374988
16	0x3f0fd3ef	0.5618276
17	0xbf67fefb	-0.90623444
18	0xbf151ad4	-0.5824406
19	0xbe08dd8f	-0.13365768
20	0xbf907286	-1.128495
21	0xbf18f030	-0.597415
22	0xbf82a615	-1.0206934
23	0x3f1feeb4	0.6247361
24	0x3f4fa3ab	0.8110911
25	0xbf7e529a	-0.9934479
26	0x3eb022fc	0.3440169
27	0x3f26ec74	0.6520455
28	0x3ed538d0	0.41644907
29	0xbee20d8e	-0.44150966
30	0xbf409a68	-0.75235605
31	0x3d4729da	0.048623897
32	0xbf76aa69	-0.96353775
33	0xbf38b41f	-0.7214984
34	0xbf4694a8	-0.7757058
35	0x3f8d5219	1.1040679
36	0x3e78cd14	0.24296981
37	0x3f0e951d	0.5569628
38	0xbf68ae12	-0.9089061
39	0xbebe236f	-0.3713641
40	0x3e90fd2d	0.28318158
41	0xbf89b9a8	-1.0759783
42	0xbefd1afe	-0.49434656
43	0xbf1dcdba	-0.6164204
44	0x3f615f98	0.8803649
45	0x3f1a0d33	0.6017639
46	0x3ee1573c	0.44011867
47	0xbeddeba0	-0.4334383
48	0x3f876d7f	1.058029
49	0x3f8a5df2	1.080992
50	0xbeab26bb	-0.33427987
51	0xbf39b728	-0.725451
52	0x3f244cd1	0.6417971
53	0x3f0257ce	0.5091523
54	0xbdc6d202	-0.097080246
55	0xbf20d816	-0.6282972
56	0xbf8c03da	-1.0938675
57	0xbf64ba75	-0.8934701
58	0xbe62e38d	-0.22157116
59	0xbf6401c7	-0.8906521
60	0x3e9687a9	0.29400375
61	0xbee270d3	-0.44226703
62	0xbecd437b	-0.40090546
63	0x3f88be4a	1.0683072
64	0xbf746c56	-0.9547781
65	0xbf045ecc	-0.5170715
66	0x3f355bc2	0.70843136
67	0xbf2f2a0d	-0.6842354
68	0xbbdc897a	-0.0067302557
69	0xbf1213ba	-0.5706135
70	0x3f5330c8	0.8249631
71	0xbf29ef79	-0.6638103
72	0xbf0023d9	-0.500547
73	0xbf10ba03	-0.5653383
74	0xbef91deb	-0.48655638
75	0x3ede004c	0.43359601
76	0x3f0e5794	0.55602384
77	0xbf6b28fe	-0.91859424
78	0x3f6fbd3c	0.93648124
79	0x3f4111a7	0.7541756
80	0xbf66bf4d	-0.9013565
81	0xbf7103ec	-0.9414661
82	0xbe9d8d78	-0.30771995
83	0xbe4b7393	-0.19868307
84	0xbedfa99b	-0.43684086
85	0xbf7475a0	-0.9549198
86	0xbf06faa7	-0.52726215
87	0x3f0c2ad7	0.5475287
88	0xbf19bb8e	-0.6005181
89	0xbf22b423	-0.63556117
90	0xbf800d4a	-1.0004056
91	0xbf24acc2	-0.6432611
92	0x3f534acf	0.82536024
93	0x3f5a3f1f	0.85252565
94	0x3f937f92	1.1523306
95	0xbee09f63	-0.43871602
96	0xbf0cc90a	-0.5499426
97	0x3e87633f	0.26442906
98	0xbf710a11	-0.94155985
99	0xbf8e41e1	-1.1113855
100	0x3f0ca98e	0.5494622
101	0x3f4820c4	0.78174996
102	0x3f621a9b	0.88321847
103	0x3f8a9f8b	1.0829939
104	0x3ef592e6	0.47963637
105	0xbef9e1d4	-0.48805106
106	0x3f086ad1	0.5328799
107	0xbf08ee03	-0.5348818
108	0x3ea0969d	0.3136491
109	0xbe087668	-0.13326418
110	0xbf74eb5b	-0.95671624
111	0x3f8fbb35	1.1229006
112	0x3ef293a9	0.4737828
113	0xbee7289f	-0.4514818
114	0xbead17e9	-0.33807305
115	0x3f287695	0.6580594
116	0xbf89d9c0	-1.0769577
117	0xbf6140c7	-0.8798947
118	0xbf3d4aae	-0.7394208
119	0xbf1a4a4e	-0.6026963
120	0x3f370d5c	0.7150476
121	0xbf35d75f	-0.71031755
122	0xbf2a9844	-0.6663859
123	0x3f03d2d5	0.5149358
124	0xbf884fa5	-1.0649306
125	0x3f866153	1.0498451
126	0x3f27e77d	0.655876
127	0xbf75d6e6	-0.96031034
128	0xbedcb0ad	-0.43103543
129	0xbf82e59b	-1.022632
130	0x3f380f50	0.71898365
131	0x3f56a441	0.8384438
132	0x3f83a241	1.0283891
133	0xbef4b38e	-0.4779324
134	0x3ed37fc1	0.41308406
135	0x3ee578c5	0.44818702
136	0xbf5314c7	-0.8245358
137	0x3f268117	0.65040725
138	0xbf3d5943	-0.7396433
139	0x3f87ceca	1.0609982
140	0xbf73f384	-0.9529345
141	0x3f191344	0.5979502
142	0xbf15576c	-0.5833652
143	0xbb3d920a	-0.0028926157
144	0x3ecf8261	0.4052916
145	0x3f0fc766	0.5616363
146	0x3ee49b92	0.4464994
147	0xbf75d242	-0.9602395
148	0x3f844c9d	1.033588
149	0x3f8aacb8	1.083396
150	0xbf212f47	-0.62962765
151	0xbf524e1a	-0.82150424
152	0xbf87b684	-1.0602574
153	0x3ef92033	0.4865738
154	0x3f3859f5	0.72012264
155	0xbf46aca1	-0.7760716
156	0xbead0bd2	-0.3379808
157	0xbf09cef4	-0.5383141
158	0x3f89930e	1.0748003
159	0x3f91502f	1.1352595
160	0x3f4c79fc	0.79873633
161	0x3f7ed468	0.99542856
162	0xbf24e2fa	-0.6440884
163	0xbf531ca1	-0.8246556
164	0x3f6a01bf	0.91408914
165	0xbf33afc7	-0.7019009
166	0xbf53e690	-0.82773685
167	0x3f0aff0b	0.54295415
168	0xbf61e571	-0.88240725
169	0xbf9c3921	-1.2204934
170	0xbf33b2f0	-0.7019491
171	0x3e8f4414	0.27981627
172	0xbf14e303	-0.5815889
173	0x3e75329e	0.2394509
174	0xbf253973	-0.64540786
175	0xbeda5798	-0.42644954
176	0xbf6cd08d	-0.92505723
177	0x3f5b38de	0.8563365
178	0xbeb9955d	-0.36246768
179	0xbf06abaa	-0.5260569
180	0xbf063cde	-0.52436626
181	0xbf82598b	-1.0183576
182	0xbf597bcf	-0.8495454
183	0xbf27c59c	-0.655359
184	0xbf384662	-0.71982396
185	0xbf683b2b	-0.90715283
186	0xbf5b85ab	-0.85750836
187	0xbef123a4	-0.47097504
188	0xbefe2b22	-0.49642283
189	0x3f6ff87b	0.93738526
190	0x3f75dc93	0.96039695
191	0x3f81bb46	1.0135276
192	0xbe9f72b6	-0.31142205
193	0x3f8166aa	1.0109456
194	0x3ead9549	0.33902958
195	0x3f3231e8	0.696074
196	0xbf3355aa	-0.7005259
197	0x3f509f52	0.81493104
198	0xbf62c562	-0.8858243
199	0xbf3d2fd1	-0.7390109
200	0x3f756ab2	0.9586593
201	0xbe625edd	-0.221065
202	0x3f2fc2bc	0.68656516
203	0xbf1447e5	-0.579222
204	0x3f813d5a	1.0096848
205	0x3ea51453	0.3224207
206	0x3f84a559	1.036296
207	0x3efd342d	0.4945387
208	0xbe104574	-0.14088994
209	0xbf224c68	-0.63397837
210	0x3f0da4e6	0.5532974
211	0xbf1d8285	-0.6152728
212	0x3f1b9871	0.6077948
213	0xbf49b4a3	-0.78791255
214	0x3f5c7929	0.86122376
215	0x3f8e891d	1.1135594
216	0xbf4c97e7	-0.79919285
217	0xbeb21119	-0.3477867
218	0x3f6fba6a	0.9364382
219	0xbf63bcaa	-0.88959754
220	0xbf0f234e	-0.55913246
221	0xbeaa9d66	-0.3332321
222	0xbec3c70e	-0.38237804
223	0x3d96060f	0.07325374
224	0x3f0898c2	0.5335809
225	0xbf83ee4c	-1.0307097
226	0x3f695d73	0.9115822
227	0x3f7c46ba	0.9854542
228	0xbf2a426f	-0.6650762
229	0x3f16e57c	0.58943915
230	0x3f69e286	0.9136127
231	0x3ea89680	0.32927322
232	0xbf00447a	-0.50104487
233	0xbf810a9f	-1.0081366
234	0xbf675c3c	-0.90375113
235	0xbe9cc5f0	-0.30619764
236	0x3f08e246	0.53470266
237	0xbf5359bd	-0.82558805
238	0x3f09e413	0.5386364
239	0xbf5c14f8	-0.85969496
240	0x3ea6b6fd	0.32561484
241	0x3f8ac05c	1.0839953
242	0xbf3fb13f	-0.7487983
243	0x3f867cf8	1.0506887
244	0xbf1b9937	-0.6078066
245	0x3f2c0f4c	0.6721084
246	0x3ed2320a	0.41053802
247	0xbeaf3f67	-0.3422806
248	0xbe75335f	-0.23945378
249	0xbf6f05ab	-0.93368024
250	0x3f845016	1.033694
251	0xbf1f0fc0	-0.6213341
252	0xbe0def0e	-0.13860723
253	0xbf782387	-0.9692921
254	0x3f80c972	1.0061476
255	0xbed05c80	-0.40695572

fc.2.weight f4 [256, 256]
0	0xbd26f26a	-0.040758528
1	0x3ce26cd4	0.027639784
2	0xbc82981c	-0.015941672
3	0xbe92688e	-0.28595394
4	0xbd6d4460	-0.057926536
5	0xbd484256	-0.048891388
6	0x3d4aa482	0.049473293
7	0xbe8be03d	-0.27319518
8	0xbe246260	-0.16053152
9	0xbc109ac0	-0.008825958
10	0xbcecad3d	-0.0288912
11	0xbd517533	-0.05113716
12	0x3d3544c3	0.04425503
13	0xbea6674f	-0.32500693
14	0xbd2082d7	-0.03918728
15	0x3cd77bf4	0.026304223
16	0xbd5fffbc	-0.054687247
17	0xbd68b6f0	-0.056815088
18	0x3d28390a	0.04107002
19	0x3b90f8a0	0.0044241697
20	0xbee6a945	-0.45051017
21	0xbcfca854	-0.030841984
22	0xbd124f02	-0.03571988
23	0xbcc287c7	-0.023746384
24	0xbea4d735	-0.3219544
25	0xbd9e0a61	-0.07716823
26	0x3cf5e91d	0.030018384
27	0xbc252212	-0.010078924
28	0x3cac04fd	0.020998472
29	0x3d5f1ae6	0.05446901
30	0xbca93814	-0.020656623
31	0x3be4fd50	0.006988205
32	0xbe4ecaeb	-0.20194595
33	0xbd768ff2	-0.06019587
34	0x3d5195e8	0.051168352
35	0x3c8ac027	0.016937329
36	0x3d2a94ba	0.041645743
37	0xbec193de	-0.37808126
38	0x3c4fe3b8	0.01268857
39	0x3d127878	0.03575942
40	0xbd6f45e2	-0.058416255
41	0xbdb82f24	-0.08993366
42	0xbd7dd5e2	-0.061971553
43	0x3b4d5ae0	0.0031334683
44	0x3b556129	0.0032559133
45	0x3d3cadd1	0.0460642
46	0x3cdc2708	0.02687408
47	0xbcad8618	-0.021182105
48	0xbd7e8050	-0.062134087
49	0x3ba73899	0.0051031825
50	0xbd47620b	-0.048677485
51	0xbd1d2070	-0.038361013
52	0x3a6e66dc	0.0009094307
53	0xbe1f62d9	-0.15565051
54	0x3c879664	0.016551204
55	0xbd581da4	-0.052762643
56	0x3d1689f8	0.03675267
57	0xbed3b884	-0.41351712
58	0xbd60fb52	-0.054927178
59	0x3c938f98	0.018012807
60	0x3d09901c	0.0335847
61	0x3cf77081	0.030205013
62	0x3ad2f940	0.0016096011
63	0xbea50a2c	-0.32234323
64	0x3c97162c	0.01844319
65	0xbd0b7558	-0.034047455
66	0xbd413def	-0.047178205
67	0x3c865a28	0.016400412
68	0xbd4bab7d	-0.04972409
69	0xbcb4543c	-0.022012822
70	0xbd32e934	-0.04367943
71	0x3cbbf3d0	0.022943407
72	0x3c85a6fd	0.016314978
73	0xbd3f524a	-0.046709336
74	0x3c2c4688	0.010514863
75	0xbd576730	-0.05258864
76	0x3c7f6580	0.015588164
77	0xbb4731a0	-0.003039457
78	0xbe90a4d2	-0.28250748
79	0x3ce1986b	0.027538499
80	0xbc765e30	-0.0150371045
81	0xbeb11dfd	-0.34593192
82	0x39a6cb00	0.00031813234
83	0x3d300fd1	0.042983834
84	0xbc57d4c8	-0.01317329
85	0x3d322c44	0.043499246
86	0x3d0ca91a	0.034340955
87	0xbe830af0	-0.25594282
88	0x3d43eb1c	0.04783164
89	0x3d796468	0.06088677
90	0xbe33ca33	-0.17557602
91	0xbc26a6f8	-0.010171644
92	0xbd405250	-0.0469535
93	0xbe887aad	-0.26656094
94	0x3cec85b0	0.02887234
95	0xbd78c630	-0.06073588
96	0xba9aec40	-0.0011819676
97	0xbd80396b	-0.062609516
98	0xbca5d3f0	-0.020242661
99	0x3c2924e8	0.010323741
100	0xbc91e4de	-0.017809328
101	0xbcacf591	-0.021113189
102	0xbd0e1b52	-0.034694023
103	0xbe81b5fe	-0.25334162
104	0xbe1745f5	-0.1477278
105	0x3cdd65b0	0.027026027
106	0x3d1e9f8c	0.038726375
107	0x3d129c98	0.03579387
108	0x3b93deed	0.004512659
109	0x3c179178	0.009250991
110	0x3c5784b0	0.013154194
111	0xbe13efbb	-0.14446919
112	0xbd29b3d1	-0.041431252
113	0xbb71e2c0	-0.0036908835
114	0xbc04b008	-0.00809861
115	0xbc3e4e22	-0.011615308
116	0x3b5dc600	0.003383994
117	0xbcb7dee0	-0.022445142
118	0x3d0b945c	0.034077033
119	0xbd91382d	-0.07090793
120	0xbda2ce14	-0.079494625
121	0x3d0db78a	0.034598865
122	0x3ac4296a	0.0014965956
123	0x3c9fa7e6	0.01948924
124	0xbf27a866	-0.6549133
125	0x3d7d2c53	0.06180985
126	0x3d3b9f47	0.045806196
127	0xbd4c5672	-0.04988713
128	0xbd5bcaa0	-0.053660035
129	0xbf31fd0f	-0.6952676
130	0x3cbc0296	0.022950452
131	0xbc0de740	-0.008661091
132	0x3d232d8d	0.039838362
133	0xbd7b0148	-0.06128052
134	0xbc06bd31	-0.008223818
135	0xbd220433	-0.039554786
136	0xbcdb05e0	-0.0267362
137	0x3d6b0976	0.05738207
138	0x3d668300	0.056277275
139	0xbd390aa0	-0.04517615
140	0xbc040d10	-0.008059755
141	0xbc01b0ec	-0.007915717
142	0x3c5fab04	0.013651613
143	0xbe223577	-0.15840708
144	0x3b72d8b7	0.0037055442
145	0xbd5ae1b9	-0.053437922
146	0xbc8a593a	-0.01688825
147	0x3cedd2d8	0.029031202
148	0x3d949920	0.07255769
149	0xbc6067fc	-0.013696667
150	0xbcec21b4	-0.028824665
151	0xbd686770	-0.05673927
152	0x3d3e926c	0.046526358
153	0x3cfd3d2c	0.030912958
154	0x3d3a3863	0.04546393
155	0x3ceda1dc	0.029007845
156	0x3d4b1ed5	0.04958995
157	0xbc3fac88	-0.0116988495
158	0x3d8a1f60	0.067442656
159	0x3d945cdf	0.07244276
160	0xbcc87e36	-0.024474245
161	0xbeae1068	-0.33996892
162	0xbc211071	-0.00983058
163	0xbf259698	-0.6468291
164	0xbeab0a5b	-0.33406338
165	0xbc9bc4c4	-0.019014724
166	0xbd5f746e	-0.054554395
167	0xbcbe411a	-0.023224402
168	0xbf05badf	-0.5223827
169	0xbef00f6a	-0.4688676
170	0x3d5b0f62	0.053481467
171	0xbcb1f586	-0.02172352
172	0xbc6bce36	-0.014392426
173	0xbd28e8a7	-0.0412375
174	0xbb890180	-0.004181087
175	0x3d62bb4c	0.0553544
176	0xbd21db16	-0.039515577
177	0xbd888622	-0.06666209
178	0xbd17816c	-0.03698866
179	0xbc02df20	-0.007987767
180	0xbd13c114	-0.036072806
181	0x3d772a64	0.06034316
182	0xbd0066f8	-0.0313482
183	0xbc65d196	-0.01402702
184	0x3cc61abd	0.024182672
185	0xbd2df5be	-0.042470686
186	0xbd1ff056	-0.03904756
187	0xbd5f0c66	-0.054455183
188	0xbd027376	-0.031848393
189	0xbbc10467	-0.0058904174
190	0xbcc0cbea	-0.023534734
191	0x3ca32e51	0.019919546
192	0xbdee5b08	-0.116384566
193	0xbea73caf	-0.32663485
194	0x3cd0ac4c	0.025472783
195	0x3d0dcef5	0.034621198
196	0xbd830f2e	-0.0639938
197	0xbe92b4e1	-0.28653625
198	0xbb2d2520	-0.0026419833
199	0xbcc4dcb4	-0.02403102
200	0xbe539ff8	-0.20666492
201	0xbcef4d80	-0.02921176
202	0x3ceba24c	0.028763913
203	0x3c35d6c0	0.011098564
204	0x3d36a922	0.04459489
205	0xbe7c7475	-0.246538
206	0xbd388bf5	-0.04505535
207	0xbc629771	-0.013830052
208	0xbce510b8	-0.027962074
209	0xbd4daa30	-0.05021113
210	0xbd0590ac	-0.032608673
211	0xbd1bebae	-0.03806656
212	0x3b3110a0	0.0027017966
213	0xbefcfa74	-0.4940983
214	0xbeb674f2	-0.35636097
215	0xbce8ea6d	-0.028432095
216	0xbc8651f6	-0.016396504
217	0xbd663d56	-0.05621084
218	0xbce6c45e	-0.028169807
219	0xbef0bd82	-0.47019583
220	0xbd0674f4	-0.03282638
221	0xb72418ab	-9.780905e-06
222	0x3d3f9eea	0.04678241
223	0xbc35bf15	-0.011092921
224	0xbcb96304	-0.022630222
225	0xbbb4b9db	-0.0055153198
226	0xbdb09ed3	-0.08624043
227	0x3c976ef5	0.018485526
228	0xbd5c0814	-0.05371864
229	0x3d0ddae2	0.03463257
230	0xbd79d67a	-0.060995556
231	0xbe55a494	-0.20863563
232	0xbd7fd244	-0.062456384
233	0x3ce358ac	0.027752243
234	0x3cd26ac4	0.025685675
235	0x3d6a6bda	0.05723176
236	0xbe970552	-0.29496247
237	0xbe5b534d	-0.21418495
238	0xbd2de9cd	-0.042459298
239	0x3cf4c5bc	0.029879443
240	0x3c0aba4c	0.008467268
241	0x3d22e267	0.039766695
242	0x3b352109	0.0027638099
243	0xbe8b926e	-0.27260154
244	0xbc376e48	-0.011195727
245	0x3d4fc9c0	0.050729513
246	0xbd64a7b5	-0.055824
247	0x3b3ee8ab	0.002913038
248	0xbd879251	-0.066197045
249	0xbd2bbcf4	-0.041928247
250	0xbe749cbb	-0.23887913
251	0x3bf37d68	0.007430721
252	0xbcdbebe0	-0.026845872
253	0x3d594b3a	0.053050257
254	0xbd14073e	-0.03613972
255	0x3d76abba	0.060222365

fc.2.bias f4 [256]
0	0x3cdd9435	0.02704821
1	0x3e106bd1	0.14103629
2	0x3e1cea6c	0.153238
3	0x3cac3f91	0.021026405
4	0x3e11937a	0.14216414
5	0xbc693362	-0.014233442
6	0xbd375ba4	-0.04476513
7	0x3d89a736	0.06721346
8	0x3e8627c6	0.2620222
9	0xbc10d8ee	-0.008840783
10	0x3d1617ef	0.03664392
11	0xbdbe2384	-0.09284118
12	0xbd069ef2	-0.032866426
13	0x3e743e31	0.23851849
14	0xbc1bd0d8	-0.009510241
15	0x3d8a5490	0.0675441
16	0x3d69a3d2	0.057040997
17	0x3d915ae8	0.07097417
18	0xbc04c0c4	-0.0081025995
19	0x3e44397a	0.1916255
20	0x3cff70da	0.031181742
21	0x3d5aa1c7	0.05337694
22	0x3de84c28	0.11342651
23	0x3d585c5d	0.05282246
24	0x3e23bab9	0.15989198
25	0xbd7945e8	-0.060857683
26	0x3e1b8553	0.15187578
27	0x3dd0e769	0.10200388
28	0xbd49162e	-0.049093418
29	0x3cd7a4a4	0.026323624
30	0x3e08838b	0.1333143
31	0x3e306b59	0.1722845
32	0x3e015539	0.12630166
33	0xbc4317d0	-0.011907533
34	0x3e45c8e3	0.19314913
35	0x3dfcefd6	0.123504326
36	0xbd425b9b	-0.047450643
37	0xbce7ca20	-0.028294623
38	0xbd223509	-0.03960136
39	0xbcf7314f	-0.03017488
40	0x3e470fab	0.1943957
41	0xbda53b74	-0.080679804
42	0x3c832d77	0.01601289
43	0x3c3b1080	0.011417508
44	0x3d6b709d	0.057480443
45	0x3e5a0985	0.21292694
46	0x3e6ddfae	0.23229858
47	0xbd639022	-0.055557378
48	0x3e573709	0.21017088
49	0x3b0251fc	0.0019885292
50	0x3d99ab54	0.07503381
51	0x3e309af8	0.17246616
52	0x3e31e77f	0.17373465
53	0x3e0897a9	0.13339104
54	0xbd4029b8	-0.046914786
55	0x3d6af71c	0.057364568
56	0x3e6b54c8	0.2298156
57	0x3df32993	0.11873164
58	0x3cc386ef	0.023868052
59	0xbc68ac7d	-0.014201281
60	0x3d287e1e	0.0411359
61	0xbcb64f3a	-0.022254575
62	0xbbe12a60	-0.0068715066
63	0x3d1b1a4a	0.037866868
64	0x3e85b4c5	0.2611448
65	0x3e6daf4a	0.23211399
66	0x3cbb2868	0.022846416
67	0xbc42f227	-0.011898554
68	0x3e2f715b	0.17133085
69	0xbd6c1fe6	-0.05764761
70	0xbd04a412	-0.032383032
71	0x3e12faed	0.14353533
72	0xbcdabeda	-0.026702333
73	0x3c9bd2c4	0.0190214
74	0x3e38a8f3	0.18033199
75	0xbdaaea3a	-0.083454564
76	0xbc6cea5a	-0.014460171
77	0xbc84da67	-0.016217424
78	0xbd04802a	-0.03234879
79	0x3bf109f2	0.007355922
80	0x3d7bf996	0.06151732
81	0x3d30887a	0.043098904
82	0x3c1113be	0.008854805
83	0x3e84d4c8	0.2594359
84	0x3e6fc782	0.2341595
85	0xbc9db51e	-0.019251402
86	0xbd4ac041	-0.049499754
87	0xbc0289b0	-0.007967398
88	0x3d19a6c2	0.03751255
89	0xbc23416c	-0.009964328
90	0xbd7782a6	-0.06042733
91	0x3d3de803	0.04636384
92	0x3ca9d623	0.020731991
93	0xbe3c64f4	-0.18397886
94	0x3e8ce6bf	0.27519795
95	0x3e8d25e0	0.2756796
96	0xbc98fd2b	-0.018675407
97	0xbd2d3a30	-0.04229182
98	0xbd43e379	-0.047824357
99	0x3d0883ee	0.033328943
100	0x3e4329fc	0.19058985
101	0x3c3fb498	0.011700772
102	0xbce1b177	-0.027550442
103	0x3cccfea4	0.025023766
104	0xbce2fbc1	-0.027707936
105	0x3ca463f0	0.020067185
106	0x3dea9d4c	0.11455783
107	0xbd15a949	-0.036538396
108	0xbd02913f	-0.0318768
109	0x3c91169b	0.017710974
110	0x3e7defd3	0.24798517
111	0x3e79a2e8	0.2437855
112	0xbd1b4e99	-0.037916753
113	0x3c5ecf79	0.01359927
114	0x3e695d17	0.22789417
115	0xbd57ecf0	-0.052716196
116	0xbe224806	-0.15847787
117	0x3e74a62f	0.23891519
118	0x3e17dba0	0.14829874
119	0xbcca07c0	-0.024661899
120	0x3b546826	0.003241071
121	0x3d2af6c3	0.041739237
122	0x3ca49e54	0.020095028
123	0x3e7daddd	0.24773355
124	0x3e4a5fea	0.19763151
125	0xbd0293d0	-0.031879246
126	0xbd2f342b	-0.04277436
127	0x3ddf28d6	0.10896461
128	0x3d5aee15	0.05344971
129	0x3e5a8e2b	0.21343295
130	0x3e3d2312	0.1847041
131	0x3e8aeae7	0.2713234
132	0x3e51edb1	0.20500828
133	0xbd3683c5	-0.04455926
134	0xbce76aec	-0.028249227
135	0xbd43ec6e	-0.0478329
136	0x3dde4399	0.10852737
137	0xbbf8459b	-0.007576657
138	0xbdb896b0	-0.09013116
139	0xbc62ceb5	-0.013843228
140	0xbc27fda8	-0.010253347
141	0x3e205844	0.1565867
142	0xbd7f763e	-0.062368624
143	0x3c6d63e6	0.01448915
144	0x3e09a62a	0.13442293
145	0x3e5d381c	0.21603435
146	0xbcc89ec8	-0.024489775
147	0x3e73afd0	0.23797536
148	0xbcc724ff	-0.024309633
149	0x3dc08161	0.09399677
150	0x3d0a7280	0.033800602
151	0x3b863d35	0.004096652
152	0x3e91e078	0.2849157
153	0x3d1dbac6	0.0385082
154	0xbd8d5733	-0.069013976
155	0x3cb42e5d	0.021994764
156	0x3bf43539	0.0074526337
157	0x3d8d65dd	0.069041945
158	0x3e913b55	0.2836558
159	0x3d46a65e	0.048498504
160	0x3cefdddc	0.029280595
161	0x3e2e44df	0.1701846
162	0xbd707e9e	-0.0587145
163	0x3e79c519	0.24391593
164	0xbd33c92e	-0.04389303
165	0xba499882	-0.0007690267
166	0xba5fc221	-0.00085357024
167	0x3d043d8b	0.032285254
168	0x3d5bf61e	0.053701513
169	0xbc94f6b8	-0.01818405
170	0xbd58bb0f	-0.052912768
171	0xbd415eef	-0.047209676
172	0x3dcae539	0.09907002
173	0x3d64f46c	0.05589716
174	0x3e7f730b	0.24946229
175	0x3e862f22	0.26207834
176	0x3e5055d0	0.20345235
177	0xbe1908cf	-0.14944766
178	0xbeb4f7b1	-0.35345224
179	0x3e48af70	0.19598174
180	0xbdad32d6	-0.08456962
181	0x3daa7cb7	0.08324569
182	0x3d5fd6be	0.054648153
183	0x3d315fd3	0.043304276
184	0xbd6b089a	-0.05738125
185	0xbd4ed524	-0.050496235
186	0x3d4f4e04	0.05061151
187	0x3d24eaf3	0.040263128
188	0x3c5d531c	0.013508584
189	0xbd8a2d67	-0.06746941
190	0x3e865e9c	0.26244056
191	0xbd55caac	-0.052195236
192	0x3d358cec	0.044323847
193	0x3c8c807b	0.017151108
194	0xb8c6d800	-9.481609e-05
195	0x3e73bfeb	0.2380368
196	0x3cf63379	0.030053841
197	0xbd043068	-0.032272726
198	0x3dbe3d99	0.092890926
199	0xbd8b210d	-0.06793413
200	0xbd4aafcb	-0.049484055
201	0x3e616e92	0.22014835
202	0x3d84f104	0.064912826
203	0xbbc1e949	-0.0059177023
204	0x3d7e9b63	0.062159907
205	0x3d1aabde	0.03776156
206	0xbc761a66	-0.015020942
207	0xbc858c08	-0.016302124
208	0x3babecc5	0.005246731
209	0x3c50f132	0.012752818
210	0x3c61e881	0.013788343
211	0x3c09bc72	0.008406745
212	0x3e8a9485	0.27066436
213	0x3d27bca0	0.04095137
214	0xbe45f480	-0.1933155
215	0xbd7e9268	-0.062151343
216	0xbd915770	-0.070967555
217	0xbd6c374b	-0.05766992
218	0xbd52ab1b	-0.05143271
219	0xbd53a44a	-0.05167035
220	0x3d761b12	0.06008441
221	0x3aa0a9b1	0.0012257603
222	0x3e8d21ed	0.27564946
223	0x3e41fec7	0.18944846
224	0x3bd7c03b	0.006584195
225	0xbd2d9826	-0.04238143
226	0x3e344db0	0.1760776
227	0x3b901af3	0.004397744
228	0x3e659649	0.2242061
229	0x3e758c69	0.23979343
230	0xbd585a8c	-0.052820727
231	0xbd82116e	-0.06350981
232	0x3e0ec0ae	0.13940689
233	0x3d455118	0.04817304
234	0x3e4ae758	0.19814813
235	0x3e13338c	0.14375132
236	0x3c80e1d9	0.015732693
237	0x3e5e5ed4	0.21715862
238	0x3cb8a21c	0.022538237
239	0xbd9c7db9	-0.07641167
240	0x3dbfbd15	0.093622364
241	0xbc173b90	-0.009230509
242	0x3b271f5b	0.0025500867
243	0xbd8a3356	-0.06748073
244	0xbb18dbf3	-0.002332446
245	0x3d47a18b	0.048738044
246	0xbcb01578	-0.021494612
247	0x3d93759c	0.072001666
248	0xbd5660e6	-0.052338503
249	0x3d2b7d45	0.041867513
250	0x3e8102a2	0.2519732
251	0x3cbdae1c	0.02315431
252	0xbca1d42e	-0.019754495
253	0x3df9ba92	0.121937886
254	0x3e681ff2	0.22668436
255	0x3da9bc22	0.082878366

fc.4.weight f4 [128, 256]
0	0xbd241117	-0.04005536
1	0x3ba87360	0.005140707
2	0x3bc1525e	0.0058997115
3	0x3ce13510	0.027491122
4	0xbd7326c1	-0.05936313
5	0xbcd3d5d8	-0.025858805
6	0xbd21eca5	-0.039532322
7	0xbd965af1	-0.073415644
8	0xbda7ec1a	-0.0819933
9	0x3c5c3e31	0.013442562
10	0xbc8ceadb	-0.017201832
11	0x3c976c8a	0.018484373
12	0xbc972234	-0.018448927
13	0xbd9310b1	-0.07180918
14	0xbd5b1ec2	-0.05349613
15	0xbd09a8b5	-0.033608157
16	0xbc4ea388	-0.012612231
17	0x3d3c67ba	0.04599736
18	0xbd4bc354	-0.049746826
19	0x3d8ff1c0	0.07028532
20	0xbc53255a	-0.012887323
21	0xbbb5ae85	-0.005544486
22	0x3bb4f8f4	0.0055228416
23	0x3cae25bc	0.021258228
24	0xbda3085c	-0.07960579
25	0xbc6e0438	-0.014527373
26	0xbd510ea0	-0.051039338
27	0xbd8ab817	-0.067733936
28	0xbc6e1d50	-0.014533356
29	0x3d59ae8a	0.05314497
30	0xbd6a5d22	-0.057217725
31	0xbc2fffbe	-0.010742126
32	0xbd5b930e	-0.05360704
33	0xbd1be182	-0.038056858
34	0xbd6cfeea	-0.057860292
35	0x3c7683f7	0.015046111
36	0x3bbf8a90	0.0058453754
37	0xbd204b59	-0.039134357
38	0xbd6a439d	-0.057193387
39	0xbc2aabd0	-0.01041694
40	0xbd92ea65	-0.071736135
41	0x3c9ad329	0.018899517
42	0x3d3955ac	0.04524772
43	0xbd3d614f	-0.04623538
44	0x3e120551	0.1425984
45	0xbe294989	-0.16531958
46	0xbde21471	-0.11039055
47	0xbba8c375	-0.0051502534
48	0xbd306042	-0.04306055
49	0xbd805b36	-0.06267397
50	0xbc8af4cd	-0.016962433
51	0x3d8da25c	0.06915733
52	0x3c3961dd	0.011314836
53	0xbd896a9f	-0.067097895
54	0x3d901714	0.07035652
55	0x3c7948a8	0.0152150765
56	0x3cf0b534	0.02938328
57	0xbdb5109d	-0.08841059
58	0x3da4cdec	0.08047089
59	0x3d156638	0.036474437
60	0x3cc00383	0.023439175
61	0xbe47cf14	-0.19512588
62	0xbd2f8842	-0.042854555
63	0x3d534ca4	0.051586762
64	0xbda9a6e0	-0.08283782
65	0xbd9d77f8	-0.07688898
66	0x3cfc19c8	0.030774012
67	0xbd628640	-0.055303812
68	0xbe04e4e9	-0.12977947
69	0x3e10a0bf	0.1412382
70	0xb8c5d800	-9.433925e-05
71	0x3c4df9c9	0.01257176
72	0x3cb062fb	0.021531573
73	0x3d5511a6	0.052018784
74	0xbdab83e6	-0.08374767
75	0x3d85e981	0.06538678
76	0xbd6fdadd	-0.058558334
77	0x3bf27497	0.0073991525
78	0x3c065865	0.008199786
79	0xbd038bce	-0.03211575
80	0xbd1c6fe8	-0.03819266
81	0x3de70b15	0.112814106
82	0xbd2df2c1	-0.042467836
83	0x3cd39b2f	0.025830833
84	0xbd97d1e9	-0.07413084
85	0x3c9dc3a0	0.01925832
86	0x3d4a5b11	0.049403254
87	0xbd75466a	-0.059881605
88	0x3d787e0c	0.060667083
89	0xbdfe50a3	-0.12417724
90	0xbc865cb0	-0.016401619
91	0xbe3ae43e	-0.1825113
92	0x3c554310	0.013016477
93	0x3df44127	0.11926489
94	0xbd9c07f6	-0.07618706
95	0xbd80e291	-0.06293214
96	0xbbfa3010	-0.007635124
97	0x3d5923c1	0.053012613
98	0xbe18e080	-0.1492939
99	0x3d19db70	0.037562788
100	0xbcf596d1	-0.029979141
101	0x3ca7c6d8	0.020480558
102	0xbd0088df	-0.03138053
103	0x3d1420dc	0.03616415
104	0xbc7ad442	-0.015309395
105	0x3d369e94	0.044584826
106	0xbe1f1dc0	-0.15538692
107	0xbac86f80	-0.0015292019
108	0xbd3f5143	-0.046708357
109	0xbd078734	-0.033087924
110	0xbe45823b	-0.1928796
111	0xbd374933	-0.044747543
112	0x3cefbcb5	0.029264787
113	0x3ce84d44	0.028357156
114	0xbe1fe8fa	-0.15616217
115	0xbd61fed8	-0.05517468
116	0x3ca94f71	0.020667763
117	0xbc0a17d4	-0.008428533
118	0xbd682b2f	-0.056681808
119	0x3d580482	0.052738674
120	0xbc1b1974	-0.009466518
121	0x3a890340	0.0010453239
122	0xbc90e490	-0.017687112
123	0xbd9faf39	-0.07797093
124	0xba857f60	-0.0010185055
125	0x3d5314f4	0.051533654
126	0x3cd68bbf	0.026189683
127	0xbc27a1c9	-0.010231444
128	0x3b8ee359	0.004360598
129	0xbe557196	-0.20844111
130	0xbd82931d	-0.06375716
131	0x3c94c4ce	0.01816025
132	0x3ccb7a76	0.024838667
133	0x3dc68bf7	0.09694665
134	0xbd030d4e	-0.03199511
135	0xbd363789	-0.044486556
136	0xbcffc1a9	-0.031220274
137	0xbcd8e190	-0.026474744
138	0x3cfdcd8b	0.0309818
139	0x3dea7d38	0.11449665
140	0xbcbd5a30	-0.023114294
141	0xbd8270c9	-0.06369168
142	0x3d7af3a2	0.061267503
143	0xbd36cbe8	-0.044628054
144	0xbc1378a6	-0.009000933
145	0xbdc87a34	-0.097889334
146	0xbd7aaa3a	-0.061197497
147	0xbd0da53f	-0.03458142
148	0xbc84de63	-0.016219324
149	0x3d1bd8e6	0.038048647
150	0xbd1a20eb	-0.03762905
151	0xbd8ff149	-0.07028443
152	0x3b983a2e	0.0046456074
153	0xbe053c82	-0.13011363
154	0x3da55d76	0.08074467
155	0x3c8a74c2	0.016901378
156	0xbc4bdb34	-0.012442399
157	0x3d316ef0	0.04331869
158	0xbda18305	-0.07886318
159	0xbd86ddd1	-0.06585277
160	0x3d1dde29	0.038541947
161	0xbd667c21	-0.056270722
162	0xbceaa82c	-0.028644644
163	0x3aadc852	0.0013258553
164	0x3da42c24	0.08016232
165	0x3d1bc28c	0.03802733
166	0x3c954b24	0.018224306
167	0xbd0091e8	-0.031389147
168	0xbc8ee4dc	-0.017443113
169	0x3ccbfde4	0.024901338
170	0x3d0bc713	0.0341254
171	0xbc225928	-0.009908952
172	0xbd7af84d	-0.061271954
173	0xbd2b1596	-0.041768633
174	0xbcb18171	-0.021668168
175	0xbc1ce5c7	-0.009576268
176	0xbd53fb6f	-0.051753458
177	0x3dd61ad4	0.10454336
178	0x3ddd3d42	0.108026996
179	0xbe071947	-0.13193236
180	0x3d99a4b5	0.075021185
181	0xbd4929c9	-0.049112115
182	0x39eb1200	0.00044836104
183	0xbd70f3de	-0.05882632
184	0x3d386817	0.045021143
185	0xbc0f4bf8	-0.00874614
186	0xbd0f158b	-0.034932654
187	0x3ce6c98c	0.028172277
188	0x3dd6595a	0.10466261
189	0x3d2d3f8b	0.042296927
190	0x3be674a7	0.007032949
191	0x3cf07964	0.029354759
192	0xbc89f95e	-0.01684254
193	0xbd58ea53	-0.052957844
194	0xbb936d70	-0.00449913
195	0xbd253469	-0.040333185
196	0x3c23d16a	0.009998659
197	0x3d7f1bdf	0.06228244
198	0xbd0e0f07	-0.0346823
199	0x3c1bc460	0.009507269
200	0x3dd39731	0.10331572
201	0xbc80ed02	-0.015738014
202	0xbd847ab5	-0.06468717
203	0x3ca99ab5	0.020703653
204	0x3d8d4d66	0.06899528
205	0xbd71ceba	-0.05903504
206	0x3c4c7658	0.012479387
207	0x3d375b26	0.04476466
208	0xbe7aacbe	-0.24479958
209	0xbd128290	-0.035769045
210	0x3cd03dbf	0.025420068
211	0xbcc3fba7	-0.023923708
212	0xbddf4686	-0.10902123
213	0xbd9ede10	-0.07757199
214	0x3dd61a1a	0.10454197
215	0xbd17c6ca	-0.037054814
216	0x3d4b5eb1	0.04965085
217	0xba1fbf00	-0.000609383
218	0xbd52d596	-0.051473223
219	0x3db92713	0.09040656
220	0x3ce223c3	0.027604943
221	0x3cdf3e65	0.027251432
222	0xbd4f2176	-0.05056902
223	0xbdf18a74	-0.11793986
224	0xbcb2f010	-0.021842986
225	0x3d98ab7e	0.074545845
226	0xbd7329d9	-0.05936608
227	0x3ddb167a	0.106976464
228	0xbe7536e3	-0.23946719
229	0xbe20931a	-0.15681115
230	0x3d6f9364	0.058490172
231	0xbcf5adac	-0.02999004
232	0x3da7011a	0.08154507
233	0x3dac201b	0.08404561
234	0xbda75b1e	-0.08171676
235	0xbdd9d7b4	-0.10636845
236	0xbd157378	-0.036487073
237	0xbe03574a	-0.12826267
238	0x3d00800c	0.031372115
239	0x3c91f374	0.017816283
240	0xbcb1b05c	-0.02169054
241	0x3cbbf12d	0.02294215
242	0x3dd2b7c7	0.10288959
243	0xbd955fd3	-0.07293668
244	0x3e0b3436	0.13594136
245	0x3d8b4e5d	0.06802056
246	0xbd6d6d7f	-0.05796575
247	0x3db02960	0.08601642
248	0xbd07416a	-0.033021368
249	0x3d0a24cc	0.0337265
250	0x3cadde66	0.021224212
251	0x3d65e2c4	0.056124464
252	0x3da3ef99	0.08004684
253	0x3a970cd2	0.0011524206
254	0x3c0cce4f	0.00859411
255	0xbc41725d	-0.0118070515

fc.4.bias f4 [128]
0	0xbd5f0700	-0.054450035
1	0x3ebbcdb3	0.36680374
2	0x3e94d1a5	0.29066196
3	0xbd90365d	-0.07041619
4	0x3dbbb12a	0.09164651
5	0x3993118a	0.00028051093
6	0x3ead4820	0.3384409
7	0x3eb7bcfc	0.3588637
8	0x3ead9e19	0.3390968
9	0x3eaa79c2	0.3329602
10	0x3e9c45a0	0.3052187
11	0xbcdaaacc	-0.02669277
12	0x3ac32f7a	0.0014891468
13	0xbc6cdea8	-0.014457382
14	0x3ebd0ec0	0.36925316
15	0xbcead161	-0.028664293
16	0x3c7fa408	0.015603073
17	0xbd4fa2e2	-0.050692447
18	0x3d350d3d	0.044202078
19	0x3e958086	0.29199618
20	0x3d265cf4	0.04061599
21	0xbd4082b2	-0.04699964
22	0x3e71e6a3	0.23623137
23	0x3e66075e	0.22463748
24	0x3d05f4b3	0.032704066
25	0xbca3ca67	-0.019993974
26	0x3e812059	0.25219992
27	0x3d673c85	0.0564542
28	0x3e8ef8bf	0.27924153
29	0xbd6c2049	-0.057647977
30	0x3e850a34	0.25984347
31	0x3c930aae	0.017949428
32	0x3d356a07	0.04429057
33	0xbc8524a9	-0.016252832
34	0x3c342088	0.010994084
35	0x3ca1882e	0.019718256
36	0xbc7fa875	-0.015604128
37	0x3e6928a7	0.22769414
38	0x3e8966ae	0.2683615
39	0x3d49cdbd	0.049268473
40	0x3ce30f98	0.027717397
41	0x3e36d4f6	0.17854676
42	0xbcfcd58d	-0.030863548
43	0xbd87a541	-0.066233166
44	0xbe02ee6f	-0.12786268
45	0x3d1fb2d6	0.03898891
46	0xbd1af313	-0.03782947
47	0xbca99ef7	-0.020705683
48	0x3db0e8af	0.08638131
49	0x3bc55bdd	0.006022914
50	0x3c85233f	0.016252158
51	0xbd80c5b8	-0.06287712
52	0x3cfb94b1	0.03071055
53	0xbd3b2b97	-0.045695867
54	0xbc89d4d2	-0.016825113
55	0x3e9140f7	0.28369877
56	0xbd0ba6b7	-0.03409454
57	0xbd3f8fdc	-0.046768054
58	0x3c5ea002	0.0135879535
59	0xbd65206e	-0.05593913
60	0xbd1e0912	-0.03858287
61	0xbdb6f447	-0.08933311
62	0x3e51c288	0.20484364
63	0x3d180657	0.03711542
64	0x3d385f4e	0.045012765
65	0x3b787f5c	0.003791771
66	0x3cf48e36	0.029852968
67	0xbd5b7078	-0.053574055
68	0x3cc57ffb	0.024108877
69	0xbd5a9b8d	-0.053371
70	0x3e846533	0.2585846
71	0xbc8f0006	-0.017456066
72	0x3e7d22ba	0.24720278
73	0xbcb26986	-0.021778833
74	0x3d959a39	0.07304806
75	0x398c2994	0.0002673386
76	0x3e6c034a	0.2304813
77	0x3eb4b33e	0.35293
78	0xbca3c7c6	-0.01999272
79	0x3e96dda3	0.2946597
80	0xbd47f906	-0.04882147
81	0xbda206d0	-0.07911456
82	0x3d81d9bd	0.063403584
83	0x3da46f16	0.080290005
84	0xbd99af2e	-0.07504116
85	0x3a0ee30a	0.00054507016
86	0xbce23b68	-0.027616218
87	0xbc5867fa	-0.013208384
88	0x3ce48248	0.027894154
89	0xbd8a9497	-0.067666225
90	0x3d65821b	0.05603228
91	0x3e94bff6	0.29052705
92	0xbc04e75b	-0.0081118
93	0x3b9dbab9	0.004813519
94	0xbd300b0b	-0.04297928
95	0x3d719fff	0.058990475
96	0x3d457fc6	0.048217557
97	0x3d053b80	0.032527447
98	0xbcfddc1e	-0.03098875
99	0xbcf1c633	-0.029513454
100	0x3ddc0b75	0.10744373
101	0x3c2ae9bd	0.010431704
102	0xbd654c8d	-0.055981208
103	0x3e8f3c98	0.27975917
104	0xbd86eaef	-0.06587779
105	0xbc986938	-0.01860486
106	0x3ce8d2f8	0.02842091
107	0x3e2f2288	0.17103016
108	0xbd38d970	-0.04512924
109	0x3ec12dfc	0.37730396
110	0x3ca06570	0.01957962
111	0x3cdbd87d	0.026836628
112	0x3ca48617	0.02008347
113	0x3d3e5ac8	0.046473294
114	0x3d008432	0.03137607
115	0x3e1e1721	0.1543851
116	0x3ea65c52	0.3249231
117	0xbd31777f	-0.04332685
118	0x3e7e807c	0.248537
119	0x3c83b2d4	0.016076483
120	0xbda2a5f9	-0.07941813
121	0xbbe440c0	-0.0069657266
122	0xbc405808	-0.011739738
123	0xbb68be67	-0.003551388
124	0x3e208858	0.15677011
125	0x3d04ea63	0.03245009
126	0xbbd67448	-0.0065446235
127	0xbd175d79	-0.036954377

fc.6.weight f4 [4, 128]
0	0xbe0132c2	-0.12617019
1	0x3e22a9d3	0.15885095
2	0x3e0dcac4	0.1384688
3	0x3daf4085	0.08557228
4	0xbc3f5848	-0.011678763
5	0x3d2874b3	0.041126918
6	0x3e387e40	0.1801691
7	0x3da17d04	0.07885173
8	0x3e3a36b4	0.1818493
9	0x3d9f5868	0.07780534
10	0x3dfb095a	0.12257643
11	0xbb625df3	-0.0034540861
12	0xbcc1785b	-0.02361696
13	0xbb8032a4	-0.003912287
14	0x3df7f1a9	0.1210664
15	0x3d341213	0.04396255
16	0x3acb5a40	0.0015514567
17	0xbca9df9f	-0.020736514
18	0x3e547f06	0.2075158
19	0x3e153b19	0.14573325
20	0x3d84130e	0.06448947
21	0xbc8d9a79	-0.017285572
22	0x3c7b95fa	0.015355581
23	0x3dbe8b25	0.093038835
24	0xbd534592	-0.05158002
25	0xbca5182d	-0.02015313
26	0x3df97c64	0.12181929
27	0x3e2b4319	0.16724814
28	0x3dbe27d8	0.09284943
29	0xbbc22ba6	-0.0059256135
30	0x3d8d73c5	0.06906847
31	0xbd4ae6d5	-0.049536545
32	0x3c220419	0.009888672
33	0x3c13c6bb	0.009019549
34	0x3d178809	0.036994968
35	0x3d2709df	0.0407809
36	0x3ec36786	0.3816492
37	0x3d1c46f4	0.038153604
38	0x3e4d3a7b	0.2004184
39	0x3c62634e	0.013817621
40	0x3cc74606	0.024325382
41	0x3a3c7c13	0.00071901194
42	0xbd94bb0d	-0.072622396
43	0x3a644e54	0.00087091816
44	0xbd160108	-0.036622077
45	0xbd386348	-0.045016557
46	0x3d55d436	0.052204333
47	0x3b235578	0.002492277
48	0x3f5f69a6	0.8727058
49	0x3d4f406a	0.05059854
50	0x3eadbdc8	0.33933854
51	0x3c35b58a	0.011090646
52	0x3cc7e0b6	0.024399143
53	0xbd3f13db	-0.046649795
54	0x3d1e521d	0.038652528
55	0x3dbf3492	0.09336199
56	0x3ae6ae39	0.001759953
57	0xbb583ce6	-0.0032995283
58	0xbd06eb6f	-0.03293937
59	0x3dd19993	0.1023437
60	0xbce1e47e	-0.027574774
61	0xbd619add	-0.05507933
62	0x3dad9118	0.0847494
63	0x3be05aa8	0.0068467446
64	0x3ce172f4	0.027520634
65	0xbdbe84ac	-0.09302649
66	0x3d45ae95	0.048262198
67	0x3d846c7c	0.06466004
68	0x3cb91070	0.022590846
69	0xbcb089df	-0.021550117
70	0x3e18649b	0.14882128
71	0xbdfb26e4	-0.12263277
72	0x3e08398b	0.13303201
73	0xbb861c61	-0.0040927385
74	0x3d58eaff	0.052958485
75	0xbc57bfef	-0.013168319
76	0x3dd2c942	0.10292293
77	0x3e2fd674	0.17171651
78	0xbb2bf8d1	-0.0026240835
79	0x3e0a0c04	0.13481146
80	0x3d5be662	0.053686507
81	0xbc9ab5cb	-0.018885514
82	0x3c96c3c4	0.018403895
83	0xbccadd39	-0.02476369
84	0xbb6c7b7e	-0.003608435
85	0x3cb35852	0.0218927
86	0xbcfbc8a7	-0.030735327
87	0x3cedfcd9	0.029051231
88	0x3ce40200	0.027832985
89	0xbcd57764	-0.026057906
90	0x3e2a2761	0.16616584
91	0x3d1a6a86	0.037699245
92	0x3d898d60	0.06716418
93	0xbc9d9653	-0.01923672
94	0xbc0fdff7	-0.008781425
95	0x3ee4b27a	0.44667417
96	0x3d8867ff	0.06660461
97	0xbd9e9a14	-0.07744232
98	0xbd57c35c	-0.052676544
99	0xbc6fbe88	-0.0146328285
100	0x3acdb89b	0.0015695276
101	0xbcbeb0d9	-0.023277687
102	0x3d96ade8	0.07357389
103	0x3e6ff78b	0.23434274
104	0x3c8cae45	0.017172942
105	0x3d3b9034	0.04579182
106	0x3c1e413e	0.00965911
107	0x3d509fd0	0.05093366
108	0x3cc02d46	0.023459088
109	0x3e29a5a1	0.16567089
110	0x3dab130e	0.08353244
111	0x3cf6ffe5	0.030151317
112	0x3dc2a3b2	0.09503879
113	0xbd78a637	-0.06070539
114	0xbdee7a1a	-0.11644383
115	0x3d453fc7	0.048156526
116	0x3e0939ee	0.13401005
117	0xbd5115ed	-0.0510463
118	0x3de5b5f4	0.112163454
119	0x3de96a73	0.11397257
120	0x3ce2f9ce	0.027707007
121	0x3d32c71e	0.043646924
122	0x3d0e7b06	0.034785293
123	0x3bfda1d1	0.0077402373
124	0x3db76cbb	0.089562856
125	0xbc541bce	-0.012946082
126	0x3d084c69	0.033275995
127	0x3c99a19c	0.01875382
128	0x3dca5845	0.09880117
129	0x3e0417b5	0.12899669
130	0x3e170a46	0.14750013
131	0xbcb51fc0	-0.022109866
132	0x3df57ffa	0.119873
133	0xbc3fe384	-0.011711959
134	0x3dd797f9	0.10527033
135	0x3e357f24	0.17724282
136	0x3d8cab1c	0.06868574
137	0x3e170db8	0.14751327
138	0x3e106246	0.14099988
139	0xbc30fb48	-0.010802098
140	0xbc46328a	-0.01209701
141	0x3d3d2448	0.04617718
142	0x3e2dfa5f	0.1699004
143	0xbbbf1bd1	-0.0058321734
144	0x3c381e68	0.011237718
145	0xbc491b85	-0.012274628
146	0xbdf1a23b	-0.11798521
147	0x3e3a67c8	0.18203652
148	0x3cc07be6	0.02349658
149	0xbb118577	-0.0022204795
150	0x3e120e88	0.14263356
151	0x3dbb2a3a	0.091389135
152	0xbd1c94da	-0.038227893
153	0x3d02f092	0.031967707
154	0x3d81b6be	0.063336834
155	0x3d987bf1	0.07445515
156	0x3dae334d	0.085058786
157	0x3d985fe8	0.07440168
158	0x3df0a4bd	0.11750171
159	0x3dd28fcc	0.10281333
160	0x3cab1d76	0.020888072
161	0xbd7e8c2e	-0.062145405
162	0x3cd01668	0.02540131
163	0xbd589e09	-0.05288509
164	0xbdf376d7	-0.11887901
165	0x3d87a19f	0.06622624
166	0x3e02a533	0.12758331
167	0xbd81afaa	-0.063323334
168	0xbb41c5d3	-0.0029567375
169	0x3db92e67	0.09042054
170	0xbcf11798	-0.029430196
171	0xbdb27e2d	-0.08715472
172	0xbd47c807	-0.048774745
173	0xbc44e67d	-0.012017843
174	0x3c660761	0.014039845
175	0xbd998f8c	-0.074980825
176	0x3f20d2a6	0.62821424
177	0x3aad0233	0.0013199508
178	0x3e8300d5	0.25586572
179	0xbca6fcac	-0.020384155
180	0x3d97d028	0.074127495
181	0x3c838231	0.016053291
182	0x3c5930f0	0.0132562965
183	0x3e360a77	0.1777743
184	0x3d8a64a0	0.06757474
185	0x3b9201b0	0.0044557676
186	0x3cd40d39	0.025885211
187	0xbd913358	-0.07089871
188	0xbca5889d	-0.020206744
189	0x3c7401a1	0.0148929665
190	0x3d1f57d7	0.03890213
191	0xbd8a5212	-0.06753935
192	0x3d64aadc	0.055827007
193	0x3c90757e	0.01763415
194	0xbdadba99	-0.08482856
195	0xbc68bb1b	-0.014204766
196	0x3c7796a1	0.015111596
197	0x3d9c8013	0.07641616
198	0x3dc4e381	0.096137054
199	0xbd198685	-0.037481803
200	0x3c95184b	0.01820006
201	0xbc6e9131	-0.0145609835
202	0xbb1e57be	-0.0024161185
203	0xbcd721f9	-0.026261317
204	0x3e080c2e	0.13285896
205	0x3e26647a	0.16249266
206	0xbd8bd642	-0.06827976
207	0x3d690f7c	0.056899533
208	0x3bcf0f2b	0.006318947
209	0x3d48424e	0.048891358
210	0x3dc07c5b	0.09398719
211	0xbbe8a6cc	-0.007099962
212	0xbd2eeded	-0.042707372
213	0x3c20a9e7	0.009806133
214	0xbc8a4ead	-0.016883219
215	0xbd5155b2	-0.051107116
216	0xbcb73ddd	-0.022368366
217	0xbc839bf6	-0.016065579
218	0xbcc5d476	-0.02414916
219	0x3e369834	0.17831498
220	0x3bc2963f	0.005938321
221	0x3d489a84	0.048975483
222	0xbd3bde6e	-0.045866422
223	0xbde1c5a1	-0.11024023
224	0xbdad7ba9	-0.08470852
225	0xbd3ae1dc	-0.045625553
226	0xbd5fd34a	-0.05464486
227	0x3ddebae3	0.108754896
228	0x3ce57cf4	0.028013684
229	0x3d197472	0.037464567
230	0xbc9e8ca7	-0.019354178
231	0x3e4a6962	0.19766763
232	0x3c8266a4	0.015918083
233	0x3d06af7b	0.032882195
234	0x3ce316eb	0.02772089
235	0x3d6efa24	0.05834402
236	0x3d5d19e2	0.053979762
237	0x3e19e01f	0.15026902
238	0xbc6990e5	-0.014255737
239	0xbd9dc2a7	-0.077031426
240	0xbdbfbb39	-0.09361882
241	0xbc9d59b1	-0.019207807
242	0xbd267adb	-0.040644508
243	0x3dc6a80c	0.09700021
244	0x3e0b3ccb	0.1359741
245	0x3cfc79a5	0.030819723
246	0x3e062e4f	0.13103603
247	0x3d581b0b	0.052760165
248	0xbd574407	-0.05255511
249	0xbd05c5e9	-0.032659445
250	0x3b7bec99	0.0038440584
251	0x3d063d42	0.032773264
252	0xbca9132d	-0.020639027
253	0x3adb9ce5	0.0016755132
254	0xbcbfac87	-0.023397697
255	0x3d882f87	0.0664969

fc.6.bias f4 [4]
0	0x3e3a645b	0.18202345
1	0x3e65201c	0.2237553
2	0x3e80900d	0.25109902
3	0x3e21c626	0.15798244
