0615/슈팅_총알제한.pth (torch, 403712 bytes, 8 tensors)

fc.0.weight f4 [256, 3]
000000 90 8f 5f 3e 80 84 ce bb ac 20 d6 be 26 f6 49 be
       0.21832108 -0.0063024163 -0.41821802 -0.19722804
000010 cc 20 dc 3e 3d ec e8 be 62 65 9a 3e 10 90 d1 3e
       0.42993772 -0.45492736 0.30155474 0.40930223
000020 c8 ea 1f 3f c0 d6 ee bc 40 9f e0 3d 98 b3 ed 3e
       0.6246762 -0.029155135 0.109678745 0.46426082
000030 5e 45 f8 be 98 47 52 be a8 3e d4 be 93 d4 14 bf
       -0.48490423 -0.20535123 -0.41454053 -0.5813686
000040 cc ff 45 3e d1 38 ad be fe 71 5e bf 84 cd 81 be
       0.1933586 -0.3383241 -0.8689269 -0.25352108
000050 46 54 d8 bd 2c 85 f7 be a5 e4 b9 be 60 38 05 bf
       -0.10562949 -0.4834379 -0.36307254 -0.52039146
000060 d9 d4 43 3f e7 82 fb be 4a 5e c2 be 70 95 a4 3d
       0.76496655 -0.49123308 -0.37962562 0.080363154
000070 dd d5 be be 6d 96 8b be 1e f5 83 be dd 9c 1c 3f
       -0.3727254 -0.27263203 -0.25772947 0.61176854
000080 63 f0 fe be fa 1b a7 3e e6 29 12 3f c5 e0 7e be
       -0.49792776 0.32638532 0.5709518 -0.2489043
000090 30 69 93 bd df bf 8c be 00 d3 99 bc 6b 55 13 bf
       -0.07197797 -0.27490136 -0.01877737 -0.5755221
0000a0 41 02 b7 3e 21 ce dd 3e 91 bf 1f 3f 3f 22 be bd
       0.35743907 0.43321326 0.6240168 -0.09283876
0000b0 5c 9e 0b 3f 30 42 1d 3e b2 c0 d2 be d2 72 ad 3e
       0.5453851 0.1535728 -0.4116264 0.33876663
0000c0 9e ff b5 be 2e 7b 52 3f e5 96 8f be 10 9a ce be
       -0.35546583 0.8221921 -0.2804481 -0.40351915
0000d0 e2 45 d3 be c2 47 c6 be 1e 0b 05 3f 47 56 6e 3d
       -0.41264254 -0.38726622 0.5197009 0.05818775
0000e0 53 26 03 3f 99 d3 ea be 4c 1c 21 3f 53 46 28 3f
       0.51230353 -0.4586456 0.629338 0.65732306
0000f0 f9 b1 32 3f 14 73 1c 3f 09 29 03 bf 1d e0 7a 3e
       0.69802815 0.61113095 -0.5123449 0.24499555
000100 5e da da be ba 3d 55 3f e2 da aa bb 8f 94 b8 be
       -0.42744726 0.8329731 -0.005214081 -0.3605084
000110 25 61 0c bf ad c9 25 3f fe 0d 98 be 4d 70 a9 3e
       -0.5483573 0.6476086 -0.29698175 0.3309349
000120 66 7c 25 3f 40 93 0d 3e c3 c5 e4 bd 40 6f a5 3e
       0.6464294 0.13825703 -0.111705326 0.3231144
000130 09 cf 98 be 03 00 09 bf 7a e6 16 bd f9 d4 d2 3e
       -0.29845455 -0.5351564 -0.036840893 0.4117811
000140 7f f8 83 be ec 14 a4 be 6f 8e 1f 3f 07 5f 4d bf
       -0.25775525 -0.32047212 0.6232671 -0.80223125
000150 2e b1 46 3f 13 16 ea be 45 67 6b be 38 73 8d 3f
       0.77614105 -0.45719966 -0.22988613 1.1050787
000160 b0 07 52 3e f1 3f d1 3e bb fa 63 be d9 2c f9 3e
       0.20510745 0.40869096 -0.22263615 0.4866703
000170 8f e0 21 3f 18 5d d9 bc fa 18 2d bf 92 06 9a 3d
       0.63233274 -0.026533648 -0.67616236 0.075207844
000180 43 eb 57 bd 7e 37 13 bf d4 0c 6b be 1b 6c 24 3f
       -0.052714597 -0.5750655 -0.22954112 0.64227456
000190 13 ad 8a 3e ab 94 4c be 8b ba 0f bf 70 63 34 3e
       0.2708517 -0.19978587 -0.56144017 0.17616057
0001a0 bd ab 0f 3f d9 d0 b8 3e b6 35 8e 3e 34 66 2a 3f
       0.56121427 0.36096838 0.27775353 0.665622
0001b0 a1 22 fc 3e 6b 9d de be 55 18 d9 3e 2e 7c 3f be
       0.4924517 -0.43479475 0.42401376 -0.18699715
0001c0 76 62 e9 be 70 fc f2 be 18 c8 1b bf 75 99 f5 3e
       -0.45582932 -0.4745822 -0.60852194 0.4796864
0001d0 af fa 85 3e c4 c4 32 be ba 49 07 3f 0c d1 08 be
       0.2616782 -0.17457873 0.5284687 -0.13360995
0001e0 c2 f9 ba 3e e4 26 bd be e2 ae ad be f5 04 1d bf
       0.36518675 -0.36943734 -0.33922487 -0.6133569
0001f0 fd 9b d5 be 00 8e 2e be c3 c4 41 bf c7 25 17 bf
       -0.41720572 -0.17046356 -0.7569086 -0.5904202
000200 7c 2e b0 bd 23 e1 16 bf 7d 00 10 bf b2 4c 5e 3e
       -0.08602616 -0.5893728 -0.56250745 0.21708944
000210 d4 f8 0d 3f 00 de 00 bd 50 b4 56 3d c0 05 12 3f
       0.55457807 -0.031461716 0.052418053 0.57040024
000220 80 3b ce bd f3 6e e2 bd 70 6f a5 3e 50 97 ed 3e
       -0.100699425 -0.11056318 0.32311583 0.46404505
000230 81 13 15 be 5a 08 62 bf 18 b8 96 3e 32 93 ea bd
       -0.14558221 -0.88293993 0.29437327 -0.114538565
000240 a4 ae 2f bf 69 bd ac bd 6e 4b c9 be 91 3b c5 bd
       -0.68625855 -0.084345646 -0.3931536 -0.09630502
000250 e0 37 12 3f 22 12 09 bf c7 e9 05 bf f6 5e 1c 3f
       0.5711651 -0.53543293 -0.5230984 0.610824
000260 10 eb 9a be 38 98 2b bf e8 0e 36 3e 10 94 86 be
       -0.30257463 -0.6702914 0.17779124 -0.26284838
000270 c3 2a ea be 35 b4 00 3f 5b b8 19 bf 24 18 ec 3e
       -0.4573575 0.50274974 -0.6004693 0.46112168
000280 73 c3 12 3f 1c a5 07 bf df 35 43 3f 90 45 36 3f
       0.5732948 -0.5298631 0.76254076 0.71199894
000290 fe a5 a8 be 6d 02 5b bf c8 1d b3 be 01 2e 29 3e
       -0.32939142 -0.85550576 -0.3498366 0.16521455
0002a0 26 b8 29 3f 96 48 f9 3e 1a d3 48 bf f4 b8 01 3f
       0.66296613 0.4868819 -0.78447115 0.5067284
0002b0 8f 8e 9e be ab 15 8f bd 20 e4 04 3d 50 1d 08 bd
       -0.3096814 -0.06986555 0.03244412 -0.03323108
0002c0 44 23 32 3e d0 4b 5a bd cc 88 9b be 78 12 ce be
       0.17396265 -0.053294957 -0.30377805 -0.40248466
0002d0 ba 72 52 bf cf 14 bd be e7 4a 27 be a2 1c 25 3f
       -0.8220631 -0.36929938 -0.16337167 0.64496815
0002e0 02 2c bc 3e 0f 8b c6 3e 07 41 ca be 74 4d 95 be
       0.36752325 0.38777968 -0.39502737 -0.29160655
0002f0 56 1e 53 3e 1c a3 54 3f 4a 4a c2 bd 5a 7e d2 be
       0.20617041 0.83061385 -0.09486826 -0.41112024
000300 30 29 62 bd 4c 89 db be b8 dc 9f 3e 7e bc 85 be
       -0.05521506 -0.42878187 0.31223083 -0.2612037
000310 ca 62 26 3e b4 60 98 3e 29 00 29 3f d6 14 b5 3d
       0.16248623 0.2976128 0.6601587 0.08841865
000320 fe 23 f9 3e 8b 33 04 3f 57 c0 17 3f be 1d 79 3e
       0.48660272 0.5164115 0.5927786 0.24327752
000330 70 6e c3 3c 11 78 0d 3f 18 8c 19 3f 8f ee f3 3e
       0.023856372 0.5526133 0.5997939 0.47642943
000340 ef 87 1f 3f 81 8f d9 3e 2f 2a 29 bf f1 ad 2b 3e
       0.62316793 0.42492297 -0.6607999 0.16765572
000350 bb b0 33 3d 06 5e 28 3f 38 c8 3b 3e 4f 50 96 3d
       0.043869715 0.6576847 0.18338096 0.073395364
000360 e3 25 d2 be 91 a6 8d 3e 5f 7a a1 3e 8c f3 0d 3e
       -0.4104453 0.27666143 0.31538674 0.13862437
000370 37 a5 09 bf a8 fb c6 bd 7f 34 55 3e 7c 7a b3 3e
       -0.5376772 -0.09715968 0.20820807 0.35054386
000380 86 40 fe 3e 80 11 29 3d d8 5e da bd 42 a3 0e be
       0.49658602 0.041276455 -0.10662621 -0.13929465
000390 ac 83 f8 be 09 a5 d0 be b0 9d ab 3e 2c 65 70 3e
       -0.48537958 -0.40750912 0.33518744 0.23476094
0003a0 b8 be ea be 1e c5 e1 be b0 03 be 3e b5 e4 0d bf
       -0.45848632 -0.440957 0.37112188 -0.55427104
0003b0 10 49 3a 3e 67 95 4a bf 6c 1c c6 bd 5c cf 2d bf
       0.18191934 -0.7913422 -0.0967339 -0.6789453
0003c0 9f c1 b1 3e 93 42 bf be 68 cb 10 3e 23 a7 2b bf
       0.34718034 -0.3735548 0.14140093 -0.67051905
0003d0 7d dd 14 3f 79 a0 12 bf 1b 88 04 bf 4b d1 1d 3e
       0.58150464 -0.5727611 -0.5177018 0.1541187
0003e0 46 99 00 bf e4 08 41 bf de e5 ee 3e 81 e2 db be
       -0.50233877 -0.7540419 0.4665975 -0.42946246
0003f0 04 1d 86 3e a6 8f a8 3e c8 67 f6 bd 07 d8 ac 3d
       0.26194012 0.32922095 -0.120315135 0.084396414

fc.0.bias f4 [256]
000000 50 1b 45 be 27 05 11 bf 94 47 9d be 68 c8 0e bf
       -0.192487 -0.56648487 -0.30718672 -0.55774546
000010 bb 04 ea be 65 e5 03 3e 6e 32 50 bd 5e 62 0d bf
       -0.45706734 0.12880476 -0.050829343 -0.5522822
000020 0e 85 81 3e 4e 97 8f be a6 c7 c8 3e 10 6b 45 bd
       0.25296825 -0.28045124 0.3921482 -0.048197806
000030 c2 71 f5 be da 9c 8b be 20 3e fd be ee c5 06 bf
       -0.47938353 -0.27268106 -0.4946146 -0.52645767
000040 91 c1 a2 3d a2 1d d9 be a0 27 eb bd 50 d7 c2 be
       0.07947076 -0.4240542 -0.11482167 -0.38054895
000050 1c 66 80 bd e1 91 89 be a4 b1 2f 3f b2 27 cc bb
       -0.06269476 -0.2686911 0.68630433 -0.006230318
000060 4d 01 c2 3d 40 e5 dc bd 15 5d 15 3c 05 a0 db 3e
       0.09472904 -0.107859135 0.009116431 0.42895523
000070 4e 60 0b 3e 9a 7d c9 be 70 2f 1b 3e 80 4b 06 3f
       0.13610956 -0.3935364 0.15154815 0.52458954
000080 6b 61 1d 3f df 65 0b 3f 6c ec 92 3d 54 84 a4 3d
       0.61476773 0.5445232 0.07174 0.08033052
000090 b7 33 89 3e a5 fe f9 be f7 d9 1a be 18 63 e3 be
       0.26797268 -0.4882709 -0.1512221 -0.4441154
0000a0 88 ae 52 be 29 4e 7b 3e c6 3b 0a 3f 84 7b ae 3e
       -0.20574391 0.24541534 0.5399746 0.3407861
0000b0 83 57 e1 be ea 29 00 3f f8 a2 3a be 20 6b 18 3d
       -0.4401208 0.50063956 -0.1822623 0.037211537
0000c0 66 ea a7 3e 1f 36 d7 3e 67 2d c6 3e 4e fb 71 3e
       0.3279602 0.4203348 0.38706514 0.23631021
0000d0 62 2e 34 3e a9 a0 9c 3e 59 d3 f4 be 91 24 42 bd
       0.17595819 0.30591324 -0.47817495 -0.047398154
0000e0 a3 8a 1d 3f a9 69 f0 3e 1b 83 05 bf a7 44 99 be
       0.6153967 0.46955612 -0.52153176 -0.2993519
0000f0 99 a9 7c be 32 89 0f bf 5f 74 09 3f 26 92 9f be
       -0.24674071 -0.5606872 0.53693193 -0.3116619
000100 51 39 94 be 59 ea 04 bf 81 f0 a3 bd 4b 58 18 3f
       -0.2894998 -0.51920086 -0.08004857 0.59509724
000110 b6 31 19 be 60 20 3e 3e 27 04 96 3e 52 78 ba 3e
       -0.1496037 0.18567038 0.29300043 0.36419922
000120 a8 8e c2 3e 10 c8 d8 be bc 6b 95 be da 6f 54 be
       0.37999463 -0.42340136 -0.29183757 -0.20745793
000130 ec 61 df 3e 0d bd dd be e6 8b 48 be 8a 8c 6f bd
       0.43629396 -0.43308297 -0.19584617 -0.058483638
000140 e5 21 0d 3f 63 53 64 bd 54 e5 ac 3e 0c 73 6c 3c
       0.55129844 -0.055743586 0.33768713 0.014431726
000150 e4 d4 f5 be c0 cf 9a 3d 50 05 52 bd 0f 69 10 bf
       -0.48013985 0.075591564 -0.051274598 -0.56410307
000160 d4 6b df be b7 bf 26 3f 8e eb 76 be 40 1a 8f 3e
       -0.43636954 0.65136284 -0.24113294 0.27949715
000170 a5 34 12 3f af 00 0d 3f 46 54 33 be b6 34 e1 be
       0.5711158 0.5507917 -0.17512617 -0.43985528
000180 9e 42 07 3f 28 41 bd be 5b c5 e4 3e 78 a9 c1 be
       0.52836025 -0.36963773 0.4468182 -0.37824607
000190 d8 46 ea 3e a2 57 e4 3d 05 0d 03 bb 95 ae 02 3f
       0.45757174 0.11149527 -0.0019996774 0.5104764
0001a0 ea e4 a5 3e a6 0d 1d 3d dc f0 cc be ff 57 9b 3d
       0.3240121 0.038343094 -0.4002751 0.07585143
0001b0 8d f9 03 3f c0 d8 fa be f2 49 b4 be f7 df 0e bf
       0.5155266 -0.48993492 -0.35212666 -0.55810493
0001c0 ed d5 c2 be 5b 7a 13 bf eb 68 f6 3e df b9 4b 3e
       -0.38053837 -0.57608575 0.4812692 0.19895123
0001d0 1c 21 c2 be c0 9c 30 be da e7 17 3e 52 18 34 be
       -0.37915885 -0.17247295 0.14834538 -0.17587402
0001e0 24 09 95 3e 16 ea 29 3e 19 46 e0 3e f2 4e 81 be
       0.29108536 0.16593203 0.4380348 -0.25255543
0001f0 95 28 c7 be 1f 46 79 3e 20 79 04 bf 7a e2 3c 3e
       -0.3889815 0.24343155 -0.5174732 0.18445769
000200 d3 9f b3 3e d7 e3 e0 be 5c 9f ae be c5 a3 c0 3e
       0.35082874 -0.43923828 -0.34105957 0.37624946
000210 ff bf d4 3e b3 24 11 3e 96 7b 0e 3f 23 d8 95 3d
       0.4155273 0.14174156 0.5565733 0.073166154
000220 09 6e 6c 3e ab a3 93 3e 9e 8f 0b bf 05 18 02 3f
       0.2308885 0.28835806 -0.5451602 0.508179
000230 bb e3 74 be 68 27 cc bc 51 bf 06 be 1e 67 e0 be
       -0.23914997 -0.024921134 -0.13158919 -0.43828672
000240 40 ba 1a be 93 ff c0 3e 48 e3 cb bd 64 41 d5 bd
       -0.15110111 0.37694988 -0.0995546 -0.10412863
000250 a1 12 be be 41 5d 0e bf 41 bc c5 3e d0 b5 a9 bb
       -0.37123588 -0.55611044 0.3862019 -0.0051791444
000260 29 82 4a be 26 2b ce be 63 0c b3 be 6d 21 07 bf
       -0.19776215 -0.40267295 -0.34970388 -0.5278538
000270 60 b3 b2 be 1d d2 80 be 08 51 90 3e bb 60 ee 3e
       -0.34902477 -0.25160304 0.28186822 0.46558174
000280 a2 35 9c be 37 e3 df 3e c0 58 e1 bc 19 8d b1 3e
       -0.3050967 0.4372804 -0.02750814 0.3467796
000290 1a f8 a9 be 8a 20 51 3f 32 35 e7 bd 43 54 a1 3d
       -0.331971 0.81690276 -0.11289443 0.078774
0002a0 7c 71 bf 3e 94 0e 66 be 5c a5 00 3f f7 7d f9 bd
       0.3739127 -0.22466499 0.5025232 -0.12182229
0002b0 34 5a 88 3e ed c7 aa be 7e 2b db 3e 4a 44 95 bc
       0.2663132 -0.33355656 0.4280662 -0.01822104
0002c0 41 bc 01 bd a3 bd c3 3e a8 9c 85 bc 01 6c 8a be
       -0.031673674 0.3823062 -0.016310051 -0.27035525
0002d0 d5 74 8c be 60 ce 38 be 36 4c 30 be 4d a4 cb 3e
       -0.27432886 -0.18047476 -0.17216572 0.3977379
0002e0 b2 45 ba be bc 31 46 3e 4a 5f fa be e8 65 d4 3e
       -0.36381298 0.1935491 -0.48900825 0.41483998
0002f0 5a fc 8f 3e 57 17 f1 3e d6 27 bd be 3a 40 c5 be
       0.28122216 0.4708812 -0.36944455 -0.38525563
000300 7b 63 63 3d 51 9d 73 bd c5 85 87 be 24 c0 04 3f
       0.055514794 -0.0594762 -0.26469246 0.51855683
000310 77 8f e0 3e 58 8e a8 3e 8d fa c2 3e 30 79 d8 3e
       0.43859455 0.329211 0.3808178 0.4227996
000320 b3 d9 0c bf 11 40 94 3e 4a fc 4c be f5 45 0d 3f
       -0.5501968 0.2895513 -0.20018116 0.5518487
000330 f5 44 1f 3f 41 bb 02 3f a3 41 23 bd 6e ea 66 bd
       0.62214595 0.51066977 -0.039857518 -0.056375913
000340 af 06 92 bd 9f 2f de be fa d2 35 3f 13 ab 02 3f
       -0.07130181 -0.43395707 0.7102505 0.5104229
000350 fc b0 d3 be f2 1d 18 3f 6c 6a 9c 3e f8 23 f4 3d
       -0.41345966 0.5942069 0.30549943 0.11920923
000360 fe 3c a9 3e a4 99 01 3f 92 f1 1a be 59 39 24 3e
       0.33054346 0.5062506 -0.15131214 0.16037501
000370 be f5 e1 3e 80 e2 8d bd f2 60 55 be 7d 30 9c be
       0.441328 -0.06927967 -0.20837763 -0.30505744
000380 19 59 11 3f 7f cd 03 3f 69 28 48 be b7 34 80 3e
       0.5677658 0.5148544 -0.19546665 0.25040218
000390 6e b6 1b 3f e2 e8 b2 3e 34 42 e2 3e 89 c6 df be
       0.6082524 0.349433 0.44191134 -0.43706158
0003a0 c9 f3 2a 3e 89 03 8d 3e d6 47 aa 3e 17 08 da 3e
       0.16694559 0.2754176 0.3325793 0.42584297
0003b0 2d d4 74 3e dc 05 d3 3d 9e 3f 9f be ce a7 a0 be
       0.23909064 0.10303852 -0.31103224 -0.31378025
0003c0 ea 37 5c be cd 6b bb be 5c 02 64 3e 7f 38 c6 be
       -0.21505705 -0.36605683 0.22266525 -0.38714978
0003d0 17 3c 4e 3d 8c 2c b8 bd c7 38 14 3e 7f 70 8c bd
       0.050350275 -0.08992872 0.14474784 -0.068573944
0003e0 63 da 20 bd 2c 1c 57 be 1a b0 43 be 93 dd 14 3f
       -0.03927077 -0.2100684 -0.19110146 0.58150595
0003f0 94 bb a5 be 24 81 66 be 23 c8 0c 3e 20 e2 8f bb
       -0.32369673 -0.225102 0.13748221 -0.00439097

fc.2.weight f4 [256, 256]
000000 d0 22 a0 3b f4 09 05 3d 5f 8f d0 3d 2c 13 ed 3c
       0.0048869625 0.032480195 0.10183596 0.028939806
000010 00 49 c4 3c 19 ef ae bf dc 85 d6 bd 4a 14 15 bd
       0.02396059 -1.3666717 -0.104747504 -0.036396302
000020 de 27 30 3f 30 28 9d 3c 8f 24 00 3d 53 c0 25 3e
       0.6881083 0.019184202 0.031284865 0.16186647
000030 00 40 e2 36 a1 a1 f7 be 7e a4 10 3f 10 bc 79 3d
       6.7427754e-06 -0.483655 0.56500995 0.060970366
000040 a5 5f 7d be da fe 64 3d 3a 7d 35 3e 98 b8 c2 be
       -0.24743517 0.055907108 0.17723551 -0.3803146
000050 eb 80 af 3e 66 76 62 3e d7 d7 1c 3e b2 1f d7 3e
       0.34278044 0.22115478 0.15316711 0.4201637
000060 f9 ab a7 3e ce f9 25 bd 3c e4 09 bd 92 42 39 3e
       0.32748392 -0.040521435 -0.033664927 0.18091801
000070 f0 2e ec 3e fc ed 1f 3f de 51 00 be 4d c0 8f 3a
       0.4612956 0.6247251 -0.1253123 0.0010967344
000080 15 a9 34 bd 72 29 28 3e 7b 20 8a be c8 db 8a 3c
       -0.04410656 0.1642206 -0.26977906 0.016950503
000090 d2 c4 24 3e 98 52 1c bd d5 e0 1e bf 60 19 16 bc
       0.16090706 -0.038164705 -0.62061816 -0.009161323
0000a0 52 b1 22 3d 3c 5d 80 3f c2 9c c0 bd 46 7b e3 bd
       0.039719887 1.0028453 -0.09404899 -0.11107497
0000b0 b6 ae 2e bd d9 85 67 3e 6a 0a 94 3e ea 5d 91 be
       -0.042647086 0.22609653 0.28914195 -0.28391963
0000c0 da bf e0 3e 90 dc 90 3d 3a 99 5d bd 7c 85 c3 3d
       0.4389637 0.07073319 -0.054101206 0.095469445
0000d0 02 cb 98 3e 58 30 8c 3e 34 a3 07 3f 59 f0 87 3e
       0.29842383 0.27380633 0.52983403 0.26550558
0000e0 5e 75 78 3e 24 b5 60 3e c0 07 3c bc 84 93 ee bc
       0.24263522 0.219441 -0.011476457 -0.029123075
0000f0 94 ac c8 bd f5 57 11 3f f6 31 c7 bd 9a 9d 12 3f
       -0.09798542 0.56774837 -0.09726326 0.5727173
000100 e0 2f 09 bd 28 f2 61 3c 7b bc ba 3e 81 89 d9 3d
       -0.033492923 0.013790645 0.36471924 0.1062193
000110 9d ee 33 bd a4 fc 11 3d dc 1f 73 be 9c 2c 33 3e
       -0.04392873 0.035641328 -0.23742622 0.17497486
000120 80 fd 89 bd 44 f4 05 3d 96 67 84 3c 50 98 8b 3b
       -0.067378044 0.032703653 0.016162675 0.0042601004
000130 f0 7d 5f be 30 82 fc bb d8 0a 4b 3c a1 b5 b8 3e
       -0.21825385 -0.0077059492 0.012392722 0.36076072
000140 55 60 1f 3e 92 a5 ae be c7 9d 0c 3f 19 69 e8 bf
       0.15564092 -0.34110695 0.5492825 -1.8157073
000150 9e 7d 41 3d b1 67 48 3b ca 5f 18 bd ee 4d 63 3d
       0.04723894 0.0030579383 -0.037200727 0.05549424
000160 ea 95 43 3d 17 6e 41 bd ac 6e ea 3c 35 16 6d 3e
       0.04775039 -0.04722413 0.028617226 0.23153003
000170 f1 4e 8b be b8 a8 3f bc 7f 3b 5d be c0 3d 99 bc
       -0.27208665 -0.0116979405 -0.21604727 -0.018706203
000180 f7 a3 c5 3c 96 d2 0b 3d 98 fc 26 3d e3 80 a6 3e
       0.024126036 0.034136377 0.040768236 0.32520208
000190 44 59 2e bd 18 f6 30 bd c4 09 3a ba 55 d4 92 3e
       -0.0425656 -0.043203443 -0.0007096792 0.2867762
0001a0 11 de c8 3e 52 91 4f 3e 03 99 17 bf b0 1e 89 3f
       0.39231923 0.20270279 -0.5921785 1.071249
0001b0 da 32 7d 3d 70 44 d4 3c a8 a5 18 3c 30 8e 57 3c
       0.061816074 0.02591154 0.009316839 0.013156459
0001c0 d4 f4 9b bf 8d d8 8e be 0a 62 5a 3e 5e 98 ab 3e
       -1.2184091 -0.2789959 0.21326461 0.33514684
0001d0 e0 dd fe bc 86 82 03 3f 53 15 6f 3e 00 59 5f 3b
       -0.031111658 0.5137104 0.23347978 0.0034080148
0001e0 1d 1a 67 3d e7 f0 e5 3e 02 3b 97 be 10 15 34 bc
       0.056421388 0.44910356 -0.29537207 -0.01099135
0001f0 ee a9 90 be 8b ad 5e 3e ec dd 90 bc ed 0c ed 3d
       -0.28254646 0.21745889 -0.017683946 0.11574731
000200 fe d1 07 be e3 e9 19 3d 49 98 2e 3f 06 3a 51 3e
       -0.132637 0.037576567 0.6820112 0.2043229
000210 2b be 4d 3d 18 fb aa be 6b 28 03 bd 92 29 82 bf
       0.050230186 -0.33394694 -0.032020967 -1.0168936
000220 60 a2 b9 be 10 22 ac 3e 40 38 93 3a 48 49 25 bc
       -0.36256695 0.33619738 0.0011231974 -0.010088272
000230 32 eb fc 3e 6d 25 63 be 33 1e bd 3e 2c 08 fc 3c
       0.4939819 -0.22182246 0.36937103 0.030765615
000240 f0 75 0c 3d 25 e9 8d 3c 24 c5 21 3d 70 ac d7 bd
       0.03429216 0.017323086 0.03949465 -0.10530937
000250 e8 54 48 3d e0 8c 46 3c 32 a1 ad be fc e7 b6 3d
       0.048909098 0.012118548 -0.33912045 0.08930966
000260 6f 32 8c 3e 9c c9 af 3c 90 0d 5a bc d0 96 42 3d
       0.27382228 0.02145844 -0.013308898 0.047507107
000270 a9 05 b9 3e 34 9d ac 3c db 13 2c 3e e1 e4 41 be
       0.3613713 0.021071054 0.1680445 -0.18934967
000280 e7 d8 dd 3e 9b b5 75 be 18 d5 e8 bc 52 98 0f 3d
       0.43329546 -0.23995058 -0.028421924 0.035057373
000290 5f 4a 46 be 59 60 c5 3d 33 ac de be fc 9e 53 bf
       -0.19364308 0.096375175 -0.43490753 -0.82664466
0002a0 fb 44 58 3e 4e 47 40 3d bd b3 1e bd 13 6e cf 3e
       0.21120064 0.046943 -0.03874563 0.40513667
0002b0 a8 a9 08 3f 74 29 9f bd 18 e7 47 bc df a2 9c 3e
       0.53383875 -0.077715784 -0.012201093 0.3059301
0002c0 5a 76 da 3e ff a1 25 be 0e c0 5a be 70 3d 58 be
       0.4266842 -0.16175078 -0.21362326 -0.21117187
0002d0 16 bb 6c 3d 24 e6 44 3d 3a 1c 6f bd 90 91 90 bd
       0.057795607 0.04807104 -0.05837653 -0.07059014
0002e0 70 ee 8c bb a1 c7 d1 3d 22 92 6b bf 8a b9 70 be
       -0.004300885 0.10243154 -0.92019856 -0.23508278
0002f0 59 03 9c 3e 86 51 28 3e bc f2 20 3d aa 62 58 3d
       0.30471304 0.16437349 0.03929399 0.05282847
000300 2e 9c b7 3f c5 cc 2c 3e 76 05 3f 3c db b5 24 3f
       1.4344537 0.16874988 0.011659017 0.6433999
000310 a1 0f b6 bd ed ea 63 bd 79 cb 88 3e 58 37 53 be
       -0.088897 -0.055643965 0.26717737 -0.2062658
000320 68 37 53 bc 01 bc f2 3e 58 be 5f 3c 72 0b 64 3f
       -0.012891628 0.4740906 0.013656221 0.89079964
000330 fc b8 72 be 64 cd 53 3e c7 6a ec 3c 40 c8 e0 3c
       -0.23703378 0.20683819 0.02885951 0.027439237
000340 b8 8c fb 3d 31 05 4e be 6e 3e b8 3e 5e 3c 3b be
       0.12282699 -0.20119168 0.3598513 -0.18284747
000350 39 33 10 bf d0 f7 6b bd 82 8c a2 be 3b 45 f4 be
       -0.5632816 -0.05760938 -0.31747824 -0.4770907
000360 8a fd 82 3e fb 43 85 3e fe 00 0b 3d 1f 8e 0c be
       0.2558406 0.26028427 0.033936493 -0.1372609
000370 ab 5d 3b bd 50 6e 6c bc 62 c5 35 3f 56 08 93 3e
       -0.045743626 -0.014430597 0.7100431 0.28717297
000380 6c 5f ed be 37 8d 04 3e 7e 49 1b 3f ec ee af bd
       -0.46361864 0.12944494 0.60659015 -0.085904926
000390 16 96 5c 3b 05 6d 44 3d 66 69 35 3e ed ed b2 3e
       0.0033658794 0.04795553 0.17715988 0.34947148
0003a0 1e c9 df be 7e 1c 58 be 80 cf 14 3e 44 66 c9 3d
       -0.43708128 -0.21104619 0.1453228 0.09833959
0003b0 05 7d b9 3d 93 58 bb be f3 26 9b be ed b0 60 bf
       0.09057049 -0.36591014 -0.30303153 -0.8776997
0003c0 9b bc eb 3e 76 b8 17 3d 9f d2 7a 3f 98 2f 4f bf
       0.46042332 0.03704115 0.9797763 -0.80932
0003d0 6f 5b a8 be 2a eb d5 3c 27 6a 8e 3f 27 46 84 3e
       -0.32882258 0.026113112 1.1126145 0.25834772
0003e0 f3 c9 0b bf d8 d6 95 3c 40 97 60 3d ff 20 29 3c
       -0.54605025 0.018290922 0.054831743 0.010322808
0003f0 14 9a 1a 3f b0 d4 a0 3e de ca b8 3d 9e 85 9a 3e
       0.60391355 0.31412268 0.09023069 0.30180067

fc.2.bias f4 [256]
000000 f4 cd 15 3d c7 47 09 3e 17 72 06 3e 1c 7f 67 ba
       0.036573365 0.13406287 0.1312946 -0.00088308915
000010 26 9f 58 3d d2 2c 44 3d d2 6e 61 bd d8 ae f8 bd
       0.05288615 0.047894306 -0.055037327 -0.12142724
000020 d6 29 1b 3d c7 1b 2c bc 6d fc 93 3d 27 fc 4b bc
       0.037881695 -0.0105046695 0.07225881 -0.0124502545
000030 4b 51 08 3d 7d 63 9d 3d dc 37 0a bd dc 2f b8 bc
       0.033280652 0.076849915 -0.033744678 -0.022483759
000040 f2 fd 8b ba 45 ac b1 bd 3e d2 75 bd 50 46 43 3e
       -0.001068054 -0.08675436 -0.060014956 0.19069791
000050 4d 30 87 bd 71 85 5f bd a2 2d 5c 3e 61 5b 4d bd
       -0.066010095 -0.05457062 0.21501783 -0.050135974
000060 36 04 c0 3c 6e e6 67 bc 94 c6 54 3c 24 c4 ad bd
       0.023439508 -0.01415406 0.012986798 -0.084846765
000070 35 55 bf bb 24 fa 4f 3e 90 fc c7 3b c2 1b e7 3d
       -0.005839015 0.20310265 0.006103106 0.11284591
000080 38 09 23 3d 4d 4f 8c bd f7 a7 83 bc d0 89 36 3d
       0.039803714 -0.06851063 -0.016071303 0.044565022
000090 38 37 3f 3e 45 6d da bc 30 72 71 3c f1 4f 31 3e
       0.18673408 -0.026663432 0.014736697 0.17315651
0000a0 68 28 67 bd be 51 1c bd 1d 0f 8b 3d 62 69 53 bd
       -0.05643502 -0.038163893 0.06789992 -0.051614173
0000b0 3e 78 2e be 09 a2 38 3d 0c a6 14 3d 66 d6 61 3e
       -0.17038056 0.045076404 0.036291167 0.22054443
0000c0 f0 f4 dc 3d 25 a5 28 3e 3e 1d 24 3e 97 8b 2b bd
       0.107889056 0.16469248 0.1602678 -0.04188117
0000d0 12 27 eb 3d 3f 81 2a 3e 53 d8 c5 3d f3 52 d2 bd
       0.114820614 0.16650866 0.09660401 -0.102697276
0000e0 0b cd 2c bd a4 3e eb bc 75 30 32 3d 79 77 18 3e
       -0.04218773 -0.028716393 0.043503243 0.14889325
0000f0 e0 bf b5 3d fc 94 fa bc ce 29 0a bd a1 b7 df bc
       0.08874488 -0.03058862 -0.033731274 -0.02730924
000100 bc 13 0b bd 67 16 a4 bd bb cf 51 3c d4 2c 5a 3d
       -0.033954367 -0.080120854 0.012805874 0.053265408
000110 09 34 54 3d 89 85 e5 bd 16 31 00 3d 74 92 3b bd
       0.051807437 -0.112071104 0.031296812 -0.045793965
000120 b6 bf 9d bb 0e 1c 27 be 55 6e 54 3e 9a 23 13 bd
       -0.0048141135 -0.16319296 0.20745213 -0.035922624
000130 a3 b4 07 bd 33 a3 3b 3e 82 d4 14 3e 5d ee 65 bd
       -0.033131253 0.18323974 0.1453419 -0.056135524
000140 f3 52 c5 bc 05 bb c5 3d 20 b9 ca bb 76 73 f5 3b
       -0.024087405 0.09654812 -0.0061866194 0.0074905707
000150 b5 1d e6 3d 85 36 a3 3d 68 db a3 bc 41 44 ce 3d
       0.11236135 0.07969383 -0.020002082 0.10071612
000160 66 4d 3d 3d 0b 6d 4f bd bd 4f 03 bd 0a ca db 3d
       0.04621639 -0.0506411 -0.032058466 0.10731895
000170 cb 3f 4d 3e 3b e6 d3 3d 5a 14 41 3c 28 d7 64 3c
       0.20043866 0.10346647 0.011784637 0.013967313
000180 c6 5a 5b bd e6 ee 08 bd c3 f5 7c bd 44 7d 11 3e
       -0.053553365 -0.033430956 -0.061757814 0.14207941
000190 e1 75 d1 bb e4 30 39 3e 30 04 6c 3d ad 33 28 3d
       -0.006392226 0.18085057 0.05762118 0.041064907
0001a0 8f e7 23 3e 60 f8 16 3d 6f 04 e9 3d 24 d3 c0 3c
       0.16006301 0.036857963 0.11377799 0.02353818
0001b0 c8 43 64 3c f5 f4 ae 3d 63 2a db 3d 3a 69 29 bc
       0.013932176 0.085428156 0.10701444 -0.010340029
0001c0 fc aa cb bd e8 ab 1b bc b1 d9 6d 3e c1 8d dc bd
       -0.09944722 -0.009501435 0.23227574 -0.10769225
0001d0 3c 64 0d bd 60 15 84 bb 29 40 3f 3e f6 48 1b bd
       -0.03451942 -0.0040308684 0.18676819 -0.037911378
0001e0 23 bb 47 3e 6e ba f7 3d cb f2 2e 3e b1 66 f7 bc
       0.1950498 0.120961055 0.17084806 -0.030200334
0001f0 50 e3 ea bc 81 05 f4 bc 2a ea b1 39 79 a4 0e 3e
       -0.028672844 -0.02978778 0.00033934537 0.13929929
000200 e8 8f a4 3d c6 9f a0 3d 55 17 23 be 89 5a 83 bd
       0.080352604 0.07842974 -0.15926869 -0.064137526
000210 24 33 25 be 70 b9 f9 3c 95 b7 06 3e a0 56 fc bb
       -0.1613279 0.030483931 0.13155968 -0.007700756
000220 59 2c 0f bb f1 62 3a 3d 94 dc 78 3c 86 00 ae 3c
       -0.0021846502 0.045504514 0.015189309 0.021240484
000230 30 47 3f bc 9c 2c a4 bc c0 34 83 3d 23 ad 23 3c
       -0.011674687 -0.020040803 0.06406546 0.0099900095
000240 d9 83 26 3d 37 70 2a 3d a5 2b 91 bb 0f 86 53 3d
       0.040653083 0.041610923 -0.0044302517 0.05164152
000250 5f 6d 85 bd 31 63 bc 3c c2 8b 35 bd d8 ec f1 3d
       -0.065150015 0.022996517 -0.044322737 0.118127525
000260 cb 0f e6 bd 62 de 5c bc 75 20 fa 3c e0 91 5c bb
       -0.11233481 -0.013480755 0.030533055 -0.0033656284
000270 4d f2 22 bc 22 0a 81 3d ea 43 3d bd aa c4 12 3d
       -0.009945464 0.06300761 -0.046207346 0.035832085
000280 30 de a9 bc b5 d4 65 bd 12 4d 21 bd e0 0c e0 3d
       -0.02073583 -0.056111056 -0.03938014 0.10939956
000290 87 6f 9f 3d 11 45 2b 3c 88 ca 67 bd 02 5e 10 bd
       0.07784944 0.010453478 -0.056589633 -0.035245903
0002a0 2d b8 f2 bb 80 a0 41 3b f0 73 54 3e d7 f4 ac bc
       -0.0074072094 0.0029545128 0.20747352 -0.021112842
0002b0 04 57 6c 3e cb b9 31 3d 34 e1 e2 3c d4 6c bc bc
       0.23080069 0.043390077 0.027695276 -0.023001112
0002c0 d6 ae 4b bd 14 08 28 3d 68 1e 8e bd a3 75 f8 bc
       -0.049727283 0.04102333 -0.06939393 -0.030329531
0002d0 f8 9c 23 3c 7d 53 3d 3e 69 ac e1 3d a8 f2 bb bc
       0.009986155 0.1848888 0.11019213 -0.022942856
0002e0 f3 be 52 3e 74 11 9c bc 6f a1 f5 bc 5d 6f 15 3d
       0.20580654 -0.019051291 -0.029984204 0.036483157
0002f0 53 20 e9 bc 6b 66 1e 3e 5c 99 ff 3c 90 80 87 3d
       -0.028457796 0.15468757 0.031201057 0.06616318
000300 a0 44 a7 3d 84 e6 ff 3d 2d 67 30 bd c7 a9 98 bd
       0.08167386 0.12495139 -0.043067146 -0.074542575
000310 b8 8e f8 bb 38 3f 36 bc c6 d7 11 3d 10 4c cb bb
       -0.007585373 -0.011123471 0.03560617 -0.0062041357
000320 ef d4 21 3e ae 98 cd bd fc 52 e6 bb ba 55 3a bd
       0.15803884 -0.10038887 -0.0070289355 -0.04549191
000330 67 6d 7f bc 95 02 d9 bc b0 fd 61 3d 8d 73 ec bc
       -0.015590048 -0.026490489 0.055173576 -0.028863693
000340 17 b3 1c bd fc 4f 20 be cc 1d 1c bd d0 52 8b 3b
       -0.03825673 -0.15655512 -0.038114354 0.0042518154
000350 da cc 46 bd 50 1a 95 bb 2f 31 af bc 16 ee 7a bd
       -0.048535205 -0.004550256 -0.021385757 -0.061262213
000360 50 ad 9e bd 00 b1 95 3c 0b 0d 7e bd 7f 21 07 3d
       -0.077479005 0.018272877 -0.062024157 0.03299093
000370 8a eb f5 3d 1c 19 50 bd 8b 2b 84 bd 5d 4f 5c bd
       0.12007816 -0.050805196 -0.06453618 -0.053786624
000380 cf 32 af bd 76 b5 1d 3e 2d 37 02 bd 31 90 2b 3e
       -0.08554613 0.15401253 -0.0317909 0.16754223
000390 a2 a6 3b 3e ea ea 89 bd 80 72 5d ba 4d 01 12 3e
       0.18325284 -0.067342594 -0.0008447543 0.14258309
0003a0 cb bc 36 3d 18 e5 eb bc 33 83 4a bd f8 6a fc 3d
       0.04461364 -0.028795764 -0.049441528 0.1232509
0003b0 08 dc 19 bd 64 04 be 3c 20 1e cd 3d cc ac 3a 3e
       -0.037563354 0.023195453 0.100155115 0.1822998
0003c0 5e fc 1d bd 3b b6 fd 3c 0a 6b 48 3d 49 aa 8f bc
       -0.038570754 0.030970683 0.048930205 -0.017537253
0003d0 2e 7e 07 3d 0c 9d 04 3d c0 7c e3 bc f9 74 b2 3c
       0.03307932 0.032376334 -0.027769446 0.021784293
0003e0 eb f5 4b 3d 29 6e a6 bc 8d 66 4e 3d ed e8 e5 3d
       0.049795073 -0.0203162 0.05039077 0.11226068
0003f0 40 c6 40 3c 36 15 9d 3d ff 88 71 bc ac 2b 69 3e
       0.0117660165 0.07670061 -0.014742135 0.22770566

fc.4.weight f4 [128, 256]
000000 31 9f 9e 3e 7c 67 86 bd a2 3d c2 bd 84 b3 dc bc
       0.30980828 -0.06562707 -0.09484412 -0.026941068
000010 6a 46 16 3e 83 9d 37 bc 20 e4 f7 3c 01 2a 8b 3d
       0.14675298 -0.011206987 0.030260146 0.06795121
000020 db 58 0b bd 66 f9 fb bf 5e 75 35 3d dc 88 c5 be
       -0.034020286 -1.9685485 0.044301383 -0.38580978
000030 5b 20 5f bd 31 ab b9 3e fb 02 7f bd 42 94 24 3d
       -0.054474216 0.3626342 -0.0622587 0.040180452
000040 51 7b 4d 3d d9 28 85 3d bc 1c f3 3e 62 cf 89 3d
       0.05016643 0.06501932 0.4748286 0.06729008
000050 c9 ef 70 3d 0c 75 f3 ba 17 c2 8f bd d1 6d 18 3e
       0.058822427 -0.0018574311 -0.070194416 0.14885642
000060 62 ed 04 bd bf ff cd 3e 87 0b 90 bd 43 e3 d3 3d
       -0.03245295 0.4023418 -0.07033449 0.10346081
000070 fc 55 87 bc 99 5d f5 bd c5 30 0d bd 7b b8 8f bd
       -0.016520493 -0.11980743 -0.03447034 -0.07017609
000080 30 d5 70 bd 56 d7 81 bd eb b9 2e be 1c ba cd bc
       -0.05879706 -0.063399 -0.1706311 -0.025113158
000090 87 e5 46 bd 7b e4 2a 3c 90 84 59 3d 70 98 18 3e
       -0.048558738 0.010430451 0.053104937 0.149019
0000a0 14 88 ac 3c 76 3d 02 3e 55 09 6b be 25 6f dc 3d
       0.02106098 0.12718758 -0.22952779 0.10763387
0000b0 ed 4b 93 3e ef 63 b7 be 60 da 04 3d ee 12 6b bd
       0.28768864 -0.3581843 0.03243482 -0.0573911
0000c0 fa 2b fb 3b 3a 9b cd bd 3d 6a c6 bd d7 fc 59 bc
       0.0076651545 -0.10039373 -0.09688232 -0.013304911
0000d0 e8 3c 16 be 11 9c a7 bd 53 b2 6d bc 6b 39 75 3e
       -0.14671671 -0.08184064 -0.014507848 0.23947684
0000e0 d8 cc 10 3e 70 64 f0 3b 89 31 2d bd 6d 0c 06 bc
       0.14140642 0.007336192 -0.04228357 -0.0081816735
0000f0 82 ad 30 3e 9a 16 ba be b5 91 43 be c8 f6 ba be
       0.17253688 -0.3634537 -0.19098552 -0.36516404
000100 0c ff 03 3d 42 2a 3f 3f c8 47 7d 3f 00 ab 17 bd
       0.032225654 0.74673855 0.98937654 -0.037028313
000110 39 78 ff 3d 2e 9c 97 3e ed 2d 0d be f3 9b ae 3c
       0.124741025 0.29611343 -0.1378705 0.021314597
000120 7f 84 ca 3d 0f 74 ec 3d ed de fd bd 38 92 74 3c
       0.09888553 0.11545574 -0.12396035 0.014927439
000130 c2 19 b8 3c 68 7a 45 3b 51 29 8a be bd 27 5f 3e
       0.02247322 0.0030132774 -0.26984647 0.21792503
000140 8d a8 3d be 99 07 b4 3b fc 08 2f 3d 81 e1 41 bd
       -0.18521328 0.00549407 0.042733178 -0.047334198
000150 1a 98 0a 3e 60 62 c6 3d 80 42 92 bc bd 5f f0 bd
       0.13534585 0.09686732 -0.017853975 -0.11737011
000160 03 9c bb bc f1 16 fa bc c4 52 a8 3e ab 4a d2 bd
       -0.02290154 -0.030528517 0.32875645 -0.10268148
000170 41 15 88 bd f5 8e 28 bf b4 9b 06 3c f6 73 d9 bc
       -0.06644679 -0.65843135 0.008215833 -0.026544552
000180 50 ac e4 3c b4 8b 4a bd 56 71 f7 b8 42 d4 a6 be
       0.027914196 -0.049449638 -0.00011798988 -0.32583815
000190 37 3d 95 bc cd 08 7d bd 28 5c f0 3c cb 1b a9 bf
       -0.018217666 -0.06177597 0.029340819 -1.3211607
0001a0 97 40 2a bd bb 0e 30 3d 91 c8 91 bd 5e f6 3c 3d
       -0.041565504 0.042982798 -0.07118333 0.04613339
0001b0 a4 b6 ae 3c b4 dd ee be 4a d1 38 be 28 c2 9d bc
       0.021327324 -0.4665352 -0.18048587 -0.01925762
0001c0 4a 4e 04 3f c1 83 3a 3e e5 e8 ec 3b 1a ca c5 3e
       0.5168196 0.18214323 0.0072299116 0.38630754
0001d0 72 cf 52 3d 8c 99 76 bd db 53 8d bd bc c2 bf 3c
       0.051467367 -0.060205027 -0.0690076 0.023408286
0001e0 6a 3f cf 3c 01 cc c1 bd d1 07 05 be 77 12 39 3d
       0.025298793 -0.09462739 -0.12991263 0.045183625
0001f0 84 66 58 3d 34 78 55 3e d5 ca f0 bc 03 03 31 3b
       0.05283214 0.20846635 -0.029393593 0.0027009852
000200 35 fb bf be 81 56 7a 3d df 78 2f 3e 8e eb 58 3d
       -0.37496343 0.061117653 0.17135952 0.052959017
000210 15 9b a4 3e 7a 36 1f 3d 4f 80 7c be 70 6c c3 3c
       0.32149568 0.038870312 -0.24658321 0.023855418
000220 b5 ca 40 bc 87 0c 0d be 01 99 e3 bc e0 59 5f 3e
       -0.011767079 -0.1377431 -0.027782919 0.21811628
000230 20 0e 26 3d c9 f2 cc 3c b8 17 a1 bd f2 d2 23 3d
       0.040540814 0.025018113 -0.07865852 0.039996095
000240 39 a5 d3 bb 9f cc 2c bd 3b cd 11 bc 50 9a 53 3d
       -0.006458905 -0.04218733 -0.008899028 0.051660836
000250 51 5a ab 3c 07 58 77 3e 80 24 22 bd e9 ed 5c 3e
       0.02091709 0.24154674 -0.03958559 0.2157513
000260 28 ac 1b 3e 17 2e 21 3e 28 13 8e bd 48 5e 32 3d
       0.15202391 0.15740238 -0.069372475 0.043546945
000270 db dd cc bc f4 30 bb bd aa 6c 3a 3d 48 1c 55 bd
       -0.025008133 -0.091401964 0.045513786 -0.052028924
000280 40 80 a3 3e 48 a8 36 bd 5c d9 37 bd 99 49 bf 3e
       0.31933784 -0.04459408 -0.044885024 0.37360838
000290 d7 4c d6 bd 6b d0 c0 be b0 04 0b bd 7a 61 9d be
       -0.10463875 -0.3765901 -0.033940017 -0.3073843
0002a0 18 2d da 3d 40 15 99 3b cd 60 e2 bd b2 99 a9 3c
       0.10653132 0.0046717227 -0.110536195 0.02070317
0002b0 7c 58 b6 bd 00 2a 9d bc d0 c0 58 3c d6 a4 3e bd
       -0.08903596 -0.019185066 0.013229564 -0.04654392
0002c0 6a 0c 29 bd 57 16 05 3f f7 c0 15 bd 33 d8 37 be
       -0.041271605 0.5198721 -0.03656098 -0.17953567
0002d0 36 3d 6f bd ea e4 ef bd ad 5a 81 bc a4 c5 14 bd
       -0.058407985 -0.11713584 -0.015790308 -0.036321297
0002e0 86 3a d9 3b 19 3a 5e bd a6 c6 ea be 2d ba f6 bd
       0.006629291 -0.054254625 -0.45854682 -0.12047229
0002f0 0a fd be 3d dd fa e8 bd 50 5c 71 bc 01 ce ae 3d
       0.09325607 -0.113759734 -0.014731482 0.08535386
000300 c4 ef 52 3e a4 7f 5c 3c c9 49 a6 3e 79 26 86 3e
       0.20599276 0.013458166 0.3247817 0.26201227
000310 42 30 08 be c8 ab ec bc fd 08 e0 be fc e1 05 bd
       -0.13299659 -0.028890505 -0.43756858 -0.03268622
000320 0e b8 cb bb 39 fe 2d be ca 82 c4 3c 1a 81 39 3d
       -0.0062170094 -0.1699151 0.023988146 0.045289136
000330 ce 29 3c bf 23 c8 f8 3b 7c dd a5 3c 61 06 17 be
       -0.7350129 0.0075922175 0.020247214 -0.14748527
000340 eb f6 38 3d 92 76 ab 3e 18 23 e7 bc 8e 75 0e bd
       0.045157354 0.334889 -0.028214976 -0.034780078
000350 a3 ae 6d bd 02 dc 76 3d df 6c 53 3d d6 38 7e 3d
       -0.058027875 0.06026841 0.0516175 0.06206592
000360 e0 f6 87 3e bc 03 5b 3d ac fb 16 bc fc 70 81 3e
       0.26555538 0.05347036 -0.009215277 0.25281513
000370 09 f5 6e bd f6 57 b2 3c f4 2e b4 3c a9 cc c2 3b
       -0.058339152 0.021770459 0.021995045 0.0059448075
000380 99 ac 3b 3e a1 7a 6f 3c 07 fa 13 bd 8f 52 10 be
       0.1832756 0.014616639 -0.036127117 -0.14093994
000390 ef ae b9 bd 94 d6 54 3d 14 87 13 3d 1b 65 4a bd
       -0.09066569 0.05196245 0.036017492 -0.049412828
0003a0 75 0b c0 bc c0 3d a7 3a c1 ff 15 3c ec 28 09 bf
       -0.023442963 0.0012759492 0.009155215 -0.53578067
0003b0 d0 21 82 bb dc 1c 04 3e 52 67 3b bf 86 14 43 bd
       -0.003971316 0.12901634 -0.7320453 -0.047626995
0003c0 54 78 76 bc c1 37 65 3e 59 f9 89 3e 1b d8 3f 3c
       -0.015043337 0.2238455 0.2694805 0.011709238
0003d0 d4 62 97 3b bb 0f 93 be 6e 29 6a 3d e9 66 fa bc
       0.0046199355 -0.2872294 0.057168417 -0.03056665
0003e0 e6 f6 e0 3e 63 e2 8c bb 9c a5 54 bd b3 12 53 be
       0.4393837 -0.0042994483 -0.05191575 -0.20612602
0003f0 20 bc 5d 3d f2 8b 5c 3d 0b f3 ae 3e bf 59 c2 bd
       0.054134488 0.0538444 0.34169802 -0.09489774

fc.4.bias f4 [128]
000000 7e 2e e8 bc dc 9c 45 bd 28 8b 2e bc 67 d6 d0 bc
       -0.028342482 -0.048245296 -0.010653295 -0.02549286
000010 a4 79 48 3d 2e b7 ee bd bc 56 33 3e 0d 08 96 3c
       0.04894413 -0.116560325 0.17513555 0.018314386
000020 ff f3 cc bb 72 83 78 3e 1c a9 27 bd 53 69 35 bd
       -0.0062546725 0.24268892 -0.04093276 -0.044289898
000030 06 25 2c 3e 3b ed 7f 3e 7d 0f 2a bd b5 55 1b ba
       0.16810998 0.2499284 -0.041518677 -0.0005925552
000040 85 ac 37 bb 52 40 4d 3e 66 bb a2 3b 69 25 10 3e
       -0.0028026414 0.20044068 0.0049661873 0.14076771
000050 e3 c2 43 bd 0f 23 c1 3c a8 63 4e 3e c2 66 79 3e
       -0.04779328 0.023576288 0.20155203 0.24355605
000060 0d 51 d5 bb d8 5e 94 3e 95 c6 11 3e f1 0e 86 3e
       -0.006509906 0.2897861 0.1423591 0.26183274
000070 69 6f f4 bc e0 12 3b 3d d6 34 5a 3d 68 b5 16 3e
       -0.02983828 0.045672297 0.053273045 0.14717638
000080 cb db f6 3d 52 a1 43 3c 61 61 07 bd 75 c9 5e 3d
       0.12053641 0.011940317 -0.033051852 0.054391343
000090 7f d9 ae 3d 00 4e d6 bd d0 7e 6e bc a1 1a 09 3d
       0.08537578 -0.10464096 -0.014556602 0.03347266
0000a0 22 91 7b bd 1c 6a 76 3e 7e bd 42 bc b6 27 b6 3d
       -0.061417706 0.24063915 -0.011885999 0.08894293
0000b0 5c 40 3e 3e 90 b6 11 bc 25 59 b1 3d 9d 15 3d bb
       0.18579239 -0.008893624 0.08659581 -0.0028851994
0000c0 88 5b 4d 3d 00 ba 61 bd 7c bf 9b bc 3a 6c a3 bd
       0.05013612 -0.055109024 -0.019012205 -0.07979627
0000d0 16 24 bb bd b1 5d aa bd 80 e5 95 3a b6 af 30 bd
       -0.09137742 -0.083186515 0.0011436194 -0.04313632
0000e0 7a 4f 54 bd 0a 8d 24 3e 2e 3a 8e bd 72 be 84 3c
       -0.051833607 0.16069427 -0.06944691 0.016204093
0000f0 48 2d 63 3e 86 ed 37 3e cd 82 1f bc 90 aa c9 3a
       0.22185242 0.17961702 -0.009735775 0.0015385915
000100 d0 6e 05 3d 8d dd 31 bb 84 24 b3 3c fb 7b 70 3e
       0.032576382 -0.0027140111 0.021867998 0.23484795
000110 fe d7 bf bb d7 cf 95 bd 41 a4 5d 3e 50 63 8e 3c
       -0.0058546057 -0.07315033 0.21644689 0.01738134
000120 1c d8 ff bc 47 b7 b5 bd c7 6d 8c 3e 27 74 ab 3a
       -0.031230979 -0.08872848 0.27427503 0.0013080881
000130 d0 43 10 bd 0d db a5 3e a5 01 c5 3d ad 11 a6 3e
       -0.03522092 0.32393685 0.09619454 0.3243536
000140 00 09 68 3d 1b 0b 86 3e 29 c2 dc 3c 60 ba d1 bc
       0.056649208 0.26180348 0.026948052 -0.025601566
000150 bb 08 ef 3c 2c 8c e1 bc 05 66 27 bd 13 53 7e bd
       0.029178968 -0.02753266 -0.040868778 -0.062090944
000160 47 12 95 3e 63 40 62 bc 74 66 7e 3e ee 13 4b bd
       0.29115507 -0.013809296 0.2484377 -0.049579553
000170 a6 54 95 bc f8 c6 0f 3d 3f 9f a3 bc 39 34 39 3d
       -0.01822884 0.03510186 -0.019973395 0.04521582
000180 3a b2 85 3e cc f7 01 3d bf 0c c8 bb 74 78 33 bb
       0.2611254 0.03173046 -0.006105035 -0.0027385028
000190 58 02 18 3d b7 3e 23 bd db 55 83 3e 5c 9b 63 3d
       0.03711161 -0.03985473 0.2565144 0.055568084
0001a0 06 29 93 bd f3 3c 43 3d bc 8c 63 3e 3d 18 45 bd
       -0.07185559 0.047665548 0.22221655 -0.04811882
0001b0 82 7f fb bc 44 1d c7 bc 68 e8 d7 3c d6 e5 a5 3d
       -0.030700449 -0.024305947 0.026355937 0.08100478
0001c0 35 d0 2f bd 59 13 97 3d 77 56 fc 3b 21 0f 4c bd
       -0.04292317 0.07376737 0.007700737 -0.049819116
0001d0 38 f4 4b 3d 77 dc c8 3d 91 65 ce 3d f0 ff 42 3c
       0.049793452 0.09807675 0.10077966 0.011901841
0001e0 93 2c 07 bc b4 46 1f 3e f1 88 4d bd 17 94 06 bb
       -0.008250373 0.15554315 -0.050179426 -0.0020535046
0001f0 b0 1e dc bb 3e 28 fb bd fa a2 87 3d a4 90 34 bd
       -0.0067175254 -0.12263535 0.06622882 -0.044083253

fc.6.weight f4 [4, 128]
000000 e5 05 3d bf a3 27 8d be 81 ab 65 be bf 7e fc bd
       -0.7383712 -0.27569303 -0.22428705 -0.123288624
000010 a0 41 cd bc d6 4d 39 3f a6 44 9c 3e 45 5f b9 be
       -0.025055707 0.72384393 0.30521125 -0.36205497
000020 dd f6 53 3d 9a b9 27 3e 39 6d cb be db fb 43 3f
       0.0517491 0.16379395 -0.39731768 0.76556176
000030 14 c3 d0 3c a4 44 fb 3d 07 bc 86 be 95 3c c9 3e
       0.025483645 0.122689515 -0.26315328 0.39304033
000040 8f 59 c6 3d c1 e9 9f 3e 6d 6e f3 3e 3a 03 f3 3d
       0.09685051 0.31233028 0.47545186 0.1186585
000050 63 7d 60 3e 68 58 84 3e 4f 41 cf 3d 8e f7 98 3e
       0.21922831 0.258487 0.101198785 0.2987637
000060 31 89 07 bd 6b af a9 3e 4a ea 3d 3e 63 60 59 3e
       -0.03308982 0.33141646 0.18546405 0.21228175
000070 36 55 9c be 9d 5c 08 bd 92 8b 9a bd 91 a9 05 3f
       -0.3053376 -0.033291448 -0.07546152 0.5221186
000080 0d 77 fa 3d 84 d4 e0 3d 04 16 8e 3d ee a7 0a be
       0.122297384 0.10978034 0.06937793 -0.13540623
000090 4a 25 8c 3e 7d 67 f2 be ab 07 1a 3e 69 d2 19 be
       0.273722 -0.4734458 0.15041988 -0.15021671
0000a0 9a 89 21 3e 1c 46 62 3e 98 57 16 bf a2 5f 9a 3e
       0.15775147 0.22097057 -0.5872741 0.30151087
0000b0 50 ee 8e 3e ba f8 c0 3e b3 1c e9 3d f9 19 0e bd
       0.27916193 0.37689763 0.11382427 -0.03469274
0000c0 83 39 19 3e e6 b5 c9 3e 05 2f c3 3e e0 0b f1 3e
       0.14963345 0.3939659 0.3812181 0.47079372
0000d0 ea 0e 03 bf 6e 6c 51 bf 5b d7 16 bd 07 c9 b4 3d
       -0.5119463 -0.81806076 -0.036826473 0.088274054
0000e0 73 eb fd 3c 4f 0d 00 3e 3e 9b a5 3e 4a 56 d7 bc
       0.03099606 0.12505077 0.32345003 -0.026286263
0000f0 3d 8d 97 3e b7 17 0b 3e 03 24 3e 3d 2a f6 3d 3d
       0.29599944 0.13583265 0.046421062 0.04637734
000100 92 f5 89 3d 49 19 e5 bb 18 2f c2 be 1f 38 60 3e
       0.06736292 -0.0069915396 -0.37926555 0.21896408
000110 d1 28 64 3f 82 28 ff 3e 1b 8e 91 3e 6e 38 9d 3d
       0.8912478 0.49835593 0.2842873 0.07676779
000120 5c 5f 84 bd d2 a5 f3 bd 42 ae 77 3e 2c 59 61 bd
       -0.06463501 -0.11896862 0.24187568 -0.05501668
000130 e0 65 0e bc 23 e8 93 3e fc 1b 65 3e 8f da 67 3e
       -0.008691281 0.28888044 0.22373956 0.22641967
000140 65 35 46 be 40 b8 b3 3e f3 cc 57 3d 6f e9 0c bd
       -0.19356306 0.3510151 0.05268569 -0.034402307
000150 70 47 10 bf 4b e9 b2 3d 71 5a 1e bd 75 6d 96 bd
       -0.56359005 0.08735903 -0.03866047 -0.07345096
000160 d9 98 c3 3d 73 b6 b5 bc 7d 8c 33 3e ff 01 b0 bb
       0.09550638 -0.022181725 0.17534061 -0.0053713317
000170 ac 60 3c bd 78 d5 60 3d 7c d0 64 3d 95 42 27 3f
       -0.04599063 0.05489108 0.05586289 0.6533597
000180 37 4a 4e 3e ce fa e5 3c 4f d0 96 be 99 ca 3a be
       0.20145498 0.028073695 -0.29455802 -0.18241347
000190 b2 0c 19 3f 37 85 ce 3e 5f 0f 0e 3e 0c c5 92 bd
       0.59784997 0.4033601 0.13873051 -0.0716649
0001a0 c3 d5 12 be aa 1c 91 bd 2a 23 72 3e 3e d7 f1 be
       -0.14339356 -0.07085545 0.23646227 -0.4723453
0001b0 d0 82 95 bb 04 55 b2 bd 99 15 76 3d 2a 2e 61 3d
       -0.004562713 -0.08707622 0.06007919 0.054975666
0001c0 70 f3 c5 3c cf e7 c0 3e 9f 35 da 3f ef 5a 8d 3d
       0.024163932 0.37676856 1.7047614 0.0690211
0001d0 58 ae 12 3d fb 18 fd 3e c8 cc 0c 3f 2b b7 19 bd
       0.0358108 0.4943312 0.5499997 -0.0375282
0001e0 95 8f 05 bf 87 92 58 3e 73 fa e2 be e3 d0 42 3f
       -0.52172214 0.21149646 -0.44331703 0.76099986
0001f0 67 06 1b bd fe d5 1d bf d1 17 cd 3e 41 13 44 bc
       -0.037847903 -0.6165465 0.40057233 -0.011967481
000200 0b 74 c1 3e 99 27 8d 3f ed a3 ca be eb cb a8 be
       0.37783846 1.1027709 -0.3957819 -0.32968077
000210 98 55 96 3e 81 0b 6b bf ca 4e 88 3e fd 68 1f be
       0.29362178 -0.9181443 0.2662261 -0.15567394
000220 98 b9 d7 3e f5 06 39 3e e3 26 c2 bc 12 66 13 bf
       0.42133784 0.1806906 -0.023700183 -0.5757762
000230 82 fa 35 3e 7a e6 7f 3e 39 67 61 3f ba 5d d9 bd
       0.17771342 0.24990264 0.8804813 -0.1061358
000240 58 da 4f bc bb 48 94 3e 60 39 1f bc 92 d7 55 be
       -0.012686335 0.2896174 -0.009718269 -0.20883015
000250 13 a2 65 3f 3b e1 58 b9 d8 46 80 3e 66 d0 5c 3e
       0.8970043 -0.0002068327 0.2505405 0.21563873
000260 49 58 60 bd 83 60 eb 3d 57 2d cf 3e f6 47 86 3e
       -0.054771695 0.114930175 0.4046428 0.26226777
000270 9a 9c dd be c0 d1 78 bb dd 6c 0b 3f 80 72 86 3e
       -0.4328354 -0.0037966818 0.5446299 0.26259232
000280 1a b4 11 be 18 28 76 be 72 b1 0f bd fb 3a 0b 3f
       -0.1422886 -0.24038732 -0.035081334 0.5438687
000290 a2 df 17 be 8b 47 c4 bd c7 a5 ec bd b9 d6 9c 3e
       -0.14831403 -0.09583958 -0.11555057 0.3063257
0002a0 05 57 ee 3e 67 68 8e 3e d9 00 4b be 12 54 0b 3c
       0.46550766 0.27814028 -0.19824542 0.008503931
0002b0 57 f1 c4 3e 36 4f 26 be 83 7d 41 be 51 e4 9a 3d
       0.38465378 -0.16241154 -0.18895535 0.07563079
0002c0 6e f3 c5 3e 4f 8a a2 3f 3d d2 e1 bd 29 26 27 3f
       0.38662285 1.2698458 -0.11026428 0.652926
0002d0 19 4c 1e 3e 75 83 0a bd c2 90 44 bd 80 8e c3 ba
       0.15458716 -0.033816773 -0.047989614 -0.0014919788
0002e0 07 b6 c3 bc f5 2f 6e 3e 57 db 7b be f4 9c a5 3c
       -0.023890508 0.23260482 -0.2459539 0.020216443
0002f0 ed fa 83 3e 5f e1 3d 3e 33 00 74 bd 68 88 1d bd
       0.2577738 0.18543003 -0.059570502 -0.038460165
000300 7e ad a6 bc 94 20 c0 3c 7a ab 2d bf 16 1c 86 3e
       -0.0203464 0.023453034 -0.6783978 0.26193303
000310 a8 87 98 3e 32 00 77 bf 6a 97 47 3e 46 6b 43 bc
       0.29790998 -0.96484673 0.19491354 -0.011927431
000320 c2 1e 28 3d 3a ce 1a bf cd 6c 50 3e 09 26 32 bd
       0.041044958 -0.60470927 0.20354004 -0.043493304
000330 06 7c ed bc 57 31 82 3e dc 81 31 3f 77 eb 88 3e
       -0.028989803 0.25428268 0.69338775 0.26742145
000340 0a 4c 99 3e 5b 46 5f 3e 8e dd 43 bd 23 95 ae 3d
       0.29940826 0.21804182 -0.047818713 0.08524539
000350 3e 3f ae 3e 54 b0 a5 3c 51 99 81 3d f8 ab 3a bc
       0.34032625 0.020225681 0.06328071 -0.01139354
000360 79 c5 6f 3e 60 71 9e 3d 44 07 e6 3d 6a c2 7c bd
       0.23415174 0.07736468 0.112318546 -0.061708845
000370 c3 8e 18 3d ba dd 04 3d 92 38 56 bd 7e 18 75 be
       0.037245523 0.032438017 -0.052300043 -0.23935124
000380 08 29 8e 3e 7d 4c 2d bd 74 94 79 3e 0d 1a 81 3e
       0.2776568 -0.042309273 0.24373037 0.25215188
000390 73 7e b3 3e b5 a5 0f 3f c9 69 7e 3e a3 6a 28 3d
       0.3505741 0.56112224 0.24845041 0.04111732
0003a0 d8 57 46 bd b0 0e 32 3e 9c 2f 70 3e 3a d4 21 3e
       -0.048423618 0.17388415 0.23455662 0.15803614
0003b0 eb 0e 41 bd da fb 7f bd 72 6b 0e bd 47 76 88 3e
       -0.047133368 -0.062496044 -0.034770437 0.26652738
0003c0 50 94 e1 3b 19 ad 3b 3d db e4 bf 3d e2 f7 70 3c
       0.0068841353 0.045819376 0.093698226 0.014707537
0003d0 8a f8 83 3e 80 a4 34 bf 59 63 6a 3e 65 50 a1 3e
       0.25775558 -0.7056351 0.2288946 0.3150665
0003e0 f2 ec eb be a6 a2 d7 3d a8 d0 13 3d 75 cd 00 bf
       -0.46079212 0.105290696 0.036087662 -0.503135
0003f0 13 b0 30 bd 04 da 36 3f d5 4c 6e bf 60 ce 72 bd
       -0.043136667 0.71426415 -0.93085986 -0.059278846

fc.6.bias f4 [4]
000000 7f d7 52 3e 96 15 78 3d 6f 53 89 3d a6 45 12 3e
       0.20590018 0.06056746 0.06705367 0.14284381
