0615/직선으로이동_장애물도_센서값만입력.pth (torch, 405248 bytes, 8 tensors)

fc.0.weight f4 [256, 5]
-0.27368593 0.32696962 -0.33319968 -0.6534263 0.06597413 -0.88196737 0.12094492 0.0885097
0.35234997 -0.3210653 0.23900749 0.07815125 0.2186162 -0.5923225 -0.63333446 0.3313177
-0.060881585 -0.032209672 -0.100195765 -0.5154276 0.26425043 -0.5419139 -0.38389948 -0.2782049
-0.13832018 0.092847176 -0.58192074 0.17598476 -0.59432846 0.11446749 0.26228875 -0.16347833
-0.31072927 -0.28033295 0.28447774 -0.04980533 0.5126168 -0.47993106 -0.4267757 0.03151961
0.4846453 -0.49375126 0.040488373 0.037567016 0.040903404 0.20357841 -0.21319762 0.43362322
-0.27630714 -0.25925484 0.14348756 0.035526015 0.27793333 -0.46597588 0.07060191 -0.46657535
0.44018507 0.10886385 0.0127965035 0.04903098 -0.33205518 0.31974527 -0.4783344 -0.4831519
-0.5062002 0.083595425 0.25152627 0.17015067 -0.10251617 -0.30005825 0.20263383 -0.10559923
0.11878018 0.05678952 0.2683655 -0.30284083 0.0072493553 0.0070067346 -0.23504958 -0.3873412
-0.44683948 0.35652465 -0.44121885 0.38626966 -0.007143746 0.2925671 -0.4436134 -0.051658507
0.16694887 0.21031241 0.111387536 0.15791084 -0.43008304 -0.032076154 0.23821276 0.41069508
-0.40125808 0.30228323 -0.19547682 -0.14229438 0.15708949 -0.040633846 0.049751475 -0.2214434
0.110448845 0.41356847 -0.4921118 -0.22318044 -0.07035812 -0.14464827 0.0002383604 -0.21311429
-0.11021446 0.3213501 -0.1036837 -0.56989235 0.27919468 0.44546232 -0.10670466 -0.4106147
-0.6336215 -0.18256249 -0.26626465 0.26986772 -0.63691205 -0.16000065 0.123169065 0.24374953
0.2126294 0.15452948 -0.12655981 -0.004632364 0.19807991 0.22418572 0.2409734 0.20147134
-0.08019311 -0.5600138 0.08959218 0.059229266 0.22112735 -0.10125748 -0.08771668 -0.55993617
-0.61843175 -0.36318827 -0.2594283 0.121673636 -0.49352556 0.28091437 0.08729212 0.04747764
0.01671526 -0.31825942 0.036496274 0.3169238 -0.39009133 -0.07566872 0.36948255 -0.30846438
0.48908192 -0.27929443 -0.1408152 -0.16314328 0.2587708 0.27151445 -0.22116078 0.011376516
0.3426824 -0.5387343 0.040910207 0.21019034 -0.3049902 0.18426318 -0.09693019 0.5659025
-0.21785937 0.188038 -0.030775527 -0.50656176 0.34534836 0.07566971 0.1884877 -0.48923203
-0.87914354 0.24323617 -0.013534365 0.24032433 -0.023918778 0.008719427 -0.12224367 0.2062577
0.08738907 -0.18851425 0.30701914 0.15693577 -0.013172996 -0.6044215 0.043889508 0.29313755
-0.07797599 0.105416864 0.18106474 0.15351231 -0.27587712 -0.25903228 0.28630337 -0.340511
-0.54188275 0.16157158 0.085146524 0.20452163 0.22498778 -0.5559578 0.021601798 -0.13367255
-0.08814062 0.2882799 -0.030437248 0.1702261 -0.02256451 -0.70399445 -0.38359922 -0.48798242
0.43297407 -0.01909333 -0.29053673 0.054974698 -0.22599769 0.35117432 0.06672278 0.461659
-0.07134229 -0.13075893 -0.120327845 0.08279056 -0.30196574 0.06035775 0.3008936 0.28887805
0.06407365 0.19176714 -0.33432305 -0.51075774 0.46920156 0.33376914 0.033267096 -0.23701099
0.16261972 -0.39240405 -0.739059 -0.5725815 0.42244518 0.23671342 -0.19279243 -0.121188916
00000000: 9020 8cbe 9068 a73e 2699 aabe f246 27bf
00000010: 721d 873d 9dc8 61bf f8b1 f73d 9344 b53d
00000020: 3767 b43e ac62 a4be 61be 743e c30d a03d
00000030: eddc 5f3e 73a2 17bf 3522 22bf 79a2 a93e
00000040: f85e 79bd 4aee 03bd 7033 cdbd 10f3 03bf
00000050: d54b 873e dfba 0abf 798e c4be df70 8ebe
00000060: cea3 0dbe a926 be3d c2f8 14bf 5935 343e
00000070: e925 18bf ee6d ea3d b64a 863e dd66 27be
00000080: e817 9fbe cd87 8fbe 11a7 913e ac00 4cbd
00000090: db3a 033f 86b9 f5be 5882 dabe b51a 013d
000000a0: 6e23 f83e f7cc fcbe 23d7 253d dfdf 193d
000000b0: 548a 273d dc76 503e 7a50 5abe dd03 de3e
000000c0: 2178 8dbe 0dbd 84be 67ee 123e ba83 113d
000000d0: 474d 8e3e 6494 eebe bc97 903d f7e2 eebe
000000e0: f05f e13e 03f4 de3d 6da8 513c b5d4 483d
000000f0: 2303 aabe a7b5 a33e 3fe8 f4be b05f f7be
00000100: 5696 01bf 1434 ab3d 0dc8 803e fa3b 2e3e
00000110: fff3 d1bd 3ca1 99be 3e7f 4f3e 6944 d8bd
00000120: 0643 f33d 219c 683d 3467 893e f40d 9bbe
00000130: 008c ed3b c098 e53b d6b0 70be 9651 c6be
00000140: 25c8 e4be 668a b63e 70e7 e1be 23c5 c53e
00000150: 1616 eabb 5bcb 953e 4c21 e3be df97 53bd
00000160: a5f4 2a3e 235c 573e 261f e43d 61b3 213e
00000170: d833 dcbe 4962 03bd 0cee 733e a046 d23e
00000180: b371 cdbe dec4 9a3e 132b 48be 9eb5 11be
00000190: 11dc 203e ad6f 26bd 34c8 4b3d 0fc2 62be
000001a0: 0133 e23d 3fbf d33e 14f6 fbbe 6a89 64be
000001b0: eb17 90bd ad1e 14be 62f0 7939 a23a 5abe
000001c0: 1eb8 e1bd 0088 a43e 1f58 d4bd 77e4 11bf
000001d0: 9bf2 8e3e a313 e43e f987 dabd 173c d2be
000001e0: 0535 22bf a9f1 3abe d753 88be 1a2c 8a3e
000001f0: ab0c 23bf 36d7 23be 1040 fc3d 7a99 793e
00000200: 85bb 593e fa3c 1e3e e598 01be 16cb 97bb
00000210: 76d5 4a3e f190 653e bbc1 763e 814e 4e3e
00000220: 493c a4bd 105d 0fbf 1b7c b73d 639a 723d
00000230: 356f 623e 1560 cfbd cda4 b3bd fa57 0fbf
00000240: 8b51 1ebf d0f3 b9be c9d3 84be 0730 f93d
00000250: 62af fcbe 02d4 8f3e 36c6 b23d ea77 423d
00000260: 71ee 883c e6f2 a2be 1e7d 153d d643 a23e
00000270: 0dba c7be 34f8 9abd d12c bd3e 0bef 9dbe
00000280: f268 fa3e aeff 8ebe dc31 10be 080f 27be
00000290: 9b7d 843e f103 8b3e f977 62be 9164 3a3c
000002a0: 1174 af3e 7eea 09bf 7691 273d 233c 573e
000002b0: ad27 9cbe 7daf 3c3e 5683 c6bd fcde 103f
000002c0: 8716 5fbe 098d 403e f51c fcbc 08ae 01bf
000002d0: 80d1 b03e b9f8 9a3d eb02 413e 9f7c fabe
000002e0: 8d0f 61bf e712 793e 3ebf 5dbc 9517 763e
000002f0: 50f1 c3bc eddb 0e3c e45a fabd 3835 533e
00000300: 0af9 b23d e109 41be 9d31 9d3e c5b3 203e
00000310: 8dd3 57bc 5ebb 1abf 7cc5 333d 2016 963e
00000320: e0b1 9fbd cce4 d73d 0969 393e 5532 1d3e
00000330: c43f 8dbe e19f 84be 5b96 923e 7557 aebe
00000340: d4b8 0abf 0573 253e 4d61 ae3d 1e6e 513e
00000350: 3263 663e 4053 0ebf 41f6 b03c 75e1 08be
00000360: 1283 b4bd 6c99 933e 8957 f9bc c04f 2e3e
00000370: 35d9 b8bc fb38 34bf 1e67 c4be d5d8 f9be
00000380: c7ae dd3e 9d69 9cbc 3bc1 94be 262d 613d
00000390: f06b 67be 1fcd b33e f4a5 883d 925e ec3e
000003a0: e81b 92bd abe5 05be 726e f6bd 198e a93d
000003b0: 419b 9abe b039 773d ba0e 9a3e d3e7 933e
000003c0: 0c39 833d 9b5e 443e 642c abbe 05c1 02bf
000003d0: 303b f03e cae3 aa3e 1443 083d 02b3 72be
000003e0: c985 263e 2fe9 c8be f832 3dbf b494 12bf
000003f0: bc4a d83e 0165 723e 616b 45be e531 f8bd

fc.0.bias f4 [256]
-0.6642213 0.40904593 0.47302863 -0.42465588 0.22664122 -0.509706 -0.23067124 0.56156844
-0.22547616 0.020838223 0.18691915 -0.35398388 -0.5945511 0.5166207 -0.8118361 -0.046957493
0.32234916 -0.20176968 0.09173974 -0.079258084 0.53293353 0.4324477 0.4493578 0.4521422
-0.4135471 0.41218457 -0.71841174 0.17933847 -0.24938032 0.24711564 0.32498777 0.47531518
-0.5319801 0.26131862 0.5031477 -0.5994914 -0.09031561 -0.63648707 -0.52080137 0.3484703
-0.10099132 0.72934484 0.64910394 0.49721768 -0.16933183 0.29443082 -0.23013844 -0.5839191
0.17809957 0.19197842 -0.45594323 0.2470541 0.19851641 0.11069711 -0.4517861 -0.64866596
-0.6799477 -0.31067997 0.070225485 0.3040725 -0.32948703 0.09446444 -0.3853986 0.18936795
0.073244095 0.5909633 -0.03264434 -0.570912 -0.087974794 0.30345818 -0.6857121 0.43037447
0.50092465 0.08736297 -0.21550535 -0.3058917 -0.43481916 0.14970015 -0.573651 0.3820374
-0.6325782 0.5458293 -0.08569209 0.1357904 0.23318763 0.4055745 0.4114958 -0.2972471
0.38303378 -0.04269157 -0.60792005 -0.48236507 -0.20457232 0.25561595 0.46576807 -0.22059087
0.606107 -0.5219015 0.3342395 0.5554794 -0.5275794 -0.2437763 -0.24853544 0.41763464
0.23790333 -0.10315587 0.06372363 -0.5625168 -0.5426163 -0.4551164 0.30433035 -0.53485394
-0.5116127 -0.08956337 -0.34693512 -0.19127978 -0.19756259 -0.018790528 0.0021624914 0.372086
-0.3343701 0.077376485 0.1061382 0.06477418 0.3845533 -0.36532187 0.7003661 0.56614214
0.32674903 0.087933086 -0.43632984 0.4916851 -0.4554117 -0.5229552 -0.5951981 0.64249
-0.23311777 0.49349734 0.3300528 0.18298042 -0.3829722 0.086634554 0.25959945 -0.5621016
0.35330367 0.5821728 0.13341193 0.16204679 -0.21802379 -0.68578106 -0.16875196 -0.27334335
0.3323351 0.20929736 0.39199302 0.30828965 -0.7771756 -0.65512896 -0.5472254 0.2286342
-0.43203062 0.05952405 0.41843113 -0.31814665 -0.344201 -0.59318453 0.056678455 -0.58226216
-0.37430182 0.34561637 0.67677635 -0.23315573 0.34225187 -0.4668976 -0.6680675 0.042371236
-0.026664985 0.33820832 0.45787132 0.126848 -0.41671318 -0.41429564 -0.78851646 0.38916376
-0.11290755 -0.59852225 -0.4688891 0.0577551 -0.10813841 -0.11942382 0.3695544 0.664556
-0.18148471 0.43879345 -0.2805519 -0.3619287 -0.5212026 -0.0640607 0.06473438 -0.7490223
-0.5367948 0.17953497 -0.20859034 -0.56678134 0.5105362 0.44250235 0.4351352 0.3778944
0.029658092 -0.19597653 -0.4144549 0.19279581 -0.38883376 -0.35027388 -0.45021042 0.61214304
-0.23680648 0.30788398 0.313443 -0.49032107 0.14464329 -0.30315173 -0.5063888 0.08355949
-0.35011563 -0.32691684 0.1546484 0.24914026 -0.741965 -0.21159984 0.14364344 0.43354383
-0.572767 -0.2805042 -0.2103568 0.5687572 0.6221729 0.091490135 -0.09233715 -0.17597611
-0.10123491 0.045112714 0.44529054 0.4122931 -0.033060953 -0.32161108 -0.34504595 -0.11855797
0.34267026 -0.30033916 0.32519817 0.3126366 -0.18093115 -0.08704606 0.06221481 -0.4350301
00000000: 680a 2abf 786e d13e cf30 f23e 7f6c d9be
00000010: a314 683e 187c 02bf 1535 6cbe f3c2 0f3f
00000020: 39e3 66be ecb4 aa3c bc67 3f3e 603d b5be
00000030: 8034 18bf 4141 043f 7ed4 4fbf 8056 40bd
00000040: f30a a53e b69c 4ebe 0be2 bb3d 1052 a2bd
00000050: 556e 083f c969 dd3e 3a12 e63e 2f7f e73e
00000060: 72bc d3be db09 d33e d5e9 37bf 81a4 373e
00000070: 8e5d 7fbe e20b 7d3e cc64 a63e 835c f33e
00000080: d92f 08bf 8ecb 853e 4ace 003f 4578 19bf
00000090: 64f7 b8bd d1f0 22bf 3d53 05bf b36a b23e
000000a0: 8ad4 cebd 58b6 3a3f ad2b 263f 5193 fe3e
000000b0: 5365 2dbe a3bf 963e 69a9 6bbe b97b 15bf
000000c0: bc5f 363e fe95 443e 6471 e9be c0fb 7c3e
000000d0: e347 4b3e 2bb5 e23d 8250 e7be f90e 26bf
000000e0: 0d11 2ebf 7211 9fbe 61d2 8f3d 64af 9b3e
000000f0: 86b2 a8be 9376 c13d f752 c5be ace9 413e
00000100: 0001 963d 5f49 173f 12b6 05bd 4a27 12bf
00000110: 212c b4bd df5e 9b3e d48a 2fbf 0b5a dc3e
00000120: 993c 003f 5beb b23d 6fad 5cbe d69d 9cbe
00000130: 9ea0 debe ff4a 193e cbda 12bf 689a c33e
00000140: a5f0 21bf 78bb 0b3f 567f afbd a30c 0b3e
00000150: bdc8 6e3e 76a7 cf3e 94af d23e c630 98be
00000160: 011d c43e 5bdd 2ebd a6a0 1bbf 8ef8 f6be
00000170: 687b 51be 18e0 823e 2779 ee3e 93e2 61be
00000180: d429 1b3f 569b 05bf 7121 ab3e e633 0e3f
00000190: 720f 07bf 7fa0 79be 1380 7ebe 35d4 d53e
000001a0: ee9c 733e 6343 d3bd 8981 823d 1a01 10bf
000001b0: e7e8 0abf 0405 e9be 30d1 9b3e 30ec 08bf
000001c0: 0df9 02bf 006d b7bd 7ba1 b1be d9de 43be
000001d0: d94d 4abe 98ee 99bc 96b8 0d3b 0e82 be3e
000001e0: 8f32 abbe 9077 9e3d fc5e d93d 53a8 843d
000001f0: 2ce4 c43e 780b bbbe 314b 333f b1ee 103f
00000200: a64b a73e 4316 b43d a066 dfbe 26be fb3e
00000210: b92b e9be 64e0 05bf e75e 18bf 3a7a 243f
00000220: 6db6 6ebe afab fc3e aefc a83e 385f 3b3e
00000230: ef14 c4be 756d b13d 38ea 843e e4e5 0fbf
00000240: 38e4 b43e 4709 153f 239d 083e 98ef 253e
00000250: a141 5fbe 598f 2fbf 50cd 2cbe a9f3 8bbe
00000260: d427 aa3e 0c52 563e 4fb3 c83e 24d8 9d3e
00000270: fbf4 46bf 88b6 27bf f716 0cbf 151f 6a3e
00000280: 1e33 ddbe 7ecf 733d 9b3c d63e 1ee4 a2be
00000290: 1d3b b0be f1da 17bf ab27 683d 220f 15bf
000002a0: 7da4 bfbe a1f4 b03e 3741 2d3f 60c0 6ebe
000002b0: a33b af3e 340d efbe 7906 2bbf 768d 2d3d
000002c0: 8770 dabc a429 ad3e 1c6e ea3e 71e4 013e
000002d0: 6e5b d5be 8f1e d4be 37dc 49bf 7940 c73e
000002e0: 133c e7bd c138 19bf 3b12 f0be 9d90 6c3d
000002f0: ac77 ddbd 7a94 f4bd 3c36 bd3e 5820 2a3f
00000300: 21d7 39be 89a9 e03e 80a4 8fbe b84e b9be
00000310: 896d 05bf 4232 83bd 7593 843d edbf 3fbf
00000320: 626b 09bf 04d8 373e b598 55be 9518 11bf
00000330: 80b2 023f ab8f e23e 0aca de3e 607b c13e
00000340: 87f5 f23c 12ae 48be 6f33 d4be 446c 453e
00000350: 3815 c7be 1957 b3be fb81 e6be 68b5 1c3f
00000360: 667d 72be f8a2 9d3e 9a7b a03e 5d0b fbbe
00000370: 5f1d 143e b436 9bbe b2a2 01bf 3d21 ab3d
00000380: 5b42 b3be a561 a7be 265c 1e3e a01e 7f3e
00000390: 6bf1 3dbf a1ad 58be 4417 133e 75f9 dd3e
000003a0: dca0 12bf 3f9e 8fbe c667 57be 129a 113f
000003b0: b946 1f3f 2e5f bb3d 421b bdbd 1533 34be
000003c0: 4054 cfbd 1cc8 383d 1ffd e33e 1518 d33e
000003d0: ec6a 07bd 35aa a4be dda9 b0be 85ce f2bd
000003e0: 7a72 af3e 0ec6 99be 6080 a63e e811 a03e
000003f0: 0446 39be 3445 b2bd f5d4 7e3d 44bc debe

fc.2.weight f4 [256, 256]
-0.017549468 0.24215953 -0.21480855 -0.062289316 -0.2097564 -0.6562196 -0.20039089 -0.030012941
0.13232754 0.035397448 0.0066388403 0.20119718 0.12875985 -0.026923534 -0.062437285 0.038761362
-0.003186469 -0.11563858 -0.115139514 -0.056128338 -0.037189133 -0.063089326 -0.0008264019 0.10040094
-0.039771132 -0.03409921 0.044868052 -0.34988296 -0.17507307 0.18224774 -0.08628624 -0.06779347
-0.16127382 -0.16058937 -0.0722548 0.020982591 -0.7379967 -0.1097458 0.12440907 -0.13170986
-0.030642858 -0.14712946 -0.11453025 0.022134997 -0.17108029 0.09495946 -0.091586895 0.15469803
0.20628856 -0.23829755 -0.10892754 -0.027920008 0.056465365 -0.4474997 -0.20712715 0.098542266
0.06461885 -0.17112675 0.052318186 0.17870612 -0.0003824487 0.05928602 0.16733141 -0.058281124
-0.0170547 -0.11713704 -0.03727153 -0.014962487 0.11433376 0.057555843 -0.17355077 0.15129496
-0.0052802144 -0.020712 -0.4000872 -0.04355926 -0.02352654 0.01727223 0.10591105 0.052497134
-0.09308465 -0.010510318 0.035969954 0.041326236 -0.99328136 -0.18845673 -0.10206844 -0.0037200504
0.006562364 -0.25362796 0.06174628 -0.06990948 -0.11090425 -0.067840144 -0.23897575 0.11225504
0.016530735 -0.057318475 -0.24489793 -0.10023153 0.010328578 -0.028705785 -0.107880756 -0.014437375
-0.12445535 0.06929707 0.089115635 0.06855904 -0.13606435 0.015375604 -0.07373896 0.022595027
-0.06853282 -0.0026305318 0.0043412875 0.27968577 0.027705722 0.1021701 -0.029855955 -0.28131884
-0.054826055 0.036306202 0.023270253 -0.100037046 0.15673633 0.1170077 -0.3117632 0.02376022
-0.40476078 -0.30593178 0.09772675 -0.036535837 -0.06939659 0.10988644 -0.23612446 -0.05453374
0.061220482 -0.06884098 -0.078236766 0.086933345 0.10203381 0.03276659 0.14818455 -0.012054233
-0.47848788 -0.28009897 -0.14929885 0.056616023 -0.016432017 0.05008783 -0.025095228 0.049407102
-0.027113963 -0.11338059 -0.068623744 0.11221781 -0.06975421 -0.07916066 0.07760131 0.037987154
0.0019096499 -0.1599313 0.048160065 -0.08846808 -0.15726538 -0.16543075 -0.14190498 -0.42597452
0.35023376 -0.13218437 -0.1685649 0.053162858 -0.14190595 -0.08528565 -0.11986042 0.04047323
0.2121819 0.16476597 -0.004307851 -0.19968797 -0.11417077 -0.22361957 -0.03673451 -0.13946763
0.032550897 -0.0827004 -0.039275546 -0.10465841 -0.029865876 -0.24898915 -0.264659 0.10910907
-0.041583367 -0.3617647 -0.027652616 0.043289613 -0.17225209 -0.14768477 0.08334619 -0.020102335
0.036004666 0.11053805 -0.019000607 0.024715986 -0.49609372 -0.032504052 0.07922066 0.17364293
-0.087963276 -0.10082423 -0.15379182 0.006717667 0.1608865 0.2011106 0.09235567 -0.064533494
-0.016195692 -0.08602179 -0.04697565 0.12361909 0.25258636 0.048484452 -0.33568326 0.040764015
-0.080826916 -0.120256476 0.032246426 -0.13069528 -0.05949232 0.1462817 -0.13419919 -0.0544397
0.017753387 0.1340687 -0.05689019 0.0077666687 -0.029690804 0.554359 0.41687915 -0.018638879
-0.009717362 0.038536623 -0.12243602 0.010672578 0.38870746 -0.1275672 -0.109050564 -0.04135785
-0.016475355 0.078310676 -0.22818793 0.045736637 0.0623616 -0.07830435 -0.22334562 -0.08335466
00000000: e7c3 8fbc abf8 773e c6f6 5bbe 1523 7fbd
00000010: 62ca 56be 02fe 27bf 4533 4dbe b3dd f5bc
00000020: df80 073e eafc 103d a18a d93b a206 4e3e
00000030: 9fd9 033e be8e dcbc 3dbe 7fbd 3cc4 1e3d
00000040: 14d4 50bb ebd3 ecbd 44ce ebbd d4e6 65bd
00000050: a253 18bd fa34 81bd e5a2 58ba 029f cd3d
00000060: 0ee7 22bd 9dab 0bbd 90c7 373d dc23 b3be
00000070: 5b46 33be 279f 3a3e d7b6 b0bd 4ed7 8abd
00000080: f724 25be 8a71 24be 53fa 93bd afe3 ab3c
00000090: 5aed 3cbf 68c2 e0bd 2fca fe3d f3de 06be
000000a0: bb06 fbbc 1ba9 16be d68e eabd 7454 b53c
000000b0: ac2f 2fbe 1b7a c23d e991 bbbd 2969 1e3e
000000c0: 4f3d 533e 4604 74be 6715 dfbd 80b8 e4bc
000000d0: 3a48 673d ae1e e5be 2419 54be 87d0 c93d
000000e0: e356 843d da3b 2fbe 984b 563d bdfe 363e
000000f0: 6583 c8b9 e6d5 723d ed58 2b3e 30b8 6ebd
00000100: 4cb6 8bbc 8be5 efbd 08aa 18bd 3825 75bc
00000110: d227 ea3d adbf 6b3d 4bb7 31be 11ed 1a3e
00000120: a605 adbb 36ac a9bc 3bd8 ccbe 326b 32bd
00000130: bbba c0bc 7e7e 8d3c e5e7 d83d 3c07 573d
00000140: 2aa3 bebd 7833 2cbc 3b55 133d b345 293d
00000150: b047 7ebf cdfa 40be 4209 d1bd 17cc 73bb
00000160: 1909 d73b 86db 81be abe9 7c3d b42c 8fbd
00000170: c421 e3bd c6ef 8abd 0fb6 74be f8e5 e53d
00000180: 776b 873c c7c6 6abd 86c6 7abe 3046 cdbd
00000190: 3239 293c 6528 ebbc 96f0 dcbd bd8a 6cbc
000001a0: 72e2 febd 9feb 8d3d 4282 b63d af68 8c3d
000001b0: 7454 0bbe f5e9 7b3c 7404 97bd 3519 b93c
000001c0: ef5a 8cbd 0065 2cbb 5c41 8e3b f932 8f3e
000001d0: 1cf7 e23c 8f3e d13d 7a94 f4bc 0609 90be
000001e0: 4991 60bd d0b5 143d 42a1 be3c 39e0 ccbd
000001f0: 7d7f 203e bca1 ef3d 6d9f 9fbe cba4 c23c
00000200: ce3c cfbe 17a3 9cbe f624 c83d 9aa6 15bd
00000210: cd1f 8ebd 240c e13d 9cca 71be c55e 5fbd
00000220: 54c2 7a3d 80fc 8cbd 993a a0bd 1c0a b23d
00000230: 1af7 d03d 4336 063d b1bd 173e 1e7f 45bc
00000240: 5dfc f4be 2269 8fbe cce1 18be 34e6 673d
00000250: 709c 86bc e528 4d3d 8294 cdbc 1a5f 4a3d
00000260: 1a1e debc 1534 e8bd 9b8a 8cbd 73d2 e53d
00000270: 4cdb 8ebd fc1e a2bd 70ed 9e3d 6b98 1b3d
00000280: 384d fa3a 08c5 23be 7d43 453d c12e b5bd
00000290: 2d0a 21be ae66 29be 8a4f 11be 5519 dabe
000002a0: d751 b33e 575b 07be 479c 2cbe 4cc1 593d
000002b0: cb4f 11be 3eaa aebd 6179 f5bd 42c7 253d
000002c0: 3646 593e 69b8 283e e028 8dbb 017b 4cbe
000002d0: 5dd2 e9bd 87fc 64be ed76 16bd 9ad0 0ebe
000002e0: 1754 053d d45e a9bd 65df 20bd 2657 d6bd
000002f0: 48a9 f4bc 03f7 7ebe 6281 87be 9374 df3d
00000300: 5253 2abd 3939 b9be bd87 e2bc 7350 313d
00000310: da62 30be ad3a 17be 68b1 aa3d a7ad a4bc
00000320: a179 133d c661 e23d 29a7 9bbc 2e79 ca3c
00000330: ffff fdbe f822 05bd 713e a23d 74cf 313e
00000340: 1726 b4bd ef7c cebd 9a7b 1dbe e01f dc3b
00000350: 6ebf 243e f0ef 4d3e f824 bd3d 232a 84bd
00000360: d4ac 84bc 312c b0bd 8a69 40bd 012c fd3d
00000370: 0053 813e a297 463d adde abbe 2bf8 263d
00000380: 9588 a5bd 0749 f6bd d414 043d fcd4 05be
00000390: 38ae 73bd dfca 153e 836b 09be 2afc 5ebd
000003a0: 8d6f 913c 4e49 093e b005 69bd 8a7f fe3b
000003b0: 213a f3bc 79ea 0d3f 2f71 d53e 90b0 98bc
000003c0: 9235 1fbc 94d8 1d3d bcbf fabd 09dc 2e3c
000003d0: aa04 c73e faa0 02be e755 dfbd d966 29bd
000003e0: 53f7 86bc 5961 a03d 19aa 69be 5756 3b3d
000003f0: e16e 7f3d 085e a0bd b7b4 64be d9b5 aabd

fc.2.bias f4 [256]
0.015363576 -0.011670537 0.0972406 -0.40242088 0.062242124 0.015599173 0.13661383 -0.17963108
0.17585261 -0.04763936 -0.040418528 0.027546186 0.14626777 -0.0351876 0.12179961 0.113893844
-0.14823322 -0.008400048 0.05665003 0.12939133 0.045975734 0.12651981 -0.11857628 0.021189852
-0.0028565857 0.18992165 0.05394619 -0.08438877 0.005771506 -0.051127054 0.2229673 0.22514957
-0.04480411 0.20378554 0.09024981 -0.060318615 -0.0021117732 0.12863038 0.14897789 -0.08926786
0.10054926 -0.09234015 0.017742615 0.29025927 0.008035601 0.041301597 -0.03115901 -0.19453338
0.19304314 0.07277032 0.09661343 -0.050271135 0.14349206 0.18468007 -0.29780328 0.11026632
0.07243467 0.17903861 0.024171898 -0.05605489 -0.06082078 0.07867852 0.02949622 0.25379875
0.039991956 -0.23115017 -0.06275762 0.16544396 -0.14762168 -0.02495846 0.124371395 0.1043418
0.19362055 -0.008274341 0.017847346 -0.13314968 0.00591482 0.12931813 0.1086666 -0.060332503
-0.057482798 0.21067752 -0.042155568 -0.4411111 -0.07406296 -0.03907164 0.091092676 0.131787
0.17810102 0.19906698 -0.026972385 0.016911231 0.013967203 0.0745192 -0.2838588 0.029510878
0.09302698 -0.20645529 0.047743417 0.06461124 0.114008754 -0.004974867 0.17311315 -0.022355357
0.049152017 -0.03143137 -0.06351007 -0.051636152 -0.0046353964 0.2462289 0.28391188 -0.014356333
0.21339546 0.052285526 -0.30129868 -0.4254148 -0.0097079845 0.2645279 -0.060223557 0.21327159
0.15228179 0.013732275 -0.3334556 0.009032983 0.113071755 -0.18752508 -0.17348677 0.11427392
0.15930119 -0.19464555 -0.10179007 0.14099859 0.12532093 0.22934575 -0.046849158 0.11271675
0.08055143 0.0019041677 -0.03706464 0.26494673 -0.18396345 -0.015498016 -0.097460285 -0.046220783
0.15404841 -0.05697914 0.23156634 -0.061734177 -0.24942324 0.09102519 0.25048265 -0.12413943
-0.037836935 0.13637754 -0.13416979 0.2309024 -0.08759082 -0.15418777 -0.00747115 0.15768193
0.19869049 -0.05269353 0.15073383 -0.15203701 0.083093725 0.16502683 0.110431634 0.09458327
0.05200598 -0.11936619 0.18995978 -0.18096091 0.13048318 0.1027651 -0.03131581 0.1816573
0.22138086 0.14956564 0.06780693 0.05416275 -0.006548775 0.002096188 -0.22401614 0.08003534
0.105529 0.016076043 0.1636827 -0.027189413 -0.041021246 0.17332044 0.06707558 0.11291049
-0.06296609 0.1927554 0.06494793 0.12111665 -0.14446613 0.000723511 -0.038773548 -0.015297836
0.2550578 -0.0057091317 -0.17023836 0.10101544 -0.023434253 -0.048708476 0.14802329 0.24376982
0.08739321 0.19081168 -0.03780967 -0.22528295 -0.2220715 0.10726952 0.22032094 -0.15028317
0.072564356 -0.17038503 -0.18769647 -0.11663387 -0.071551226 -0.012424307 -0.115419224 -0.17184998
0.024581403 -0.046577714 -0.36426896 -0.021741044 -0.23273566 0.0655635 0.007481954 0.046245903
-0.48569515 -0.17932943 -0.13190816 0.049335327 0.15774223 0.086432375 0.15899427 -0.25369695
0.05811638 0.0021989786 0.148574 0.026931265 -0.04310608 -0.15791735 -0.012451923 0.05093489
0.055930976 0.19639535 -0.07138853 0.077681065 0.04414472 -0.06464479 0.023718255 0.13926816
00000000: 82b7 7b3c c835 3fbc 1426 c73d 1c0a cebe
00000010: 99f1 7e3d ac93 7f3c 7fe4 0b3e 36f1 37be
00000020: b512 343e 7d21 43bd e68d 25bd 8aa8 e13c
00000030: 38c7 153e df20 10bd 1372 f93d 2d41 e93d
00000040: 73ca 17be 5ba0 09bc dd09 683d 297f 043e
00000050: 0d51 3c3d 698e 013e 1fd8 f2bd 5796 ad3c
00000060: 8e35 3bbb d27a 423e aef6 5c3d 05d4 acbd
00000070: e71e bd3b 9a6a 51bd 8a51 643e 9c8d 663e
00000080: 8484 37bd 28ad 503e e4d4 b83d a710 77bd
00000090: ad65 0abb afb7 033e a98d 183e 11d2 b6bd
000000a0: c5ec cd3d d51c bdbd f658 913c dd9c 943e
000000b0: c1a7 033c dd2b 293d 2e41 ffbc c233 47be
000000c0: 1aad 453e 9b08 953d 43dd c53d 1be9 4dbd
000000d0: 95ef 123e c61c 3d3e ac79 98be 4fd3 e13d
000000e0: a158 943d e655 373e 2504 c63c d099 65bd
000000f0: 361f 79bd 3422 a13d 0fa2 f13c e9f1 813e
00000100: 9bce 233d a1b2 6cbe 1187 80bd 246a 293e
00000110: 232a 17be af75 ccbc 6eb6 fe3d 27b1 d53d
00000120: 7744 463e 1a91 07bc 9934 923c 6458 08be
00000130: 1bd1 c13b f96b 043e 988c de3d 371f 77bd
00000140: 1573 6bbd d9bb 573e 51ab 2cbd 50d9 e1be
00000150: 52ae 97bd 9609 20bd cc8e ba3d 2cf3 063e
00000160: 1d60 363e 37d8 4b3e 31f5 dcbc 6c89 8a3c
00000170: b2d6 643c 869d 983d f155 91be ccc0 f13c
00000180: ee84 be3d 0469 53be 9a8e 433d e652 843d
00000190: 6c7d e93d 3604 a3bb 9344 313e 9522 b7bc
000001a0: a053 493d 2ebe 00bd 9111 82bd 6e80 53bd
000001b0: 86e4 97bb 6e23 7c3e e65c 913e d336 6bbc
000001c0: 5784 5a3e 5929 563d d243 9abe f8cf d9be
000001d0: 3d0e 1fbc 3370 873e faac 76bd de63 5a3e
000001e0: c2ef 1b3e 56fd 603c b1ba aabe 14ff 133c
000001f0: 2a92 e73d 9306 40be 84a6 31be 7208 ea3d
00000200: da1f 233e 2a51 47be 5077 d0bd ef61 103e
00000210: 2154 003e 9dd9 6a3e e7e4 3fbd 0ad8 e63d
00000220: 26f8 a43d 4495 f93a 18d1 17bd 19a7 873e
00000230: ea60 3cbe 64eb 7dbc 4299 c7bd 0152 3dbd
00000240: debe 1d3e f562 69bd ba1f 6d3e fadc 7cbd
00000250: ce68 7fbe 6a6b ba3d 433f 803e d03c febd
00000260: e7fa 1abd 8ea6 0b3e ce63 09be ae71 6c3e
00000270: d162 b3bd 66e3 1dbe 8cd0 f4bb 5f77 213e
00000280: 8575 4b3e 2cd5 57bd f859 1a3e 97af 1bbe
00000290: 0b2d aa3d cbfc 283e fb29 e23d e0b4 c13d
000002a0: 3904 553d 4376 f4bd d184 423e d14d 39be
000002b0: 629d 053e 8276 d23d 0245 00bd 5f04 3a3e
000002c0: aab1 623e bc27 193e 5cde 8a3d c2d9 5d3d
000002d0: 1b97 d6bb 3360 093b 7d64 65be 91e9 a33d
000002e0: 971f d83d e8b1 833c 709c 273e 55bc debc
000002f0: e505 28bd ea7a 313e ec5e 893d 9d3d e73d
00000300: 5ef4 80bd ac61 453e 6c03 853d 020c f83d
00000310: eeee 13be 00aa 3d3a 03d1 1ebd c6a3 7abc
00000320: f096 823e ab13 bbbb f752 2ebe 2fe1 ce3d
00000330: 31f9 bfbc 8a82 47bd 6b93 173e cc9e 793e
00000340: 36fb b23d 2364 433e 50de 1abd 93b0 66be
00000350: b666 63be 1fb0 db3d d09b 613e d5e3 19be
00000360: 9f9c 943d 6a79 2ebe 8133 40be bddd eebd
00000370: 7389 92bd 528f 4bbc ea60 ecbd 71f9 2fbe
00000380: f05e c93c 46c8 3ebd 7681 babe 461a b2bc
00000390: 4252 6ebe 2846 863d 2e2b f53b 586c 3d3d
000003a0: 09ad f8be 22a2 37be ef12 07be d713 4a3d
000003b0: 2e87 213e 7503 b13d 65cf 223e 91e4 81be
000003c0: 710b 6e3d bd1c 103b c823 183e f59e dc3c
000003d0: 0090 30bd 16b5 21be 2703 4cbc 1aa1 503d
000003e0: e117 653d dd1b 493e 2634 92bd 4017 9f3d
000003f0: 18d1 343d 7d64 84bd c94c c23c 509c 0e3e

fc.4.weight f4 [128, 256]
0.17468317 -0.0039010695 -0.1377149 -0.105599746 0.13535364 -0.06572117 -0.036129262 -0.21515843
0.13243823 0.08850096 0.038896687 -0.12073161 0.00255188 0.05383984 -0.21586932 -0.07835781
-0.0979153 0.056523133 0.056020305 -0.25446713 -0.01990179 0.16875884 0.083895326 -0.039240673
-0.35968715 0.09691414 -0.63692707 0.052287664 -0.09396853 0.026200868 0.059312 0.13671726
-0.17070451 0.06897024 0.12335782 0.0030274421 -0.060431644 -0.012706524 -0.15094581 -0.0015187407
0.10646884 -0.17184979 0.21950363 -0.25270116 -0.015497565 -0.25984251 0.19550875 -0.12616228
0.19921166 0.10574566 0.253665 -0.011017201 -0.006436033 -0.13206856 -0.068885684 0.043431506
-0.18286689 0.21386169 0.024322912 -0.015251519 -0.039227344 -0.18658248 0.018073231 0.018249637
0.060366295 0.13844514 -0.02875377 -0.102465875 -0.09164463 -0.31002444 -0.109411985 0.12752022
-0.43813196 -0.2978495 0.1559593 -0.041968428 0.0057726353 -0.117539965 -0.018730631 -0.006568104
0.05979105 -0.07021194 -0.5013601 0.012738902 0.011544661 0.111055054 -0.24277622 0.08346749
0.04122938 0.10019374 -0.0620637 0.0069472366 -0.010265692 0.0141212065 0.007801013 0.031881925
0.1167417 -0.064458035 -0.057657216 -0.0656388 -0.21488534 -0.12907772 0.06018265 0.05677572
-0.01018199 0.01485347 -0.019146083 0.018572936 0.032594502 0.11717579 -0.17672892 0.09132744
0.0921187 0.10262797 0.16645129 0.024328401 0.041730106 -0.49268204 0.021904722 0.079089746
0.0046588997 0.12677574 0.010642276 -0.09213034 0.10422826 -0.12723047 0.042419795 0.07518798
0.044244945 -0.017553516 0.09283157 0.097596645 -0.07883662 0.25833338 0.009722352 -0.56413186
-0.69737697 0.18451281 -0.1622459 0.073679 -0.30291703 -0.038044088 -0.12681787 0.111245066
-0.4056173 -0.016899519 0.20870234 0.04578656 -0.06835175 0.15061444 0.036638178 -0.24690494
0.03052774 -0.009470597 -0.02826096 0.113956556 -0.30973697 0.17582044 -0.04309895 0.035532705
0.08315131 -0.021224875 -0.2735822 -0.5721875 -0.19372953 -0.0817469 0.030169148 0.23040381
0.07245822 -0.15750177 -0.42115995 0.03653389 0.2022848 0.107568115 0.0058908015 -0.1509109
-0.8519656 0.105924435 -0.23903738 -0.5339023 0.09828354 0.029735759 -0.07413896 -0.27966437
0.20089474 0.053713042 -0.1763787 -0.23944983 0.22491804 -0.058816485 0.041635506 0.14655541
0.020654298 0.2625214 0.0065675736 -0.13239442 -0.0032551216 0.05146388 -0.030225098 -0.060352694
0.17045993 0.023042537 -0.32256505 -0.33904472 -0.5140964 0.013499215 0.0059520155 -0.014323856
-0.01866078 -0.031986956 -0.045416154 -0.045988083 0.13459948 0.06004323 0.013771372 -0.004058881
-0.049638484 -0.084632024 -0.04775523 -0.06386611 0.053074703 -0.41290718 -0.9338888 -0.3579233
0.03389853 0.013463885 -0.02577101 -0.113637336 0.0012257857 0.045452617 -0.026728272 -0.0086434875
-0.06298541 -0.02101118 -0.099305525 -0.14412488 -0.013340949 0.034073558 -0.35556877 0.08904484
0.012332837 0.05081948 0.057085793 0.15732405 -0.01964327 -0.21047406 -0.01849212 0.023617994
-0.15739928 -0.35555965 -0.04664836 0.17714968 0.044578414 -0.11068404 -0.01363077 -0.09093557
00000000: 25e0 323e 16a9 7fbb 2205 0dbe ae44 d8bd
00000010: 259a 0a3e d298 86bd 47fc 13bd 7e52 5cbe
00000020: e39d 073e fe3f b53d 2252 1f3d 2242 f7bd
00000030: 713d 273b 2a87 5c3d d90c 5dbe 0f7a a0bd
00000040: d187 c8bd cd84 673d 8c75 653d 8449 82be
00000050: 1409 a3bc 1ecf 2c3e 50d1 ab3d d4ba 20bd
00000060: ea28 b8be ec7a c63d a70d 23bf 972b 563d
00000070: 9372 c0bd 34a3 d63c 24f1 723d 9cff 0b3e
00000080: 2acd 2ebe 4540 8d3d 06a3 fc3d 0d68 463b
00000090: 2c87 77bd 062f 50bc 8a91 1abe 7b10 c7ba
000000a0: 560c da3d 64f9 2fbe 8fc5 603e 0c62 81be
000000b0: 80e9 7dbc 140a 85be 7233 483e af30 01be
000000c0: 24fe 4b3e 2e91 d83d 61e0 813e 7d81 34bc
000000d0: 5ce5 d2bb fb3c 07be f013 8dbd 3ce5 313d
000000e0: 7541 3bbe 8ffe 5a3e d840 c73c 82e1 79bc
000000f0: daac 20bd 7a0f 3fbe 500e 943c 4380 953c
00000100: a642 773d 90c4 0d3e 078d ebbc a1d9 d1bd
00000110: 2eb0 bbbd 86bb 9ebe 6413 e0bd a994 023e
00000120: d552 e0be bb7f 98be cbb3 1f3e 16e7 2bbd
00000130: 6028 bd3b cbb8 f0bd fb70 99bc 4039 d7bb
00000140: 76e7 743d 47cb 8fbd 2359 00bf d4b6 503c
00000150: d125 3d3c d570 e33d 549a 78be 01f1 aa3d
00000160: 23e0 283d 6032 cd3d 8236 7ebd a5a5 e33b
00000170: 6f31 28bc a25c 673c a49f ff3b 9f96 023d
00000180: 4616 ef3d 9302 84bd f929 6cbd a36d 86bd
00000190: e70a 5cbe f32c 04be 1582 763d a88d 683d
000001a0: 5dd2 26bc f85b 733c 3fd8 9cbc 4526 983c
000001b0: d081 053d dcf9 ef3d 6df8 34be e209 bb3d
000001c0: bba8 bc3d 9d2e d23d 3572 2a3e 5b4c c73c
000001d0: 30ed 2a3d d240 fcbe 8871 b33c cef9 a13d
000001e0: afa9 983b 80d1 013e f15c 2e3c d5ae bcbd
000001f0: a075 d53d b448 02be 61c0 2d3d 28fc 993d
00000200: 303a 353d 64cc 8fbc 7a1e be3d c0e0 c73d
00000210: 1875 a1bd 4644 843e 804a 1f3c f26a 10bf
00000220: 4c87 32bf edf0 3c3e ca23 26be 04e5 963d
00000230: f117 9bbe 1ed4 1bbd 8bdc 01be 74d4 e33d
00000240: 12ad cfbe dc70 8abc 11b6 553e b08a 3b3d
00000250: 01fc 8bbd ac3a 1a3e ea11 163d a6d4 7cbe
00000260: 5015 fa3c 902a 1bbc 8783 e7bc 0e62 e93d
00000270: d895 9ebe 460a 343e 8688 30bd be8a 113d
00000280: 3c4b aa3d cadf adbc f712 8cbe e17a 12bf
00000290: 0961 46be eb6a a7bd 4a25 f73c faee 6b3e
000002a0: fa64 943d 2548 21be 47a2 d7be 8fa4 153d
000002b0: bf23 4f3e ac4c dc3d a007 c13b 6388 1abe
000002c0: 6b1a 5abf e9ee d83d 37c6 74be d2ad 08bf
000002d0: e148 c93d 6898 f33c 2bd6 97bd 2b30 8fbe
000002e0: 5ab7 4d3e 3502 5c3d 9e9c 34be 5632 75be
000002f0: ea50 663e 8ee9 70bd fe89 2a3d 9f12 163e
00000300: 3433 a93c 3469 863e cd34 d73b 6792 07be
00000310: e153 55bb cacb 523d a09a f7bc 6334 77bd
00000320: 0c8d 2e3e b4c3 bc3c 3f27 a5be 4597 adbe
00000330: d29b 03bf d02b 5d3c 2009 c33b 9bae 6abc
00000340: 7ede 98bc c104 03bd 4a06 3abd 005e 3cbd
00000350: 72d4 093e e4ef 753d 52a1 613c 5d00 85bb
00000360: b951 4bbd 8e53 adbd fd9a 43bd 3ccc 82bd
00000370: dc64 593d 9268 d3be 5613 6fbf b941 b7be
00000380: 2fd9 0a3d a097 5c3c ba1d d3bc b1ba e8bd
00000390: 8baa a03a 862c 3a3d 40f5 dabc 6a9d 0dbc
000003a0: 7ffe 80bd a31f acbc b260 cbbd 7995 13be
000003b0: ff93 5abc b790 0b3d 1c0d b6be 245d b63d
000003c0: ab0f 4a3c 1628 503d cbd2 693d 8e19 213e
000003d0: ecea a0bc 8386 57be c97c 97bc 867a c13c
000003e0: 472d 21be ea0b b6be 5a12 3fbd ba66 353e
000003f0: db97 363d 50ae e2bd 9853 5fbc 6e3c babd

fc.4.bias f4 [128]
0.060701016 0.07517673 0.01604848 0.052064423 0.057634942 0.06120328 -0.046077356 0.009668794
0.023928247 0.10878886 -0.022118248 0.019737056 0.026411975 -0.036180086 0.09951939 0.17469817
-0.046344128 0.062596805 0.013886817 0.015600784 0.047602896 -0.07166473 -0.09878473 0.10973546
0.03281341 0.015183132 -0.07227393 0.13553892 0.15963134 0.061931495 -0.032497276 -0.03307713
0.10683726 0.09654718 0.015743576 -0.027527947 -0.0040334607 -0.05011552 -0.029602146 0.06093306
-0.010740359 -0.114209816 0.1399958 -0.06412707 -0.06684575 0.06396892 -0.09155891 0.205445
0.1718915 0.074333146 0.11269995 0.06814027 0.099414706 -0.09168668 0.03473028 -0.082049355
-0.051486794 0.10284415 0.11768105 -0.04751914 -0.0063124523 -0.028687416 -0.006925306 0.11601712
0.1667898 0.023110205 0.076081626 0.1058796 0.0010880406 0.11763441 -0.0828643 0.09637031
0.0320949 -0.050987814 -0.00044597528 -0.022934608 -0.035114836 0.08603818 -0.019595299 0.098568395
-0.036999185 0.07104386 0.14520821 0.1295323 -0.054096714 0.13060488 0.003751525 -0.071328744
0.01142902 -0.004726427 -0.04608562 -0.007306393 -0.06039955 0.075057924 0.14882764 -0.027011598
-0.07094461 0.045234986 -0.082454644 -0.039222553 0.11501066 0.0025322519 0.18596989 -0.007166833
0.025859019 0.10161556 -0.06923248 0.023836568 -0.058626033 0.08614937 0.030128334 0.10866342
-0.06585531 0.008838747 0.043279506 0.09847028 -0.063406326 0.021601915 0.061135028 -0.073024176
0.08268917 0.0068742265 0.021318598 0.041141927 -0.20122986 0.020050462 -0.14354806 0.03750474
00000000: a1a1 783d 42f6 993d 1a78 833c 8141 553d
00000010: 9e12 6c3d 4ab0 7a3d 9cbb 3cbd dd69 1e3c
00000020: 2c05 c43c b2cc de3d 5431 b5bc 9baf a13c
00000030: ed5d d83c 9231 14bd d2d0 cb3d 14e4 323e
00000040: 57d3 3dbd c132 803d 8885 633c 6e9a 7f3c
00000050: 41fb 423d f5c4 92bd a64f cabd fcbc e03d
00000060: 5b67 063d acc2 783c 5b04 94bd b7ca 0a3e
00000070: 6676 233e e1ab 7d3d dd1b 05bd e27b 07bd
00000080: 7ecd da3d 87ba c53d acf8 803c 4a82 e1bc
00000090: 1f2b 84bb ee45 4dbd 3380 f2bc f294 793d
000000a0: 55f8 2fbc d6e6 e9bd 0f5b 0f3e 0e55 83bd
000000b0: 6de6 88bd 2302 833d 3d83 bbbd 2d60 523e
000000c0: 5304 303e fa3b 983d 3bcf e63d 208d 8b3d
000000d0: f099 cb3d 3ac6 bbbd 5741 0e3d 7e09 a8bd
000000e0: d1e3 52bd f49f d23d c302 f13d 6ea3 42bd
000000f0: b0d8 cebb df01 ebbc aded e2bb 629a ed3d
00000100: f2ca 2a3e 9d51 bd3c afd0 9b3d 67d7 d83d
00000110: 969c 8e3a 4fea f03d c2b4 a9bd cc5d c53d
00000120: f175 033d 99d8 50bd cad1 e9b9 5ce1 bbbc
00000130: 93d4 0fbd c934 b03d 5286 a0bc 3ade c93d
00000140: 758c 17bd 717f 913d 76b1 143e 1ea4 043e
00000150: 8494 5dbd 49bd 053e 25dc 753b ce14 92bd
00000160: c940 3b3c 25e0 9abb 46c4 3cbd 776a efbb
00000170: 8565 77bd f8b7 993d 4666 183e 6d47 ddbc
00000180: 684b 91bd 5248 393d fbdd a8bd d4a7 20bd
00000190: b58a eb3d 23f4 253b e46e 3e3e c1d7 eabb
000001a0: 4bd6 d33c d21b d03d c2c9 8dbd e844 c33c
000001b0: da21 70bd 156f b03d b2cf f63c ed8a de3d
000001c0: 26df 86bd 64d0 103c da45 313d c9aa c93d
000001d0: 2ddb 81bd 80f6 b03c b968 7a3d b38d 95bd
000001e0: f158 a93d 3141 e13b 57a4 ae3c 7084 283d
000001f0: 330f 4ebe de40 a43c 43fe 12be 929e 193d

fc.6.weight f4 [3, 128]
0.40300548 -0.20331584 0.42055878 -0.35053223 -0.10807143 0.12249589 0.278177 -0.17960736
-0.028358363 -0.08026764 -0.37907395 -0.037908994 0.034798883 -0.0733889 -0.24768278 -0.008075496
0.07757941 0.130658 0.05673124 0.043051273 0.20149304 0.04869636 0.15278928 0.19094817
0.08773073 0.12148949 0.029562099 0.1498072 0.06264711 -0.2595226 0.4739134 0.22806908
0.07550611 -0.23894107 -0.060140844 -0.004829404 0.24823526 0.054648012 -0.2619228 0.16247621
-0.012901654 -0.080798015 -0.3341692 0.09691963 -0.07164787 0.13008374 0.19449459 0.30045187
0.011819114 0.18724129 0.12299615 -0.21562785 -0.22643206 0.042747572 -0.024784025 -0.9160007
-0.076103814 -0.28568944 -0.10285111 0.1700295 0.0027641207 -0.037987877 0.040370595 -0.121293105
-0.08337667 -0.2225671 0.047700807 -0.26371187 -0.007543406 0.058986995 0.12969868 0.055305667
-0.20508699 -0.01445438 0.07689264 -0.16690002 0.0037883052 -0.15768865 -0.13119182 0.29526094
0.19192128 -0.37369868 0.22678949 0.14682968 -0.39873445 0.15223208 -0.27304786 0.06412226
0.054865193 -0.40553117 -0.07956646 -0.009538754 0.0038939253 -0.053490814 0.27626082 -0.04936093
-0.13479471 -0.073043495 0.6659625 -0.26063812 -0.022570837 -0.22529952 -0.2946236 0.43207246
-0.28268954 -0.7981186 -0.039508283 0.08181007 -0.08040536 0.11855725 0.1287373 0.13504364
-0.037946016 -0.34782356 0.11495578 -0.49051812 -0.006780503 -0.027019318 -0.21671402 -0.06706608
-0.37167037 0.06513582 -0.03311336 0.08629762 -0.6058474 -0.1931678 0.31265268 0.07963262
0.1327094 0.1275433 -0.20413233 0.40223113 0.2527605 -0.22404191 0.20154579 0.4493304
-0.07710729 0.2818466 0.012517714 0.030233728 0.0059611523 -0.06076228 -0.06443921 0.09049802
-0.04973646 -0.28652772 0.6205138 -0.123647474 0.023108477 0.006448074 -0.1232623 0.30940342
-0.29891717 -0.006563914 0.07319311 0.15395907 0.46056765 -0.048564848 -0.100950696 -0.089742266
-0.3558181 -0.40292296 -0.28661832 0.065060794 -0.098708645 -0.002547921 -0.03164677 0.047321104
-0.0037500856 -0.013854724 -0.20909476 0.031725768 0.05696465 0.12345931 -0.24354509 0.19613077
0.15174598 0.14324886 0.07457685 -0.018295571 0.032603417 -0.2214485 -0.012114348 0.10559565
-0.014575779 0.26277414 0.06766296 -0.027792959 0.004932655 -0.04878801 -0.01949515 0.028009715
0.20651126 0.4086867 -0.35021716 0.19951938 -0.003615124 -0.22031645 -0.28514364 -0.23813304
-0.23701912 -0.04456418 -0.036352538 -0.08693257 -0.012241621 -0.012311727 -0.024573281 0.17487745
-0.00564964 0.3784249 0.119045556 0.2587834 0.33529696 0.3089355 -0.022516055 -0.42798883
0.020920245 0.52480143 -0.08909737 -0.010488288 -0.13071117 0.036794 0.6465992 0.015841246
0.016409239 -0.33639273 0.03206095 -0.10383733 0.15553649 -0.44231835 0.032780416 0.016808605
0.0114711765 0.33395866 0.012127893 0.1006615 0.0072987494 0.3074641 -0.45494366 0.26289573
-0.06958482 -0.03095685 -0.10072374 0.2034761 -0.08688022 -0.19616716 -0.41493252 -0.017351363
-0.24974747 0.34858912 -0.05760105 0.052285187 0.3107564 -0.0063506984 -0.10568791 0.09693876
00000000: bc56 ce3e 0732 50be 7b53 d73e f678 b3be
00000010: 8e54 ddbd 20df fa3d 376d 8e3e feea 37be
00000020: cc4f e8bc 5c63 a4bd fb15 c2be 7646 1bbd
00000030: 4689 0e3d eb4c 96bd 8ea0 7dbe 164f 04bc
00000040: f4e1 9e3d 36cb 053e 045f 683d 8856 303d
00000050: 3154 4e3e d675 473d cb74 1c3e eb87 433e
00000060: 2bac b33d 7bcf f83d 372c f23c 0f67 193e
00000070: 214d 803d 25e0 84be c7a4 f23e f18a 693e
00000080: f3a2 9a3d f8ac 74be 3f56 76bd fa3f 9ebb
00000090: 6231 7e3e 98d6 5f3d bf1a 86be 2a60 263e
000000a0: 7561 53bc 6e79 a5bd 3a18 abbe cd7d c63d
000000b0: 1ebc 92bd ac34 053e 9729 473e d4d4 993e
000000c0: f5a4 413c 2ebc 3f3e 68e5 fb3d 8ccd 5cbe
000000d0: cedd 67be 1418 2f3d de07 cbbc 067f 6abf
000000e0: 51dc 9bbd e345 92be 9aa3 d2bd 371c 2e3e
000000f0: 4026 353b 2d99 1bbd a35b 253d 8568 f8bd
00000100: 63c1 aabd a1e8 63be ec61 433d 3e05 87be
00000110: ad2e f7bb 599c 713d bbcf 043e 3288 623d
00000120: 5302 52be 10d2 6cbc e379 9d3d d7e7 2abe
00000130: 3745 783b 2279 21be 2657 06be 712c 973e
00000140: 0387 443e 6f55 bfbe 813b 683e 855a 163e
00000150: ec26 ccbe bae2 1b3e eecc 8bbe 8852 833d
00000160: 53ba 603d c8a1 cfbe bdf3 a2bd 6f48 1cbc
00000170: 3a31 7f3b 2f19 5bbd 0f72 8d3e b02e 4abd
00000180: a007 0abe d497 95bd 857c 2a3f 5c72 85be
00000190: 7ae6 b8bc ebb4 66be e8d8 96be 9a38 dd3e
000001a0: afbc 90be 8051 4cbf 70d3 21bd 0a8c a73d
000001b0: 91ab a4bd 25ce f23d b6d3 033e e148 0a3e
000001c0: 486d 1bbd ee15 b2be f06d eb3d 3125 fbbe
000001d0: fb2e debb 9e57 ddbc 48ea 5dbe f159 89bd
000001e0: 944b bebe ee65 853d e0a1 07bd cebc b03d
000001f0: d118 1bbf c8cd 45be 0314 a03e 6d16 a33d
00000200: f9e4 073e b69a 023e 1108 51be 3df1 cd3e
00000210: d369 813e 3e6b 65be 0562 4e3e a20e e63e
00000220: 6dea 9dbd 334e 903e 1917 4d3c b9ac f73c
00000230: c555 c33b dee1 78bd b4f8 83bd 0757 b93d
00000240: 75b8 4bbd c3b3 92be fed9 1e3f e33a fdbd
00000250: fd4d bd3c 5d4a d33b f270 fcbd 206a 9e3e
00000260: ac0b 99be 1a16 d7bb 45e6 953d 72a7 1d3e
00000270: 86cf eb3e efeb 46bd 3dbf cebd cbca b7bd
00000280: ca2d b6be eb4b cebe a3bf 92be 983e 853d
00000290: c227 cabd 05fb 26bb 0ba0 01bd c6d3 413d
000002a0: ffc3 75bb edfe 62bc f01c 56be e1f2 013d
000002b0: c453 693d 3cd8 fc3d e263 79be 81d6 483e
000002c0: 4c63 1b3e d4af 123e bfbb 983d 98e0 95bc
000002d0: 298b 053d 65c3 62be 427b 46bc 8842 d83d
000002e0: 40cf 6ebc 558a 863e e192 8a3d 0fae e3bc
000002f0: 1ca2 a13b f0d5 47bd 4bb4 9fbc a174 e53c
00000300: b077 533e 623f d13e aa4f b3be cf4e 4c3e
00000310: b7eb 6cbb a39a 61be 59fe 91be 26d9 73be
00000320: 24b5 72be ee88 36bd 66e6 14bd b409 b2bd
00000330: 1491 48bc 20b7 49bc e84d c9bc 1313 333e
00000340: 9e20 b9bb e9c0 c13e 28ce f33d 427f 843e
00000350: 0bac ab3e cb2c 9e3e 9773 b8bc 5a21 dbbe
00000360: ef60 ab3c 6359 063f af78 b6bd 11d7 2bbc
00000370: 26d9 05be 4eb5 163d 8687 253f 80c5 813c
00000380: ab6c 863c ab3b acbe 5852 033d aba8 d4bd
00000390: f544 1f3e 8d77 e2be c244 063d 33b2 893c
000003a0: 9af1 3b3c a1fc aa3e 12b4 463c 9e27 ce3d
000003b0: 592a ef3b ef6b 9d3e 60ee e8be 459a 863e
000003c0: 7c82 8ebd 3899 fdbc 4048 cebd 0a5c 503e
000003d0: 42ee b1bd 0be0 48be 0972 d4be 7224 8ebc
000003e0: cdbd 7fbe 467a b23e 14ef 6bbd fe28 563d
000003f0: 761b 9f3e 8519 d0bb e772 d8bd d487 c63d

fc.6.bias f4 [3]
0.053989165 0.17082569 0.05841299
00000000: be23 5d3d eeec 2e3e 7642 6f3d
