0615/직선으로이동_장애물도_센서값만입력력.pth (torch, 402688 bytes, 8 tensors)

fc.0.weight f4 [256, 2]
000000 5a e6 05 bf 75 f9 68 bf 35 fd 0d 3f 99 9b 8a 3d
       -0.52304614 -0.9100564 0.5546449 0.06767959
000010 8c 6b 54 3e d4 6f d0 3d 21 47 c2 3d e8 de 13 3e
       0.20744151 0.101775795 0.09486223 0.144405
000020 1e 25 17 bf 40 54 00 bf 82 ea 25 be bf c3 69 3e
       -0.5904101 -0.50128555 -0.16202739 0.22828577
000030 e2 ce fd 3e 16 80 9e be 0d d7 80 3d 67 8a 99 3e
       0.49571902 -0.30957097 0.06291018 0.29988405
000040 82 cc e0 3e 02 23 57 3e 34 e3 f9 3c 82 f9 13 3d
       0.43906027 0.21009448 0.030503847 0.03612662
000050 60 b6 07 3d 19 ce b6 3e 68 f4 a1 3e 51 19 fb bd
       0.03313291 0.35704115 0.3163178 -0.12260688
000060 65 d6 28 3f 43 ac 11 bf 0d 80 98 3e 1f 04 89 be
       0.6595214 -0.56903476 0.29785195 -0.26760957
000070 ba 7b d4 3d f6 95 d9 be b6 15 4e be 90 78 20 bd
       0.103751615 -0.42497224 -0.2012547 -0.039177477
000080 02 54 c2 3e 39 bf c8 be cc a7 94 be de 2d d1 3e
       0.37954718 -0.3920839 -0.2903427 0.40855306
000090 12 d5 f2 3d e5 27 27 3e 7b 55 b6 bd f1 95 89 be
       0.11857046 0.16323812 -0.08903023 -0.2687221
0000a0 e5 dd a4 be 5d 91 79 bd 6f b6 2f 3e 55 28 69 3c
       -0.32200542 -0.060929645 0.17159437 0.014230807
0000b0 f5 da d2 3e 99 4a 46 3d 44 09 16 3f 49 7c 2a bf
       0.41182676 0.048410986 0.5860789 -0.66595894
0000c0 cd ae f4 be a1 dd be bd 2f ec fc 3e de 6d bd be
       -0.47789612 -0.09319616 0.49398944 -0.36997885
0000d0 8d f5 69 3e 6f b9 7f be 3f 0d 1b 3e a6 06 ce 3e
       0.22847576 -0.24973081 0.15141772 0.40239447
0000e0 08 61 b4 3d 7c 2c 17 3e 60 f4 d8 bd f3 17 bd 3c
       0.0880757 0.14763063 -0.10593486 0.023082709
0000f0 f0 f9 bd be a7 46 10 bf ff d9 c1 be 53 ab 11 bf
       -0.3710475 -0.56357807 -0.3786163 -0.56902045
000100 67 4f 97 bc c2 8d a3 bc 7d 9c 38 3f cb 97 e9 bd
       -0.01847048 -0.019965056 0.7211378 -0.11405905
000110 36 8b 9d be 2d 56 0c bf e6 87 d8 be e3 7d 18 bf
       -0.30770272 -0.54818994 -0.42291182 -0.5956709
000120 6c 9f 24 be 6e ef 85 3e 3b 5d 12 be 0f 80 ba be
       -0.1607644 0.26159233 -0.14293377 -0.36425826
000130 0d a9 9b be 33 a6 35 be cb d3 04 bf ac 8d 91 3e
       -0.30402413 -0.17739181 -0.5188567 0.284284
000140 ba a1 4c be 05 f1 b3 be e8 93 ef be af 03 13 bf
       -0.19983569 -0.3514482 -0.4679253 -0.57427496
000150 27 4d bc be 78 db 41 3e 99 e9 b6 be b1 49 fa bd
       -0.36777613 0.18931377 -0.35725096 -0.12221087
000160 54 50 0d 3e 1b b6 6d be 7f 4a 34 3d ef 3e 11 3e
       0.13800174 -0.23213999 0.044016358 0.14184164
000170 ad 7b 1f bf 06 23 16 bf d2 e0 e3 be d6 e1 8c 3c
       -0.6229809 -0.5864719 -0.44507462 0.01719753
000180 f1 6c ba be a3 21 d4 bd 52 af 05 bf 17 15 bf be
       -0.3641124 -0.10357978 -0.5222064 -0.37320778
000190 78 d1 f8 3d c3 a1 87 3e 32 7b a6 be cb 85 16 bf
       0.12149328 0.26490602 -0.32515866 -0.587979
0001a0 de 02 90 3e 17 d8 9a 3e 51 51 be be 65 d3 c2 3e
       0.28127187 0.30242988 -0.37171414 0.38051906
0001b0 b6 fc f6 be 5d 2e 81 3e b6 56 94 be 43 c5 45 3e
       -0.48239678 0.25230685 -0.28972405 0.1931353
0001c0 89 21 d3 3b fe 63 79 3e 32 0c 20 3f 0e f7 bc be
       0.0064432067 0.2435455 0.6251861 -0.36907238
0001d0 5b f9 1f be 72 54 8b bd ce e6 38 3f 07 8d d0 be
       -0.15622465 -0.06803216 0.7222718 -0.40732595
0001e0 52 d2 fb 3e 77 d6 dc be e5 65 33 3e 9c dd 01 3f
       0.491839 -0.43132374 0.17519338 0.50728774
0001f0 58 62 eb be b9 e5 0e be 4d a9 bd be 26 1d c2 be
       -0.45973468 -0.1395482 -0.3704323 -0.37912863
000200 df e7 b7 3e cd ec d6 3b d2 62 82 be 99 43 87 3e
       0.3591909 0.0065589906 -0.2546602 0.2641876
000210 99 40 54 be 61 bd 7f 3e 37 fe 1b 3e 4e 35 bf be
       -0.20727767 0.24974586 0.15233694 -0.37345356
000220 a5 3b 29 be 5c 43 72 3e 9c 77 58 3c b6 e4 18 3e
       -0.16526659 0.23658508 0.013212111 0.14930996
000230 b5 f8 36 3c 87 3c 1d 3e dc 4f 98 be 84 9c 9f 3e
       0.011167695 0.1535512 -0.29748428 0.311741
000240 60 a4 ee be 9c 7c 50 bf d5 dc c6 be 11 a8 38 3d
       -0.46609783 -0.8144014 -0.38840356 0.045082156
000250 7a 99 e8 3e f4 1c 80 be 59 f9 c3 be 82 ec 6a bf
       0.45429593 -0.2502209 -0.38276175 -0.9176713
000260 5e 0c 62 3e be a4 83 3e 13 3f da 3e 6c 5c 0a bf
       0.2207503 0.25711626 0.42626247 -0.54047275
000270 7a a7 91 3c 3d 16 72 3e 9a 3a ab be 8f 2d e8 3d
       0.017780054 0.23641296 -0.33443147 0.113368146
000280 7d 5d c0 3e f7 88 c7 3e 58 c7 95 3d a3 2e 8d 3e
       0.37571326 0.38971683 0.073134124 0.27574643
000290 ae 56 fb 3e bd 13 b1 bd 6e 58 88 3d e6 85 dc 3e
       0.4908957 -0.08646343 0.066574916 0.43070906
0002a0 01 aa 95 be 7b 14 c2 bc d4 b7 3d 3f 14 19 bf bd
       -0.29231265 -0.023691406 0.74108624 -0.09330955
0002b0 5d f3 74 be 09 be fc bd 70 9c c2 be c7 4f 91 be
       -0.2392096 -0.12340934 -0.38009977 -0.28381178
0002c0 81 d5 a8 be 9a d0 85 bc 5a a1 c6 3e a0 b6 8b 3d
       -0.3297539 -0.01633482 0.38794976 0.06821942
0002d0 de cd 8b 3e 5f 77 aa 3e e0 a0 b4 bc da 85 22 bf
       0.27305502 0.33294198 -0.022049367 -0.6348549
0002e0 46 1e 18 3f d1 f1 a7 be f0 94 2e 3f 9e 98 ca be
       0.59421194 -0.3280168 0.6819601 -0.39569563
0002f0 30 ec 2b bd ac 81 39 be 06 94 f4 be 24 0a 8d 3e
       -0.041973293 -0.18115872 -0.47769183 0.275468
000300 27 b0 52 3f ca c6 11 bf 96 79 7c 3e 4a ba b8 be
       0.8230004 -0.56943953 0.24655756 -0.36079627
000310 f9 cf e9 3e 3b c3 82 3e 00 6c 12 bf 0a bb 30 bf
       0.45666483 0.25539574 -0.57196045 -0.690354
000320 4a 4e 6a be 55 60 5a bd 00 15 51 be d2 34 0a 3f
       -0.22881427 -0.053314526 -0.20418167 0.5398685
000330 2f 9f 05 bf 03 d3 42 be e2 b5 d9 be 17 6c c5 be
       -0.5219602 -0.19025807 -0.42521578 -0.38559029
000340 c2 26 eb bc 96 a7 0c 3f 9e 3b c8 3e 25 96 04 bf
       -0.028705005 0.54943216 0.39107984 -0.517916
000350 41 a8 14 bf 86 55 06 3d cc 35 bb bd 91 68 95 3d
       -0.58069235 0.032796405 -0.0914112 0.07295335
000360 c6 d1 5c 3e 66 ad c8 3e da 9e a2 be ac dd 06 be
       0.21564397 0.39194793 -0.3176182 -0.13170499
000370 e1 23 85 3c 32 06 55 3e bc ed b8 3e 1a c0 d3 be
       0.01625246 0.20803145 0.36118877 -0.413575
000380 40 e6 bf 3e 46 44 bb 3d 61 99 4b 3e 0c 9e 97 bd
       0.37480354 0.091438815 0.19882728 -0.07403192
000390 8e 1c 0a be 6c 58 ef 3d 62 76 5b bd a6 b9 2b 3e
       -0.13487455 0.11686787 -0.053579696 0.16770038
0003a0 c9 9d 08 bf d6 cc 45 bf 29 e8 25 bf aa 1b 23 bf
       -0.5336576 -0.7726568 -0.64807373 -0.63714087
0003b0 2c 2e a1 be 51 e8 43 bf a3 bf 15 3e 4e c5 cf 3e
       -0.3148054 -0.7652636 0.14623885 0.4058022
0003c0 21 4e 06 3e e5 73 45 3e 78 a9 cb 3e 72 17 68 be
       0.13115741 0.19282492 0.39777732 -0.22665194
0003d0 95 3a 19 bf 47 76 aa be 4f b5 05 3f 95 ab 2e bf
       -0.59855014 -0.33293363 0.5222978 -0.68230563
0003e0 5a 07 52 3c c6 93 49 3e b6 1e 70 be 33 c5 34 bd
       0.012819136 0.19685277 -0.23449215 -0.044133376
0003f0 ae 6a d9 be 56 49 43 bf a9 53 3b 3d 8e 51 dd 3d
       -0.42464203 -0.76283777 0.04573408 0.10806571

fc.0.bias f4 [256]
000000 44 5a eb 3d 74 f2 a2 be 3a 0f 44 3f 46 35 52 bf
       0.11491826 -0.31825602 0.76585734 -0.8211254
000010 d9 64 14 bf 40 fd 7a bf ea 20 80 bd 67 71 a7 bf
       -0.5796638 -0.9804268 -0.06256278 -1.3081483
000020 99 3b 48 3f 03 18 91 3e 65 c1 be 3e 95 02 ff be
       0.7821594 0.28338632 0.37256923 -0.49806657
000030 00 e0 d4 be d3 5e 65 bf 83 50 cd 3e 5b e2 36 3f
       -0.41577148 -0.89597815 0.40100488 0.7143914
000040 e0 ac de be fc 28 b6 bf ac 02 68 bf 90 e5 36 3f
       -0.43491268 -1.4231257 -0.90629077 0.71444035
000050 e0 fc 4d 3f 11 4c 9a 3f 10 dc 84 3f 93 9e 77 3f
       0.8046398 1.2054464 1.0379658 0.9672634
000060 7e b2 96 be 97 0f 70 3f b1 98 ff 3e bc 85 9c bf
       -0.29433054 0.9377379 0.49921182 -1.2228312
000070 f0 f7 0f be fa 2b 11 bf 16 62 5f 3f fc 82 63 3f
       -0.14059424 -0.5670773 0.8725904 0.8887174
000080 0f f0 85 3f ce 34 18 bf 8b fa 35 3f 88 cf 58 3f
       1.0463885 -0.59455574 0.71085423 0.8469167
000090 16 46 84 bf da 35 c1 bd 33 1a 6f bf 93 94 83 bf
       -1.0333889 -0.094340995 -0.9339935 -1.0279716
0000a0 b0 c2 1c bf b1 0c bc be 1f ab 81 3f 59 90 29 bf
       -0.6123457 -0.36728433 1.0130347 -0.6623588
0000b0 9a fb 30 3f 1e 99 a2 3d 47 dc 50 3e 40 00 14 3f
       0.69133914 0.07939361 0.20396529 0.5781288
0000c0 5d 99 56 bf 7b a3 9b bf 54 bb 56 bf 6c 18 93 3f
       -0.83827764 -1.2159265 -0.8387959 1.1491828
0000d0 15 6d 47 3f dc fe 18 3f 7c e4 68 bf 12 16 76 3f
       0.7790082 0.59763885 -0.9097364 0.96127427
0000e0 b6 8a 81 bf 02 de 12 3e 16 1b 3c 3f 78 ae 2b bf
       -1.0120456 0.14342502 0.7347883 -0.67063093
0000f0 2e 5b 76 3e d1 c5 65 3f d8 e2 3e 3e 1f e0 44 3f
       0.2405822 0.8975497 0.18641222 0.7690448
000100 7b ce e6 3e 06 2f 6f bf 0e ef 07 3f 56 60 34 bf
       0.45079407 -0.9343113 0.53099144 -0.70459497
000110 05 15 7e bf 90 ae 2f bf 43 76 29 bf c8 10 8e bf
       -0.99250823 -0.68625736 -0.6619608 -1.1098871
000120 20 ae d0 3d e8 cb 7b 3f c2 36 b3 3c 60 7f 51 bf
       0.10189462 0.9835801 0.021876696 -0.81834984
000130 59 c7 a1 bf 02 2a 1a 3f 88 2e 86 bf d9 93 80 bd
       -1.2638961 0.6022035 -1.048295 -0.062782
000140 44 5b 16 3f 98 5d 04 3e 17 7b a0 be ce da ad bf
       0.5873301 0.12926328 -0.3134391 -1.3582399
000150 bf 2e cf be fe 4c 34 bf b4 fc 7a bf 15 f2 ed 3e
       -0.40465352 -0.7042998 -0.98041844 0.46473756
000160 9c 28 82 bf 32 dd 40 3f e5 28 2e 3f 2e 0b d9 be
       -1.0168643 0.7533752 0.6803115 -0.42391342
000170 a2 d1 94 be aa 56 1f bf 25 a1 b7 be 02 d2 8a bf
       -0.29066187 -0.62241614 -0.3586513 -1.0845339
000180 98 e5 5d bb ff 64 3e 3f 45 9b 5d bf 04 64 b3 3e
       -0.0033858772 0.7437286 -0.8656505 0.35037243
000190 a0 db 61 bf e7 39 40 3f f1 11 9c 3e 29 a6 92 be
       -0.88225746 0.7508835 0.30482438 -0.28642395
0001a0 3c 48 60 3f 03 0e fa 3e 74 16 52 3f 48 9e bf be
       0.8761022 0.48838815 0.8206551 -0.37425447
0001b0 5d 68 6b 3f 4f b6 e4 3e 22 1f 6d bf ba cb a3 3f
       0.9195612 0.4467034 -0.9262563 1.2796547
0001c0 fd 6c 4f bf 57 17 27 bf 09 20 24 bf 3a d3 83 bf
       -0.8102568 -0.6526999 -0.6411138 -1.0298836
0001d0 72 4e 31 3f 45 ab 03 3f 78 b3 86 3e 31 ca 9d bf
       0.69260323 0.5143321 0.263088 -1.2327329
0001e0 1a 1b 7e bd b9 48 62 bf 60 63 6e 3f ef 8d 1b 3f
       -0.062037565 -0.88392216 0.93120384 0.6076345
0001f0 26 2a 56 bf 45 46 3d 3f 96 99 43 bc 3a 9e 2a bf
       -0.83658063 0.7393535 -0.011938473 -0.66647685
000200 fa 20 0f 3e 75 6c 59 bf b5 a6 c3 3e cb ad ce be
       0.13977423 -0.8493112 0.38213125 -0.4036697
000210 ca ca 5b 3f ee d1 33 3f 63 d5 91 3e 6f 6d 23 3f
       0.85856307 0.702422 0.28483114 0.6383886
000220 ce 82 7b 3f f3 ef 65 bf cc 91 9c 3f 0c a5 da 3e
       0.9824647 -0.8981926 1.2231994 0.42704046
000230 d7 ad 96 3e 27 1e 42 3f 9e b3 ff 3e 2f c7 1c bf
       0.29429504 0.7582726 0.49941725 -0.6124143
000240 14 68 87 bf a5 ae 61 3f 6f 03 7f bf fe c3 d3 3e
       -1.0578637 0.8815711 -0.99614614 0.41360468
000250 2e 09 8b 3d 3c 62 7d bf 15 44 3f bf ff ae 15 3f
       0.0678886 -0.9897802 -0.7471326 0.5847015
000260 4c bd ae bf cb 70 a7 be b0 5c 36 be 64 1f 81 3f
       -1.3651519 -0.32703242 -0.17808795 1.0087705
000270 64 e2 60 bf b7 ed 28 3f f5 56 ea be 3f b4 f3 3e
       -0.87845445 0.65987724 -0.45769468 0.47598454
000280 06 36 21 bf 31 51 19 bf 9e 44 8a be b7 6f 42 bf
       -0.6297306 -0.59889513 -0.27005476 -0.75951713
000290 fa 83 7c bf a9 ad 87 be ea b7 e8 3e 1c 8d 1b bf
       -0.9863888 -0.2649968 0.45452815 -0.6076219
0002a0 aa 8f 20 bf c1 45 63 bf 78 7c 86 3f a2 53 38 bf
       -0.62719214 -0.8877831 1.0506735 -0.72002614
0002b0 af 3e 1c bf 6d 54 fb be db c5 ea be 5c e5 51 bf
       -0.6103315 -0.4908785 -0.45854077 -0.819906
0002c0 f4 ee 99 bf fb b1 1e 3f 5d 82 83 3f 99 d5 23 3f
       -1.2026048 0.61990327 1.0274159 0.639978
0002d0 5c 15 6a bf ed 53 3c bf 72 9b 80 bd 06 7b 69 bf
       -0.9143884 -0.7356556 -0.06279649 -0.91203344
0002e0 88 ab 0f 3f fb a7 a6 bf 21 b0 a7 bf 3c 29 a8 be
       0.5612111 -1.3020014 -1.3100625 -0.3284396
0002f0 9d 03 85 be e6 af 1f 3e 05 27 29 bf 4a b3 1f 3f
       -0.2597932 0.15594444 -0.66075164 0.6238295
000300 f6 de 75 3f ed 81 c2 be 57 49 1b bf aa 48 63 3f
       0.96043336 -0.3798975 -0.6065878 0.8878275
000310 63 d3 a1 bf 81 fa 88 bf 21 68 fd be e9 52 0c 3f
       -1.2642635 -1.0701448 -0.49493507 0.5481401
000320 02 54 97 bf bd 06 05 bf 60 d7 76 bf 73 ae 39 3f
       -1.1822512 -0.51963407 -0.96422386 0.72531813
000330 3b 97 70 bf d0 69 3e 3e 3f 2d 97 3f 82 ed 89 bc
       -0.9398076 0.18595052 1.1810683 -0.016836885
000340 b4 99 4f 3f 41 f7 41 3f 57 b3 6b bf 05 26 42 bf
       0.8109391 0.75767905 -0.92070526 -0.75839263
000350 26 44 13 3f f5 36 94 bf 9c d4 05 bf 39 73 84 bf
       0.5752586 -1.1579272 -0.5227754 -1.0347663
000360 74 1a 51 bf e7 42 7e 3f 7a 0b 63 3f 67 1c 8c bf
       -0.8168099 0.99320835 0.88689387 -1.0946168
000370 14 93 95 3f 3f a2 3d bf 3e b9 94 be 05 18 4c bf
       1.168551 -0.7407569 -0.2904758 -0.7972415
000380 23 32 c2 3e 71 10 26 3f 17 dd ad 3d 7a b5 6b bf
       0.37928876 0.6486884 0.08489435 -0.92073786
000390 b7 95 92 bf 3f ba 07 bf 1f 1f 6a 3f 08 ba 03 bf
       -1.1451939 -0.53018564 0.9145374 -0.51455736
0003a0 a2 02 7f 3f 90 d3 4c 3e 9a f9 e6 3e a3 1e 07 bf
       0.9961339 0.2000258 0.45112306 -0.5278112
0003b0 95 2a 94 bf ea 17 c5 3d 02 9c 31 3e 30 62 2c bf
       -1.1575495 0.09623702 0.17344669 -0.6733732
0003c0 c4 09 0a bf e3 51 3a 3f 89 3b 44 bf 7a ff 8c bf
       -0.5392115 0.727812 -0.76653343 -1.1015465
0003d0 a1 e5 0e bf f0 ca a4 be ce 81 43 3f 3c 2f 58 3f
       -0.55819136 -0.3218608 0.7636994 0.84447074
0003e0 ac e6 9f 3f b7 9f 25 bf 9f ae a5 3d 0b ec b1 bf
       1.249227 -0.6469683 0.08089947 -1.390016
0003f0 00 a8 52 bf 88 6e 03 bf 3d 8c f3 be 40 28 c5 3e
       -0.822876 -0.5134053 -0.4756793 0.3850727

fc.2.weight f4 [256, 256]
000000 89 66 2a bf a6 93 c7 be 8f cc 77 3d 23 74 18 bf
       -0.66562706 -0.38979834 0.060497817 -0.5955221
000010 14 cd 4a bf e9 15 68 be 6c 51 c9 be 8b 59 e7 be
       -0.79219174 -0.22664608 -0.39319932 -0.45185503
000020 75 97 c2 bd 39 e4 1a 3c 78 81 fc 3c 77 18 ca be
       -0.095015444 0.009453827 0.030823454 -0.3947179
000030 8c 96 3e bd 28 60 00 3c 4b 25 0a be 07 47 c7 3d
       -0.04653029 0.007835425 -0.13490789 0.09730344
000040 62 d5 06 bd ae b4 06 be d9 2c 27 bf 86 a7 10 3e
       -0.03291834 -0.13154861 -0.6530281 0.14126405
000050 5d 21 21 3e 82 c0 21 3e cf 6a e0 bd a2 16 45 be
       0.15735383 0.15796092 -0.10957872 -0.19246915
000060 24 92 23 3e 48 37 7b bf 78 68 15 bc 75 15 ed be
       0.15973717 -0.9813123 -0.009119146 -0.46305433
000070 1f c6 32 bd 1f ae 55 be c4 20 80 be 92 ca bb be
       -0.043645974 -0.20867203 -0.25024998 -0.36677986
000080 7d de 0e 3e 89 dd d7 be 01 95 91 bf 23 90 25 bf
       0.1395206 -0.42161205 -1.1373597 -0.6467306
000090 3e 13 2d bf 4d a1 38 bd 65 00 88 be 6b 9a 35 be
       -0.67607486 -0.045075703 -0.265628 -0.17734687
0000a0 60 1c 82 bf bf 94 d7 be 65 ee 15 3e 04 80 57 be
       -1.0164909 -0.42105672 0.14641722 -0.21044928
0000b0 c1 30 5d bf 39 11 99 bd 44 91 3e bf 40 cc 94 3d
       -0.8640252 -0.07473988 -0.7444041 0.0726552
0000c0 d3 9c a2 bf dd ae 2c bf a6 5c e2 be 41 46 0c bf
       -1.2704109 -0.6745432 -0.4421131 -0.547947
0000d0 79 79 bf bc a4 2f b0 3d 12 f0 ae bd 3e 7e 29 3d
       -0.023373352 0.08602837 -0.085418835 0.04138016
0000e0 72 f3 27 bf 75 f3 df be b6 29 90 3e ab 16 19 3e
       -0.65605843 -0.4374043 0.28156823 0.14950053
0000f0 2a 09 79 bd 5b b6 06 3d af 48 2e 3e 88 40 25 3e
       -0.060799755 0.03288875 0.17019914 0.16137898
000100 3d 44 66 be d6 6f 9c bd b8 29 57 3d 5e 66 eb be
       -0.22486968 -0.076385185 0.05253002 -0.45976537
000110 69 3a 86 be 9c 28 e5 be ed 44 22 bf 07 fa fb bd
       -0.26216438 -0.44757545 -0.6338642 -0.12303548
000120 1e 22 46 bf 0f 50 fc 3d fe 8d d9 be b3 2c 2c bf
       -0.7739581 0.123199575 -0.42491144 -0.67255706
000130 8a 31 ae be ef 1b bf bd ab 1a c6 be 7c 6d fb 3c
       -0.3402217 -0.093315 -0.3869222 0.030691855
000140 de 30 59 bd 8f a2 c8 3c 4b d8 bb be ce a0 d5 be
       -0.05302512 0.024491576 -0.36688456 -0.41724247
000150 e0 ef 41 bd f0 4e cf be d8 cf 86 bf 7c 64 f8 3d
       -0.047347903 -0.40489912 -1.0532179 0.12128541
000160 4e 84 98 be 9b ac 0d be 0f 1d 97 3c 50 a8 25 bd
       -0.2978844 -0.13835375 0.018446473 -0.04044372
000170 f5 b9 09 bc 37 51 f8 3d 80 28 2d bb 80 4b 1d be
       -0.008406152 0.121248655 -0.0026421845 -0.15360832
000180 d8 a0 93 bc 52 cb 3f bf 20 ba d1 be 71 2d 47 bf
       -0.018021032 -0.7491962 -0.40962315 -0.77803713
000190 cf 89 3b be 72 85 cd ba 24 16 0c 3e 5e fa d8 be
       -0.18314289 -0.0015680029 0.13680321 -0.42378515
0001a0 05 c1 1d bd 55 d6 6a bd 83 13 0a 3e b0 bb 3e 3d
       -0.038514156 -0.05733331 0.13484006 0.04656571
0001b0 5a 1e 5c 3d 50 8a ae 3d 33 98 f4 be d8 a2 6d bf
       0.053739883 0.08522475 -0.4777237 -0.92826605
0001c0 32 a1 4e be 06 4d 6c be 1c a6 92 bc bd bb 36 bf
       -0.20178679 -0.23076257 -0.017901473 -0.71380216
0001d0 4d 08 29 bf 83 d7 00 bf 75 b3 ec bd fe 3b 02 bf
       -0.6602829 -0.50328845 -0.11557666 -0.5087279
0001e0 6e 34 b1 bd 9e d9 2f be 37 24 25 3e 04 ce 99 be
       -0.08652578 -0.17172858 0.16127096 -0.3003999
0001f0 ce 54 26 bf 3c 23 39 3e d9 0c 72 bf 96 20 e6 be
       -0.6497315 0.18079847 -0.94550854 -0.44946736
000200 d7 2d 46 3e 9a 15 88 be 3c c7 08 be 64 42 66 3d
       0.19353424 -0.2657898 -0.13357252 0.05621566
000210 c6 36 4a bf b6 12 9f 3d 1d 31 f6 bd d3 4d 31 3e
       -0.7898983 0.07767241 -0.12021086 0.17314844
000220 fd eb 05 3e b2 6f 99 bf 86 2a 07 be 01 bb 49 bd
       0.13078304 -1.1987212 -0.13199815 -0.049250606
000230 cd a7 ee bd 61 c6 8b 3e 97 1a 59 3c 50 d6 b0 3b
       -0.11653099 0.2729979 0.013250968 0.005396642
000240 93 fc 7c be 0d cd 81 3d 2e 4f 8d be 27 b8 00 c0
       -0.24705724 0.063379385 -0.27599472 -2.0112398
000250 8d 11 63 3c 4a f4 52 be 56 16 f7 bd eb 84 2e be
       0.013859165 -0.20601001 -0.12064807 -0.17042892
000260 db d3 ae be 0d 53 5b 3d 69 34 0c bf b8 0c f2 3c
       -0.34146008 0.053546 -0.5476747 0.02954708
000270 14 d9 f1 bc c6 be fe bd 70 55 34 bd cf e4 58 bd
       -0.029522456 -0.12438731 -0.044026792 -0.052952584
000280 08 d3 cc bd 19 c4 3d be 4e f8 0b bd f9 06 01 bf
       -0.100011885 -0.18531837 -0.03417235 -0.50401264
000290 12 86 9e be f6 29 6a 3d d1 76 c3 bd 90 af 0a bf
       -0.30961663 0.057168923 -0.09544147 -0.5417414
0002a0 88 e0 90 be ec d7 6a bf 12 3e 33 bd 7e 38 0b be
       -0.28296304 -0.9173572 -0.043760367 -0.13595769
0002b0 fa 16 2e bd 99 d4 86 be 12 13 9b 3d 7e 61 f5 be
       -0.04250238 -0.26334074 0.07571997 -0.47925943
0002c0 98 13 00 be a4 df cf 3a 1d 26 18 3e a0 b1 f1 bc
       -0.12507474 0.0015859497 0.14858289 -0.029503644
0002d0 df 70 37 3d 6b 26 03 bf 91 0d 1b 3d 56 d9 77 be
       0.044785377 -0.51230496 0.037854735 -0.24204001
0002e0 a4 90 b0 3d 82 54 a4 be 45 6c c0 be 7a 9f 05 3d
       0.08621338 -0.32095724 -0.37582603 0.03262279
0002f0 d0 7b f3 3c 69 a7 18 bf 8b 8b af bd 6d 21 00 3e
       0.029722124 -0.5963045 -0.085715376 0.12512751
000300 84 d0 e4 be bb b1 c5 be c3 a0 75 bf 61 a7 d5 3d
       -0.44690335 -0.3861216 -0.9594843 0.104323156
000310 b2 57 fc be ba f8 7c be 1e d1 d7 be e7 71 9f 3d
       -0.49285656 -0.24704257 -0.4215173 0.07785397
000320 d5 7c 50 be bd 8e cb be 72 3c 71 bd c5 93 fe 3d
       -0.2036012 -0.39757338 -0.058895536 0.124305286
000330 ce f7 de bd 2d f7 26 be 1c 7e 2d bf 77 af a3 be
       -0.10887109 -0.16305228 -0.6777055 -0.31969807
000340 ec fb 73 bf 27 4e b7 be 82 3b 1a bf 08 f2 d3 3d
       -0.9530628 -0.35801813 -0.6024705 0.10348898
000350 51 65 07 bf 17 c9 c9 bd 27 61 b6 3a df 51 a5 be
       -0.5288897 -0.09852808 0.0013914452 -0.32289025
000360 b6 10 ed be dc e5 85 3d 8a dd e3 3d 2c 80 f5 be
       -0.46301812 0.06537983 0.111262396 -0.4794935
000370 62 c2 48 bc f0 a0 ab bf 9b 98 32 3d 11 2c 22 bf
       -0.012253376 -1.3408489 0.043602567 -0.6334849
000380 9c 5e 6b be 50 6e 8f 3c 44 cf 68 bf ca d4 9a 3d
       -0.2298531 0.017508656 -0.9094126 0.075601175
000390 b0 7f c4 be 2a 9b b0 be 3a db da be 61 a7 7f be
       -0.38378668 -0.3449338 -0.42745382 -0.24966194
0003a0 33 cd fa 3d 3c ed 8d be b1 02 fb bd 5c a5 0c be
       0.1224617 -0.27720058 -0.12256373 -0.13734955
0003b0 d5 90 06 bf 96 ad 85 bd e0 7d e9 be 08 c3 bf be
       -0.52564746 -0.065272495 -0.45603848 -0.37453485
0003c0 16 c1 4d 3d 27 f6 13 bf 64 68 2f bf 47 bb 84 be
       0.05023297 -0.57797474 -0.6851866 -0.2592413
0003d0 46 3c 14 bf 72 76 2b bf 9f a0 a7 bf 34 04 74 bd
       -0.5790447 -0.6697761 -1.3095893 -0.05957432
0003e0 a3 f3 86 3e 15 a8 74 be de 20 a4 be 51 92 5b be
       0.26357755 -0.23892243 -0.32056326 -0.21442534
0003f0 7b 16 86 be f0 78 43 be 1c 5b 9a be b7 8f 0e bf
       -0.26189026 -0.19089103 -0.30147636 -0.5568804

fc.2.bias f4 [256]
000000 46 de 53 3e b7 bf c7 3c b5 51 8b 3e ae 62 81 bd
       0.2069026 0.024383409 0.27210775 -0.0631765
000010 94 ab 81 3c f3 c4 ea bd a3 98 44 be 8e 3c d5 bb
       0.015828885 -0.11463346 -0.19198851 -0.006507463
000020 e8 f4 95 3c 8e 1f bf be 07 27 52 3c 97 38 63 3e
       0.018305257 -0.37328762 0.012826688 0.22189556
000030 9f cd b7 3d 46 27 e4 3d 35 0b bc 3d 10 80 fd 3d
       0.08974766 0.11140303 0.09181825 0.123779416
000040 c6 d4 e5 be 7a a1 28 3e 30 55 a4 3b 96 ee 71 be
       -0.44888896 0.16467848 0.005015038 -0.2362617
000050 13 f0 32 bd fe ba 72 3d 39 ef 8d 3e 9d 6e 4c bd
       -0.043685984 0.05926036 0.27721575 -0.049910177
000060 31 93 12 bf 73 6b 9b 3e 92 89 bf bb 80 3c 8e 3d
       -0.57255846 0.30355415 -0.005845257 0.06945133
000070 90 77 d5 3b 83 ae ac bd d2 b2 b7 3e 9f c9 33 3e
       0.006514497 -0.08431723 0.35878617 0.17557381
000080 89 85 a3 3e 41 22 68 3d 63 87 2f bd 66 06 4b 3e
       0.31937817 0.056673292 -0.042853724 0.1982666
000090 4d f0 d5 be 4f f2 eb 3e c9 5c 3f bd 0d d7 45 3e
       -0.41784897 0.46083304 -0.046719346 0.19320317
0000a0 92 7b 1d 3e c2 d8 d1 3e fb e5 c4 3e 8d 11 42 3e
       0.1537917 0.40985686 0.3845671 0.18952008
0000b0 3f 29 b8 bd 0d a4 88 3e 5d 80 01 3d c5 9d 91 3e
       -0.08992242 0.2668766 0.031616557 0.2844068
0000c0 e5 27 03 3d 97 58 24 3e ed 19 11 3f f6 15 15 bf
       0.03202047 0.1604942 0.56680185 -0.58236635
0000d0 81 49 b1 be 51 14 8d bd 60 3e e0 be 2c f0 09 3d
       -0.34626392 -0.06888641 -0.43797588 0.03367631
0000e0 c7 19 26 3e 14 cb c8 3e c2 5d b9 3e 3d e2 1f be
       0.16220771 0.39217436 0.36204344 -0.15613647
0000f0 47 b0 d7 bc 8f 45 ef bc 6b cf 1d bd 92 e5 c4 3e
       -0.026329173 -0.029207973 -0.038527887 0.38456398
000100 0a 23 86 bd 11 4d 37 3e a0 51 e1 be 67 c7 f1 be
       -0.06549652 0.17900492 -0.44007587 -0.47222444
000110 c6 b7 98 3c 9e 66 21 be 18 5d 3d bc 98 4e 7b 3d
       0.018642318 -0.15761802 -0.01155784 0.06135425
000120 de 44 15 3e 7b 20 34 be ab 6c 5e 3e 1c b8 a6 bc
       0.14577052 -0.17590515 0.21721141 -0.020351462
000130 4f b4 41 3e c6 67 55 3e 98 0b 6e 3c f2 d9 bc be
       0.18916439 0.20840368 0.014529131 -0.3688503
000140 4b e8 3b bd 21 ac e0 be ec 1d b7 bc cb bc b1 3e
       -0.04587583 -0.43881324 -0.022353135 0.3471435
000150 b4 32 b1 3c fe ec 0d 3d 87 1d 25 bd 39 a0 21 3e
       0.021630622 0.03464984 -0.040311363 0.15783776
000160 47 51 b5 3e 8d 9d cf 3d 86 36 69 bc 03 9c 59 3e
       0.35413572 0.10137472 -0.014234191 0.2125092
000170 a5 93 25 3d 80 53 c9 3e 99 c8 9a 3d 4b 29 9e bc
       0.040424008 0.39321518 0.07557792 -0.0193068
000180 1f 43 69 bd 30 1b 8d be 4e 06 39 3e 60 ae d7 bb
       -0.056948777 -0.27559805 0.18068811 -0.0065820664
000190 6f b0 2f 3d c8 23 4a 3e 48 0e 48 bd 5a 85 16 3e
       0.04289287 0.19740212 -0.048841745 0.14699307
0001a0 70 ba bd 3e b8 4d ed 3e eb 88 86 3c 5a b4 98 3b
       0.37056303 0.46348357 0.01642271 0.0046601715
0001b0 db d7 79 3e d6 2e 0e bf d1 63 22 3e 7f c4 c2 3e
       0.24398749 -0.55540216 0.1585839 0.3804054
0001c0 45 1b 10 3f f3 98 31 3e 25 ad d4 3e b7 ca 9c 3e
       0.5629161 0.17343502 0.4153835 0.3062341
0001d0 18 64 48 3d e8 72 c7 3e 83 ce 36 bd 54 f0 10 3d
       0.04892358 0.38954854 -0.04463054 0.035385445
0001e0 dd 89 18 3d 4f 0b 32 3e be 55 93 3e 70 0a bd 3d
       0.03724085 0.17387126 0.28776354 0.092305064
0001f0 42 4b 25 3e f2 2c 52 3e c2 3d 93 3e 4e e4 6e 3d
       0.1614199 0.20524958 0.28758055 0.058323197
000200 e0 9f 6b bd 4b 0b af 3e 6a e7 b7 bd b0 5c 93 3e
       -0.057525516 0.34188303 -0.089796856 0.28781652
000210 f6 f9 37 be 14 dd 92 3e 49 71 46 3e 77 c8 22 3d
       -0.17966446 0.28684294 0.19379152 0.03974196
000220 ee 37 e9 3e af c1 d4 3e b3 6a 46 3e 48 dd df 3b
       0.45550483 0.4155402 0.1937664 0.0068317987
000230 29 39 ad 3c 62 09 87 be 76 b4 cd bc f5 64 ab 3e
       0.02114542 -0.26374346 -0.025110465 0.33475462
000240 2b 05 a4 be e8 22 09 bc 4f 2e d1 3d 71 77 9f 3e
       -0.32035193 -0.008370139 0.10213911 0.31145814
000250 e5 65 2a 3e c8 35 cc 3d 50 58 c8 be d9 80 83 3e
       0.16640432 0.099711955 -0.39129877 0.2568424
000260 76 0f 01 3f 6c 9d 1f 3e 32 56 90 3e d1 80 05 3e
       0.50414217 0.15587395 0.28190762 0.13037421
000270 bd 39 26 3e e5 97 2b 3e 7f d4 17 be 11 54 3f be
       0.16232963 0.16757162 -0.14827155 -0.18684413
000280 e7 cd 0a be 05 b6 41 3d c6 5d 55 bc 00 8c 22 3e
       -0.13555108 0.047292728 -0.013022846 0.15873718
000290 78 14 a3 bb f2 d9 d2 3e 86 7b 71 3e c6 f7 2f 3e
       -0.0049768053 0.41181904 0.23582277 0.17184362
0002a0 09 6a 25 be ce 59 f5 3d 80 aa 35 bb 15 4b 51 3e
       -0.1615373 0.119800195 -0.0027720034 0.20438798
0002b0 ad 4f 14 3d 68 fe 28 3e 26 8a 49 bd 13 a6 a8 be
       0.036208797 0.16503298 -0.049204014 -0.32939205
0002c0 c1 32 24 3e 90 6b ad bc 29 79 ab 3e 79 51 62 3e
       0.16034986 -0.021169454 0.33490875 0.22101392
0002d0 1e ef b9 3e 1a 54 59 3c c2 37 af be ef 4a 49 3e
       0.36315244 0.01326468 -0.34222227 0.19657491
0002e0 27 59 7a bd 16 70 16 bd e5 0b 46 3e b0 26 3d 3d
       -0.06112018 -0.036727987 0.19340475 0.046179473
0002f0 85 4d 59 3e 8a 5f a3 3e b1 a5 d9 3d 80 f1 20 3c
       0.21220978 0.31908828 0.10627306 0.009823203
000300 4a 4e 4d 3d 5f f8 1e 3e d1 66 a0 3d 30 01 8f bc
       0.05012349 0.15524434 0.07832111 -0.017456621
000310 cc 58 8a be 89 e3 84 bd b9 cc 1b 3e cf 44 86 bc
       -0.27020872 -0.064887114 0.15214814 -0.016390232
000320 96 0f cb 3e f7 26 73 be 34 c0 01 be 36 5c 56 bd
       0.3966033 -0.23745333 -0.12670976 -0.052334033
000330 6e bc d1 bc 0d 40 2b 3d 4f 27 cc 3d ee 66 00 3f
       -0.025602546 0.04180913 0.09968435 0.5015706
000340 40 9c 1a bd 23 f6 71 3e 78 c9 8a be 7f 1a d6 3e
       -0.037746668 0.2362905 -0.27106833 0.4181709
000350 92 c9 4e 3e 3e 49 af 3e 93 eb eb bc ea 3c 9b be
       0.2019408 0.34235567 -0.028798854 -0.3031991
000360 ec 86 f7 3c 4d 58 b1 be 3c 96 db be 05 0d 10 bd
       0.030215703 -0.3463768 -0.42888057 -0.035168666
000370 67 dc 5f 3d 3b e1 ad 3e 38 a2 df 3d 1b 14 36 3e
       0.05465355 0.339609 0.10919613 0.17781107
000380 5d ac fa bd e7 28 8b bc 11 65 9e 3e c9 b8 f4 3d
       -0.12239907 -0.016987277 0.30936483 0.119493075
000390 56 ca f3 be c2 e9 3b bd 88 c8 ef 3c e5 60 70 be
       -0.47615308 -0.045877226 0.029270425 -0.23474462
0003a0 2d c5 07 3f c9 72 d9 3d 09 75 70 bd d7 cc d7 3e
       0.5303524 0.10617597 -0.058705363 0.42148468
0003b0 97 e3 59 be da a7 2e bd e3 14 60 3d b4 4b 3b 3d
       -0.21278225 -0.042640544 0.05470742 0.045726493
0003c0 ff f1 76 bb e4 88 8f 3d e3 37 8c be 76 b3 61 3e
       -0.0037680862 0.07008532 -0.27386388 0.22041115
0003d0 68 19 2c bd 1c 17 04 3d 1d c7 4b 3e 80 f4 1f bd
       -0.042016417 0.0322486 0.19900174 -0.039051533
0003e0 e0 e0 c2 3c 12 d1 7c 3e 11 9f 56 3e 7e 18 58 3d
       0.02378887 0.24689129 0.20959117 0.052757733
0003f0 db 36 97 be b9 27 02 bf fc a3 9a 3d dd ae 7e 3e
       -0.2953404 -0.5084186 0.07550809 0.24871393

fc.4.weight f4 [128, 256]
000000 e0 9a ef 3c d8 6c 06 3d 1b 8d d4 3c fe 55 dd 3c
       0.029248655 0.032818645 0.02594619 0.027018543
000010 66 61 69 3d 30 dd fc 3c 56 86 53 bd b4 6c ed bc
       0.056977652 0.03086719 -0.051641785 -0.028982498
000020 c0 e8 4d 3c b1 39 86 bc b4 c5 b8 bc fb 2c 96 bd
       0.012567699 -0.016384931 -0.02255521 -0.07332798
000030 f9 28 e0 3c 5c e1 81 bd ce be 56 bd 98 2d f0 3c
       0.027363287 -0.06341812 -0.05242806 0.029318616
000040 d8 49 19 bd d5 9f 1c 3b e6 0b 25 3d ec 2a 24 bd
       -0.03742394 0.0023898978 0.04029455 -0.040079996
000050 a0 08 b1 bb d0 fb 8e bb bd 15 4b bd 23 39 f3 bc
       -0.0054026395 -0.0043635145 -0.049581278 -0.02969033
000060 00 c2 ff 3a 12 15 03 3c 2c a4 3e 3d 0c 49 16 bd
       0.0019512773 0.008000629 0.046543285 -0.036690757
000070 86 81 08 bd 05 20 c6 bc 9d 6a a8 3c ff 9b 83 bd
       -0.03332665 -0.02418519 0.02055865 -0.06426238
000080 fc 9e 1f 3c 62 ae 35 bc ac 95 1c 3d 95 6b 04 bd
       0.009742495 -0.011088939 0.038228676 -0.03232916
000090 53 f5 15 3d 37 20 87 3c c0 da 6b bb e7 79 51 bd
       0.036610913 0.016494853 -0.003598854 -0.051141646
0000a0 80 75 67 bd 3b e4 09 3d 54 79 7a bc 3f de 76 bb
       -0.05650854 0.033664923 -0.015287716 -0.003766909
0000b0 47 22 da bb aa 15 19 bd 2b 48 7b bd aa f1 09 3d
       -0.006656918 -0.037374176 -0.06134812 0.033677734
0000c0 e2 69 4d 3c bd 2d e8 3c 63 42 4f 3c 50 78 58 bc
       0.012537451 0.028342122 0.012650105 -0.0132122785
0000d0 8a 4a 0f 3d a0 19 c8 3b 24 2e 8d bc e6 b6 37 bd
       0.034983195 0.0061065704 -0.017233916 -0.04485216
0000e0 0b e1 24 bc 77 f8 45 bd bb f8 25 3d 24 68 52 3d
       -0.01006342 -0.048332658 0.04052041 0.051368847
0000f0 89 ca 84 bd d4 1b 65 ba e2 58 6b bc b1 0d 21 3d
       -0.06483943 -0.00087398035 -0.014364453 0.039319698
000100 ae 07 19 3d 95 42 12 bd 30 bf 46 bc 4e cb 53 bd
       0.03736084 -0.03570803 -0.012130544 -0.05170756
000110 e8 29 a7 3c ab 75 93 bd b6 e3 50 3d 73 93 0c 3d
       0.020405725 -0.07200178 0.050998412 0.034320306
000120 40 c8 e4 bc 2c 0b 4c 3d e3 ae bf 3c b4 3a 20 3d
       -0.027927518 0.04981534 0.023398822 0.039118484
000130 8e 2a 74 3b a7 03 81 3c ec 73 07 3d 8e 35 d1 bc
       0.003725681 0.015748812 0.033069536 -0.025538232
000140 40 6a e8 3c 19 c9 1f bc df 92 7e 3c 30 92 fe 3c
       0.028370976 -0.009752535 0.0155379465 0.031075567
000150 84 8f 40 bd 26 47 19 3d b0 c4 13 bc ef 90 8f bd
       -0.047011867 0.037421368 -0.009019062 -0.07010066
000160 ce 0b 09 3b ef 48 4c 3c c0 93 1e 3d ec 70 5d 3c
       0.0020911577 0.012468561 0.038715124 0.013515692
000170 e8 a7 31 3d 99 cb 9e bd 00 aa b7 3c 08 e0 49 bc
       0.04337302 -0.07753677 0.02241993 -0.01232148
000180 c6 80 ec bc 48 1e 2e 3d cf bd c4 bc d4 27 4c 3d
       -0.028869998 0.042509347 -0.024016289 0.04984267
000190 c9 ab 2b 3d 78 82 ec bc db 93 b6 3b b4 2e 90 bd
       0.041911874 -0.028870806 0.005571825 -0.07040158
0001a0 87 68 98 3c 6d 2e 6d 3c fa 81 3b bd 7c 5b 76 bd
       0.01860453 0.014476401 -0.045778252 -0.06014584
0001b0 ab 52 d8 3c 31 7a 68 bd 7a d2 8f bd fd 34 8c bd
       0.026406607 -0.056757156 -0.07022567 -0.06846044
0001c0 05 5d 39 bc f5 76 18 3c 6a b3 6e 3b 0f cf ac bc
       -0.0113136815 0.009305705 0.0036422857 -0.021094827
0001d0 60 7f 08 bb 63 e9 98 bd ba b3 80 bd 60 df 59 bc
       -0.0020827875 -0.0746639 -0.0628428 -0.013297886
0001e0 8b 73 1a 3d a1 fd ac bc 56 84 02 bc a2 57 20 bd
       0.037707847 -0.021117033 -0.007966122 -0.039146073
0001f0 fe fb 58 3b 2f cd e3 bb 21 a6 5c bd 6b 99 36 3d
       0.0033109183 -0.00695195 -0.05386937 0.044579905
000200 9c 06 af bc 9f 1e b5 3b 79 23 2d bd 47 2a c0 bc
       -0.021365456 0.005527332 -0.042270157 -0.02345766
000210 f5 1d d2 bc 60 95 10 bd fc ba e7 3b fd 46 06 3c
       -0.02564905 -0.035298705 0.007071851 0.008195636
000220 2f 62 ae 3c 42 0b ed bc a2 b6 43 bd 1c d6 48 3c
       0.021287052 -0.028936032 -0.047781594 0.012258079
000230 64 7a 36 bd bb 75 7d ba 07 90 19 bd 0e fb a1 bd
       -0.044550315 -0.0009668727 -0.03749087 -0.07909213
000240 a5 b2 86 3c 06 97 0d 3d 2a f5 de bb 9e 09 1d bd
       0.016442606 0.034567855 -0.006804128 -0.03833925
000250 4d bf 92 bc 7e 03 24 bd eb 5a 4c bd e4 6c 19 bc
       -0.017913485 -0.040042393 -0.049891394 -0.00936434
000260 df 4e dd 3c aa f2 b8 bc 27 1a 8d 3b a6 e8 4b bd
       0.027015148 -0.022576649 0.004306096 -0.049782418
000270 8f 25 f4 3b 15 c0 f3 bc 40 89 74 bb 16 b4 02 bc
       0.0074507664 -0.029754678 -0.0037313253 -0.007977506
000280 ca 49 61 3d 09 44 1d bd d8 12 e1 bc 9e 3e 45 bd
       0.05500201 -0.03839496 -0.027474806 -0.04815542
000290 e0 8b 06 bb 59 30 68 bc 75 2e 6b 3c 64 45 8a bd
       -0.002053015 -0.014171683 0.014354338 -0.067515165
0002a0 40 dd 6a bd 3f d2 81 bd 5c 99 91 3c f0 83 06 bd
       -0.057339907 -0.063389294 0.017773323 -0.03284067
0002b0 56 ce e4 ba d9 61 02 bd ca 62 10 3d 79 1d b4 bb
       -0.0017456512 -0.031831596 0.035250463 -0.0054966775
0002c0 1e 10 66 bd 20 51 3d bb ea 9e 98 bd a7 c1 58 bd
       -0.056167714 -0.0028887466 -0.074521855 -0.052919056
0002d0 2f ca 92 bd 18 a1 1a 3c ab 55 61 bc cf 71 15 3d
       -0.0716747 0.009437822 -0.013753335 0.03648549
0002e0 23 51 48 bd 48 ac 3a 3c 82 bd b7 bc 7d e3 18 3d
       -0.048905503 0.011393614 -0.022429232 0.037326325
0002f0 39 7a fd bc b1 ce 80 bd 73 ec 31 3d 08 cd 27 3d
       -0.03094207 -0.06289423 0.043438386 0.040967017
000300 40 04 5c 3b 5d 86 55 bd c9 1e b0 bc 70 5d c9 3b
       0.003357187 -0.052130092 -0.021499055 0.006145172
000310 c6 7b 16 bd 9a cf 23 bd 66 d1 dc 3c 48 34 4e bc
       -0.036739133 -0.039992906 0.026955318 -0.012585707
000320 a9 63 aa bb fa b8 10 3d 05 da 1e bd 00 a6 d3 bc
       -0.0051998687 0.035332657 -0.03878214 -0.02583599
000330 3a ef 38 3d ae d8 3e bd 0a a7 b8 bc 2a c7 ba 3c
       0.04515002 -0.04659336 -0.022540588 0.022800047
000340 cd c5 71 3c 3c f5 8f 3c 09 ec 6b 3b 6d f9 3b bb
       0.014756632 0.017572992 0.0035998842 -0.0028682605
000350 ba 61 7e bd c6 a8 cc 3c 7c e0 ed bc b3 13 30 bd
       -0.062104918 0.024982821 -0.029037707 -0.042987537
000360 75 a5 46 3d 70 82 83 bd 22 c3 54 3d 9a 80 0a 3d
       0.048497636 -0.06421363 0.051943906 0.03381405
000370 cc 25 6b 3d d2 19 89 bd ae 49 ce ba e2 26 48 3d
       0.057409093 -0.06694378 -0.0015738511 0.048865207
000380 a8 a5 7d 3c 4a 9b 00 bd 1e 2e 84 bd 6d d9 c9 3c
       0.01548139 -0.031398095 -0.06454109 0.02463981
000390 ef c2 5e bd 10 a4 26 bc ec ca 86 3d 18 3f 6d bd
       -0.054385122 -0.0101709515 0.06581673 -0.0579215
0003a0 07 56 d5 bc 9c a1 cb bc 70 b8 d5 bc c1 f6 39 3d
       -0.026041998 -0.024857335 -0.026088923 0.04540134
0003b0 43 6d 47 bd 90 b1 b9 bc 6b d9 61 bd de ba 56 bd
       -0.048688184 -0.022667676 -0.055138987 -0.052424304
0003c0 fc 1f b7 3b 23 c8 f2 3c 78 ef 22 3d 38 ca bb 3c
       0.0055885296 0.029636448 0.039779156 0.022923574
0003d0 48 59 c6 bc 08 d5 db 3c 37 50 2c 3b ce c1 7e bb
       -0.024212494 0.02683498 0.002629293 -0.003887284
0003e0 9c c3 5b bd 3e ce 4b bd d2 e3 76 bb e8 1f 37 bd
       -0.053653345 -0.049757235 -0.0037672413 -0.044708163
0003f0 c4 f6 7e bd 94 a3 9a bc 61 a8 87 bd e1 9d d6 3c
       -0.062247053 -0.018876828 -0.066239126 0.02619833

fc.4.bias f4 [128]
000000 69 53 f9 bc c8 25 3a bd 56 b3 1d 3d 97 2e 69 bc
       -0.03043528 -0.045446187 0.038501106 -0.014232299
000010 f2 7b bf 3c 65 c7 ec 3c 6a b0 e5 3c 27 d5 0b 3e
       0.023374531 0.028903672 0.028038222 0.1365553
000020 56 40 0e 3f c4 d2 f2 bd 2a 44 09 bd 2d af fe 3e
       0.5556692 -0.118566066 -0.033512272 0.49743024
000030 35 a5 92 3c 5c 6f ee bc 3e 15 8f 3e 24 4e 87 3c
       0.017901042 -0.029105835 0.27945894 0.016516753
000040 68 9f 08 bd 48 4a f6 bc b3 23 82 3e e8 6d 33 3f
       -0.033355147 -0.030064717 0.2541786 0.7008958
000050 a4 e2 03 bb c5 0e 02 3d 9b 7f 62 bd da 34 be 3d
       -0.0020124102 0.031752367 -0.055297475 0.092874244
000060 d9 02 be bc 35 48 2f 3d 05 29 f3 bc 7a e8 37 3d
       -0.023194717 0.04279347 -0.029682646 0.04489944
000070 23 c4 47 3d 61 d3 c0 bc 6b b8 e0 3e ca da 48 3e
       0.048771035 -0.023538293 0.438907 0.19614711
000080 01 cc 80 bd 5d 05 fc 3a 2b 2c a1 3d b0 4a 1c 3f
       -0.06288911 0.0019227673 0.078697525 0.61051464
000090 f3 35 ce bd 15 52 51 bd f3 f3 02 3d 3a 50 9e bd
       -0.10068884 -0.05110367 0.03197093 -0.07730146
0000a0 bf 7d 2d 3d 17 63 f3 3e ee 55 d0 3c a9 74 2a bd
       0.04235625 0.47536537 0.0254316 -0.041615162
0000b0 1c 75 af 3b 50 11 b1 3d d8 e1 de 3b 04 71 9f 3d
       0.0053545367 0.0864588 0.006801825 0.07785228
0000c0 d4 e2 2e 3c c5 ec 05 bd 39 97 08 3f fb 5b 6d 3d
       0.010674197 -0.032696504 0.5335575 0.057949048
0000d0 48 78 25 3d 06 de 6e bd 80 22 55 3d 54 7b 79 ba
       0.040397912 -0.058317207 0.052034855 -0.00095169735
0000e0 96 e4 99 bc 10 11 dc bc 78 60 09 3a 04 57 b7 bd
       -0.018785756 -0.026863605 0.000524051 -0.08952144
0000f0 2f 8f 47 bc a3 6a d8 3e 81 73 cf 3d c8 7c 82 3c
       -0.012180134 0.42268857 0.101294525 0.015928641
000100 43 2e 21 3f b2 41 a8 3d 8d 99 3a bd 68 35 15 3f
       0.62961215 0.082156554 -0.045556594 0.58284616
000110 a5 ec 2f 3f 14 48 c6 3a ce 8b 83 be 63 7e 9e bd
       0.68720466 0.0015127682 -0.256926 -0.0773895
000120 c0 c5 e7 3e 7c 3b 48 bd cc a1 ab 3e 9b 04 1f bd
       0.4526806 -0.048884854 0.3352188 -0.03882275
000130 9e 53 f1 3d 81 79 4b 3e 56 e0 37 3b 3e ad 55 bd
       0.11783527 0.19870569 0.0028057299 -0.05216717
000140 7d 6a 4f 3e 61 fb cf 3e 69 b7 cc 3d b9 3b 94 bd
       0.20255466 0.40621474 0.0999592 -0.07237954
000150 c8 0d ab 3d 35 99 bb bd e2 af 29 be 17 c9 5c 3e
       0.08352238 -0.09160081 -0.16571 0.21561085
000160 d2 3d bd bd be 8b 44 3e d5 54 98 bc 56 b9 ee 3c
       -0.09240307 0.19193932 -0.018595139 0.02914111
000170 35 7d 2b 3e 41 f8 03 bd cb f6 ba 3e 84 89 cd 3e
       0.16746981 -0.032219175 0.36516413 0.4014398
000180 59 5b 5c 3d 2d fd 6c be 84 87 d4 3c ce 6d 60 bd
       0.053798053 -0.23143454 0.025943525 -0.054792218
000190 af 90 90 bd c6 bc 40 3d a5 31 0e 3c 30 d1 ab bd
       -0.07058846 0.04705503 0.008678828 -0.08389509
0001a0 de c2 cb 3c d1 65 ae 3b 09 03 4f bc 36 d4 04 3e
       0.024873193 0.005322196 -0.012635001 0.12971577
0001b0 2f 96 0b bd 34 0f 5b bd 7d ab dd 3c dc 96 69 3d
       -0.034078773 -0.053481296 0.027059311 0.057028636
0001c0 ce ae c0 bc 42 9e 84 3d 05 25 af 3d 1a ec 1f 3e
       -0.023520853 0.06475498 0.08551983 0.1561741
0001d0 46 93 69 3c 80 b8 f3 3d 26 ff e9 3c da 2a 72 3c
       0.014256304 0.11900425 0.028564047 0.014780724
0001e0 57 9a 84 bd a1 5f a8 3c 4d 04 21 3d ac 6f 1a 3d
       -0.064747505 0.020553412 0.039310742 0.037704155
0001f0 c0 dc 3d be cb 78 79 bd 51 30 cc 3c 28 d7 80 3e
       -0.1854124 -0.060906213 0.024925383 0.2516415

fc.6.weight f4 [4, 128]
000000 1b 4e 57 bd b1 66 0a 3e 8a fd 9e bd 0e de 18 3d
       -0.05256472 0.13515736 -0.077632025 0.037321143
000010 c2 98 12 3c 22 9b a6 bc 6f 4a 93 bb 3d 39 1b 3e
       0.008947553 -0.020337645 -0.004494957 0.15158553
000020 65 df 02 3e ba 36 23 3e dc 57 dc bb 49 61 98 3d
       0.12780531 0.15938845 -0.006724341 0.07440431
000030 50 98 5b 3c 4f bd 63 be 1d 33 f5 bc bf cb 3f bd
       0.013403013 -0.22240184 -0.0299316 -0.046825167
000040 57 d0 4c bd 47 39 69 3d 65 6d 32 3e 64 68 37 3e
       -0.050003376 0.05693939 0.17424543 0.17910916
000050 87 7e 4c bb 47 5a f2 3c 40 e1 74 3e dd ed c6 3e
       -0.0031203346 0.029584063 0.23914051 0.3885335
000060 19 35 df 3c ea 16 d5 be 58 c9 2d bd 77 7e 6f 3e
       0.027246999 -0.41619045 -0.042428344 0.23388086
000070 1d bd 59 be 5b d5 a8 bd 83 82 ba 3d 83 fe 00 3f
       -0.21263547 -0.08243819 0.091069244 0.50388354
000080 ae bc 9c bd ca 13 a3 bd 22 3d df bd a5 7f 24 3e
       -0.07653175 -0.07962759 -0.10900332 0.16064318
000090 c2 b3 9a be 4b 8f b8 bd fb b5 17 3d b2 c9 93 bd
       -0.3021527 -0.09011706 0.037038784 -0.07216205
0000a0 c0 08 12 be e9 ef 24 3e 55 e9 b6 bd 25 eb b3 3d
       -0.1426115 0.16107143 -0.08931223 0.08785085
0000b0 e3 76 06 3e 97 df 14 bf f0 99 48 bc ff 73 5e 3f
       0.13131289 -0.5815367 -0.012243733 0.86895746
0000c0 12 eb 2c 3c 8c cb 10 3d 5a aa f2 3d 95 3b 20 3c
       0.010554092 0.035350367 0.11848898 0.00977983
0000d0 75 4a 13 3e 60 45 c6 bc 18 ef f4 3b dd 0c d8 3e
       0.14383872 -0.024203002 0.0074747913 0.42197314
0000e0 98 32 ad bd ac c8 28 be 29 4d 31 bd f6 77 01 bd
       -0.084569156 -0.164828 -0.043286476 -0.031608544
0000f0 45 12 f6 bc c9 eb 49 3e ff fa 86 3e c8 9e 2a 3d
       -0.030038008 0.19718851 0.2636337 0.04165533
000100 d6 f3 10 3e 55 2d 65 bd 6e 74 1f 3d 1a 63 18 3e
       0.14155516 -0.055951435 0.038929395 0.14881554
000110 1a f9 67 3e 20 67 3f 3d 45 35 bc bd 1c f1 9f 3d
       0.22653618 0.046729207 -0.09189848 0.0780966
000120 d7 2a 31 3e 43 fe 60 3e ab e1 27 be 94 cd a6 bc
       0.17301498 0.21971993 -0.16394679 -0.0203617
000130 cf 37 73 3d d6 3b 9f 3e aa 7f a0 bd 8b fd f7 bc
       0.059379395 0.3110034 -0.0783685 -0.030272266
000140 50 41 c7 bd b2 3a 0e 3e 31 30 b4 3d 5e de 0f be
       -0.09729254 0.13889578 0.08798254 -0.1404967
000150 59 df 1d 3e 57 4e c7 bc 77 4f b9 3d bc c5 51 3e
       0.15417232 -0.024329348 0.0904836 0.20485586
000160 78 b7 f3 3d 27 72 43 3d f2 be b2 3c 1b 48 aa 3d
       0.11900228 0.047716286 0.021819565 0.08314534
000170 9b ac 79 3e ae d8 4d bb 5e cc eb 3d fd 91 cd 3c
       0.2438225 -0.0031409669 0.11513589 0.025094027
000180 f1 75 10 3c 3b 61 53 bd 30 67 c5 3c 3a 92 5c 3e
       0.008817182 -0.051606398 0.024097055 0.21540156
000190 9c a0 43 3d 31 31 a6 bc 1f f0 df 3c be e8 25 3d
       0.04776059 -0.020287128 0.027336178 0.040505163
0001a0 a5 88 04 be 51 eb 88 be f6 cc a1 3d e2 b9 ef 3e
       -0.12942751 -0.26742032 0.07900421 0.46821505
0001b0 00 5b cd b9 62 33 88 3d 26 c1 c7 3d 3d 19 44 3f
       -0.00039168447 0.066504255 0.09753637 0.7660101
0001c0 ee fa 9e bd 81 b6 81 3e fb 4c 9d be ec 43 c6 3e
       -0.07762705 0.25334552 -0.30722794 0.38723695
0001d0 62 4c 48 be f4 31 33 be 09 ea da 3c 06 b4 96 3c
       -0.19560388 -0.17499524 0.026722925 0.018396389
0001e0 35 4a 07 be ed a6 46 3e d1 cd ee bc 0b 46 a7 bd
       -0.13211901 0.19399615 -0.029150875 -0.081676565
0001f0 8e 65 8b bc ad 31 14 bd 37 9e 70 3d d4 13 03 3d
       -0.017016198 -0.036180187 0.058744635 0.03200133
000200 23 6c be bb 09 29 7f bd 19 60 74 3d 57 5e 63 bd
       -0.0058112307 -0.062294994 0.05966196 -0.05550989
000210 b8 c3 61 bd 51 81 0c 3e 9a a1 88 3e ad 28 ab bd
       -0.055118293 0.13721205 0.26685792 -0.08357368
000220 c6 18 01 3e 24 03 85 be a8 a7 f9 3c 5f 49 1c 3e
       0.12607107 -0.2597896 0.030475453 0.15262364
000230 93 1c a3 bd 0f 3a 67 3e 0b c9 98 bd fd c5 1a 3c
       -0.079644345 0.22580741 -0.07460221 0.009446618
000240 63 0b a7 bd 04 2b e0 bc 8d fd dd bc 17 43 57 3e
       -0.08156469 -0.027364261 -0.027098441 0.21021686
000250 90 e9 03 be ee ca d6 bc c7 92 05 3c d5 e1 6c 3e
       -0.12882066 -0.026219811 0.00815267 0.23133023
000260 12 34 6a bd 09 66 74 3e d2 7c 8b 3c a1 a0 ae be
       -0.057178564 0.23867048 0.017027292 -0.34106925
000270 2c 04 c6 bd 4b dd 2d 3d 70 8e 0f 3d 60 1b 5c be
       -0.096687645 0.04244737 0.03504795 -0.21494818
000280 fa 9c 43 3d 1d ac 79 3c 6d c5 e6 bd 2c 7d 53 3e
       0.047757126 0.015238789 -0.11268125 0.20653218
000290 f9 31 2b bc 03 d0 0a bd ca 5f 26 bc c0 fe 95 3d
       -0.010448926 -0.03388978 -0.010154674 0.0732398
0002a0 69 3f 38 bc 38 dc 5a 3d a1 0a 31 3e 74 aa 3c bd
       -0.011245587 0.053432673 0.17289211 -0.046060994
0002b0 47 61 c1 3d bb 7d eb 3e 1f cc df bc d6 08 8c bd
       0.09442382 0.45994362 -0.027319012 -0.06837623
0002c0 94 0a 85 bd 99 52 8e bd 2e f0 ae 3d 64 0c 86 3c
       -0.06496158 -0.06949348 0.085419044 0.01636333
0002d0 fa 26 8c be 6e c5 01 3c d8 ec c1 bc c2 14 c6 3e
       -0.27373487 0.007920606 -0.023672506 0.38687712
0002e0 d3 7c 69 3c 2b a6 9f be 4a 71 11 bd 63 01 86 3d
       0.014250952 -0.31181464 -0.03550843 0.06543233
0002f0 ae b2 0d 3e 63 e9 4a be 3e 63 3a bc c9 86 df 3c
       0.13837692 -0.19815592 -0.0113762 0.02728595
000300 7a 18 18 3e 8f 70 c1 3d 58 30 dc bc d4 46 30 3e
       0.14853087 0.09445297 -0.02687852 0.17214519
000310 42 fa 8f 3e f9 02 1f be 9b 45 d3 bd c4 38 9b bd
       0.2812062 -0.15528478 -0.103160106 -0.075791866
000320 84 19 66 3d 52 6b cd 3d a2 05 2c 3d f3 e5 52 3d
       0.056176677 0.10030235 0.04199756 0.051488828
000330 11 a8 8b bd 87 92 a5 3d 31 6b 83 3e ad ae c7 bb
       -0.068191655 0.080845885 0.25667718 -0.006093821
000340 89 22 aa 3e f3 e2 dc 3c 79 94 b3 bc 9a 53 23 3e
       0.33229473 0.026963687 -0.021921383 0.1594986
000350 af a8 bd bd 01 89 93 3c de 4d ee be 4c a6 84 3c
       -0.092606895 0.018009664 -0.46543783 0.016192578
000360 d8 4f f5 3d 83 cf 77 be 32 81 a4 3e fd 07 6a be
       0.119781196 -0.24200253 0.32129818 -0.2285461
000370 89 c5 9b bb 9d e0 65 3d 94 ce 5e 3d de f7 95 3d
       -0.0047537726 0.05612241 0.054396227 0.073226675
000380 41 5e 79 3d 52 ee 68 be f0 fd 43 be 14 b8 56 3c
       0.060880903 -0.22747162 -0.19139838 0.013105411
000390 97 7c 3f bd 00 ed 4d 3e 67 03 99 3e fc 2f 2f bd
       -0.046749678 0.2010994 0.29885408 -0.04277037
0003a0 44 80 a2 3e 5e 29 a3 bd c7 33 9b 3c 03 60 2a 3e
       0.31738484 -0.079668745 0.018945588 0.16638188
0003b0 3e 51 2b 3c 6d 93 d7 bb dd be 8e bd 7b 9e 24 3e
       0.010456381 -0.006578854 -0.06969998 0.1607608
0003c0 02 1a 27 3f 5b ee fa 3c f8 12 2e 3e 74 30 d8 3d
       0.6527406 0.030631235 0.16999424 0.10556117
0003d0 0c 83 da 3d 63 72 b1 3d a3 a0 80 bd 6e 64 5a 3d
       0.106695265 0.08664396 -0.06280639 0.053318433
0003e0 cd 34 ce 3d 9e 85 18 3e 20 76 84 3d 5a 98 54 bc
       0.10068665 0.14894721 0.06467843 -0.012975777
0003f0 28 51 8f 3e c1 a0 13 3d 59 be 81 bd 86 df 4f bd
       0.27991605 0.03604198 -0.06335134 -0.050750278

fc.6.bias f4 [4]
000000 8c 70 fe 3e 9c 69 c4 3e 76 ae 99 3e f5 ed c9 3e
       0.4969524 0.38361824 0.30015916 0.3943936
